ws_icra2022/src/my_pkg/ur5_eye2hand/keyboard_adaptive/0907offset_0_step_1e-5/log_theta_z.npy (npy, 43808 bytes, 1 tensors)

array f8 [420, 13, 1]
0.0 0.0 0.0 0.0 0.0 0.0 0.0 0.0
0.0 0.678457138 -0.734604865 -0.00718357448 0.9 0.0 0.0 0.0
0.0 0.0 0.0 0.0 0.0 0.0 0.678457138 -0.734604865
-0.00718357448 0.9 -4.677003326344067e-08 -7.090041697268588e-08 -6.573858483210451e-08 -7.106738100685618e-08 7.472310595189245e-08 -3.002917694210873e-08
6.555805076003162e-08 3.04212916243444e-08 -7.945158066737e-08 0.6784570806210106 -0.7346048264254257 -0.007183531270400802 0.900000107405152 6.910664302609743e-08
1.0464621249458866e-07 9.706997239250347e-08 1.0487787584734371e-07 -1.1038283009380762e-07 4.433283326434173e-08 -9.681963247688571e-08 -4.487693447769623e-08 1.1730795445935956e-07
0.6784572226765457 -0.7346049219913419 -0.007183638280295375 0.8999998414152095 6.910664302609743e-08 1.0464621249458866e-07 9.706997239250347e-08 1.0487787584734371e-07
-1.1038283009380762e-07 4.433283326434173e-08 -9.681963247688571e-08 -4.487693447769623e-08 1.1730795445935956e-07 0.6784572226765457 -0.7346049219913419 -0.007183638280295375
0.8999998414152095 -1.3704218892850055e-05 -2.057250952499123e-05 -1.9125305586247768e-05 -2.061005918457095e-05 2.1822919032284684e-05 -8.706132287148683e-06 1.9084834990953356e-05
8.794494527816045e-06 -2.3135189242312777e-05 0.6784405125770686 -0.7345935933522915 -0.0071709843490981775 0.9000312539761975 -8.456883850753105e-05 -0.0001260229481252048
-0.00011738624109305 -0.0001262365997855367 0.000134318117292332 -5.325571196965482e-05 0.00011715644336117377 5.375932665513542e-05 -0.0001421180630696955 0.6783553817437025
-0.7345354701456935 -0.007106202776725654 0.9001918678011342 -8.456883850753105e-05 -0.0001260229481252048 -0.00011738624109305 -0.0001262365997855367 0.000134318117292332
-5.325571196965482e-05 0.00011715644336117377 5.375932665513542e-05 -0.0001421180630696955 0.6783553817437025 -0.7345354701456935 -0.007106202776725654 0.9001918678011342
-0.00019731258620134804 -0.0002894923866757112 -0.00027075818186544025 -0.0002898969285033142 0.00031166069872732096 -0.00012196719437483776 0.0002703246723131872 0.0001229237226281428
-0.00032843001161231343 0.6782238371550066 -0.734443752801612 -0.007004557257380664 0.9004427788654585 -0.00019731258620134804 -0.0002894923866757112 -0.00027075818186544025
-0.0002898969285033142 0.00031166069872732096 -0.00012196719437483776 0.0002703246723131872 0.0001229237226281428 -0.00032843001161231343 0.6782238371550066 -0.734443752801612
-0.007004557257380664 0.9004427788654585 -0.00031511443934595607 -0.0004561180794193124 -0.00042814277056902814 -0.0004566398502750618 0.0004953745850548993 -0.00019166161924099752
0.00042758505601710466 0.00019289795600099905 -0.0005202217873201471 0.6780901317020885 -0.7343486568284799 -0.006899711122345488 0.9007004827785992 -0.0004317857836104498
-0.0006189820686089017 -0.0005825485968795009 -0.0006195914327162367 0.0006765108207581103 -0.00025959163205594056 0.000581898438305497 0.00026103770861556845 -0.0007086956446749334
0.6779596214463727 -0.7342548538455614 -0.006796558719586786 0.9009534215869024 -0.0004317857836104498 -0.0006189820686089017 -0.0005825485968795009 -0.0006195914327162367
0.0006765108207581103 -0.00025959163205594056 0.000581898438305497 0.00026103770861556845 -0.0007086956446749334 0.6779596214463727 -0.7342548538455614 -0.006796558719586786
0.9009534215869024 -0.0005536302220075783 -0.0007840238909044043 -0.0007403904946909625 -0.0007846623428581442 0.0008637878327874191 -0.00032798644450507457 0.0007397099158230288
0.00032950268242268874 -0.0009021045894137425 0.6778277165611565 -0.7341577519551017 -0.006690418949874897 0.9012122631117389 -0.0005536302220075783 -0.0007840238909044043
-0.0007403904946909625 -0.0007846623428581442 0.0008637878327874191 -0.00032798644450507457 0.0007397099158230288 0.00032950268242268874 -0.0009021045894137425 0.6778277165611565
-0.7341577519551017 -0.006690418949874897 0.9012122631117389 -0.0006709928411711412 -0.0009385956345524105 -0.000889454838660756 -0.0009392386690718817 0.001042516645777922
-0.00039161629391344107 0.00088876950777133 0.00039314366314330816 -0.0010854557567827698 0.6777044275382001 -0.7340649802354107 -0.006589529929519269 0.901456980473106
-0.0007850674684411287 -0.0010866419869431476 -0.0010328764046554435 -0.0010872874353646908 0.0012154180922880138 -0.00045233812877745397 0.001032188581983054 0.00045387138312251495
-0.001262214354349441 0.6775864431289889 -0.7339751834651336 -0.006492127287194862 0.9016925658899623 -0.0007850674684411287 -0.0010866419869431476 -0.0010328764046554435
-0.0010872874353646908 0.0012154180922880138 -0.00045233812877745397 0.001032188581983054 0.00045387138312251495 -0.001262214354349441 0.6775864431289889 -0.7339751834651336
-0.006492127287194862 0.9016925658899623 -0.0008939403063463462 -0.0012239416125605109 -0.0011670847948546043 -0.0012245809528762179 0.0013789427472556375 -0.0005082537016984721
0.001166403220692214 0.0005097719560275001 -0.0014282803976367975 0.6774771760241965 -0.7338901362227169 -0.006400349874340333 0.9019132837506534 -0.0008939403063463462
-0.0012239416125605109 -0.0011670847948546043 -0.0012245809528762179 0.0013789427472556375 -0.0005082537016984721 0.001166403220692214 0.0005097719560275001 -0.0014282803976367975
00000000: 0000 0000 0000 0000 0000 0000 0000 0000
00000010: 0000 0000 0000 0000 0000 0000 0000 0000
00000020: 0000 0000 0000 0000 0000 0000 0000 0000
00000030: 0000 0000 0000 0000 0000 0000 0000 0000
00000040: 0000 0000 0000 0000 0a54 6ebe ebb5 e53f
00000050: 330a d50f e281 e7bf 3414 5c17 866c 7dbf
00000060: cdcc cccc cccc ec3f 0000 0000 0000 0000
00000070: 0000 0000 0000 0000 0000 0000 0000 0000
00000080: 0000 0000 0000 0000 0000 0000 0000 0000
00000090: 0000 0000 0000 0000 0000 0000 0000 0000
000000a0: 0000 0000 0000 0000 0000 0000 0000 0000
000000b0: 0a54 6ebe ebb5 e53f 330a d50f e281 e7bf
000000c0: 3414 5c17 866c 7dbf cdcc cccc cccc ec3f
000000d0: 5432 c140 061c 69be df66 7553 3d08 73be
000000e0: d35a 276a 85a5 71be 87e4 9e96 b613 73be
000000f0: e3f3 1ec8 ee0e 743e 0867 2cbc 2d1f 60be
00000100: 0359 f96c 1d99 713e e23e 3f0b 1255 603e
00000110: 9f6a 16fd de53 75be 5438 a09f ebb5 e53f
00000120: 0664 1ffb e181 e7bf 5cc5 047e 7a6c 7dbf
00000130: a273 7606 cdcc ec3f fdf9 c7eb f88c 723e
00000140: 43ab 98a3 3b17 7c3e 03e9 7e03 990e 7a3e
00000150: bde3 951a 2727 7c3e bf83 7a48 73a1 7dbe
00000160: fc37 bde6 0ecd 673e a7bb befc 64fd 79be
00000170: 3c56 c8c2 d617 68be e5a2 fd5b 577d 7f3e
00000180: 222f e4eb ebb5 e53f c7de 6d2e e281 e7bf
00000190: aebe ae37 976c 7dbf 8612 a977 cccc ec3f
000001a0: fdf9 c7eb f88c 723e 43ab 98a3 3b17 7c3e
000001b0: 03e9 7e03 990e 7a3e bde3 951a 2727 7c3e
000001c0: bf83 7a48 73a1 7dbe fc37 bde6 0ecd 673e
000001d0: a7bb befc 64fd 79be 3c56 c8c2 d617 68be
000001e0: e5a2 fd5b 577d 7f3e 222f e4eb ebb5 e53f
000001f0: c7de 6d2e e281 e7bf aebe ae37 976c 7dbf
00000200: 8612 a977 cccc ec3f 877c b680 65bd ecbe
00000210: 94d3 f616 6492 f5be 8392 07fe e80d f4be
00000220: b5b7 8f7b 789c f5be 0eef a593 0be2 f63e
00000230: 6b7b d8b5 1142 e2be 58af c9df 0b03 f43e
00000240: b7c4 cc1f 8271 e23e 63d3 5219 4e42 f8be
00000250: 7d99 b9e0 c8b5 e53f 2b93 696c ca81 e7bf
00000260: 36ee 2674 525f 7dbf 9794 2658 0ecd ec3f
00000270: 0a6b 2595 512b 16bf b819 a9e1 a084 20bf
00000280: 5345 1744 a8c5 1ebf 2b55 a122 cc8b 20bf
00000290: 4c5b 91d7 f79a 213f a7f1 7254 dceb 0bbf
000002a0: d45b fa5e 3cb6 1e3f dae0 1166 742f 0c3f
000002b0: 8469 b9dd b0a0 22bf 1af4 7458 16b5 e53f
000002c0: 3be3 c087 5081 e7bf d780 65c8 641b 7dbf
000002d0: c697 0a2d 5fce ec3f 0a6b 2595 512b 16bf
000002e0: b819 a9e1 a084 20bf 5345 1744 a8c5 1ebf
000002f0: 2b55 a122 cc8b 20bf 4c5b 91d7 f79a 213f
00000300: a7f1 7254 dceb 0bbf d45b fa5e 3cb6 1e3f
00000310: dae0 1166 742f 0c3f 8469 b9dd b0a0 22bf
00000320: 1af4 7458 16b5 e53f 3be3 c087 5081 e7bf
00000330: d780 65c8 641b 7dbf c697 0a2d 5fce ec3f
00000340: cc7c ab35 b6dc 29bf 4275 4d55 e0f8 32bf
00000350: 5bcb 4689 91be 31bf 09f6 bed3 a9ff 32bf
00000360: 42e6 2b82 cc6c 343f 6e7c b071 14f9 1fbf
00000370: 8aab 7ba0 4bb7 313f 24e3 b7bc a21c 203f
00000380: 0aa8 ad28 2486 35bf 2759 fe79 02b4 e53f
00000390: 111a 612f 9080 e7bf dd9a 7e85 cfb0 7cbf
000003a0: 2ab0 e45f 6dd0 ec3f cc7c ab35 b6dc 29bf
000003b0: 4275 4d55 e0f8 32bf 5bcb 4689 91be 31bf
000003c0: 09f6 bed3 a9ff 32bf 42e6 2b82 cc6c 343f
000003d0: 6e7c b071 14f9 1fbf 8aab 7ba0 4bb7 313f
000003e0: 24e3 b7bc a21c 203f 0aa8 ad28 2486 35bf
000003f0: 2759 fe79 02b4 e53f 111a 612f 9080 e7bf
00000400: dd9a 7e85 cfb0 7cbf 2ab0 e45f 6dd0 ec3f
00000410: 2b18 2436 bea6 34bf 30dc f53b 64e4 3dbf
00000420: c0c0 9632 0b0f 3cbf 9954 1539 25ed 3dbf
00000430: 78b0 2fd2 803b 403f 6f5f e8c5 181f 29bf
00000440: 343d f4d4 af05 3c3f 26d4 31d3 9448 293f
00000450: 3928 17c8 ef0b 41bf 61d3 6c13 eab2 e53f
00000460: 3d13 1ec1 c87f e7bf 3507 f519 df42 7cbf
00000470: dad0 a0d1 89d2 ec3f 64be c9d1 294c 3cbf
00000480: 8c00 e9de 6548 44bf cebd 0196 c516 43bf
00000490: 5df6 5e78 824d 44bf acb2 deec fb2a 463f
000004a0: 203a eb91 3903 31bf e100 8d61 5111 433f
000004b0: 8e2b e96b 7c1b 313f fde8 ef4e f838 47bf
000004c0: dddc 4360 d8b1 e53f 3145 0609 047f e7bf
000004d0: bfc4 d056 b5d6 7bbf e6eb 1d45 9cd4 ec3f
000004e0: 64be c9d1 294c 3cbf 8c00 e9de 6548 44bf
000004f0: cebd 0196 c516 43bf 5df6 5e78 824d 44bf
00000500: acb2 deec fb2a 463f 203a eb91 3903 31bf
00000510: e100 8d61 5111 433f 8e2b e96b 7c1b 313f
00000520: fde8 ef4e f838 47bf dddc 4360 d8b1 e53f
00000530: 3145 0609 047f e7bf bfc4 d056 b5d6 7bbf
00000540: e6eb 1d45 9cd4 ec3f fff2 4ad9 2f24 42bf
00000550: 2275 407c deb0 49bf 02f7 007b d842 48bf
00000560: cadc ec8c 39b6 49bf b664 0a3f fa4d 4c3f
00000570: 0b7a 7c0d b37e 35bf d476 d0f2 223d 483f
00000580: 6606 b53e 2398 353f 8fe7 c3da 668f 4dbf
00000590: 157b 5ec0 c3b0 e53f ba10 d865 387e e7bf
000005a0: 1749 61a9 6967 7bbf c935 9a19 bbd6 ec3f
000005b0: fff2 4ad9 2f24 42bf 2275 407c deb0 49bf
000005c0: 02f7 007b d842 48bf cadc ec8c 39b6 49bf
000005d0: b664 0a3f fa4d 4c3f 0b7a 7c0d b37e 35bf
000005e0: d476 d0f2 223d 483f 6606 b53e 2398 353f
000005f0: 8fe7 c3da 668f 4dbf 157b 5ec0 c3b0 e53f
00000600: ba10 d865 387e e7bf 1749 61a9 6967 7bbf
00000610: c935 9a19 bbd6 ec3f fad4 8227 b2fc 45bf
00000620: 7b2e fcc6 82c1 4ebf b99b beb8 4925 4dbf
00000630: b260 f3ae e7c6 4ebf f5b3 8bb9 a114 513f
00000640: 9bcc c82c 3baa 39bf c489 1afc 891f 4d3f
00000650: 6434 032d dbc3 393f 2b38 813e bbc8 51bf
00000660: eb30 1432 c1af e53f ccff 67d7 757d e7bf
00000670: b659 b178 9ffd 7abf b940 3c4f bcd8 ec3f
00000680: 54e1 118d 9fb9 49bf 2ee9 f7f2 b4cd 51bf
00000690: 2258 3e98 32ec 50bf 2dc4 7afe 69d0 51bf
000006a0: a21e 453d d5e9 533f bff9 4678 f9a4 3dbf
000006b0: daab fc0c 50e9 503f 0a0b 42bf b2be 3d3f
000006c0: 5697 d657 1cae 54bf 8c76 aec3 c9ae e53f
000006d0: fedd 2186 b97c e7bf 9c5c 1426 7d97 7abf
000006e0: 1966 315e aada ec3f 54e1 118d 9fb9 49bf
000006f0: 2ee9 f7f2 b4cd 51bf 2258 3e98 32ec 50bf
00000700: 2dc4 7afe 69d0 51bf a21e 453d d5e9 533f
00000710: bff9 4678 f9a4 3dbf daab fc0c 50e9 503f
00000720: 0a0b 42bf b2be 3d3f 5697 d657 1cae 54bf
00000730: 8c76 aec3 c9ae e53f fedd 2186 b97c e7bf
00000740: 9c5c 1426 7d97 7abf 1966 315e aada ec3f
00000750: f9c6 ae30 ea4a 4dbf 0bab ae4c 950d 54bf
00000760: dfc3 a2c1 1b1f 53bf 5ec9 35c9 4310 54bf
00000770: f346 2980 b497 563f 5057 7083 8aa7 40bf
00000780: cee4 f4eb 3f1c 533f 074b 95f0 46b4 403f
00000790: a946 3b66 a466 57bf 77ee 599d e4ad e53f
000007a0: addf bd2a 077c e7bf edbf 4ad6 4037 7abf
000007b0: 4e2f 313f 79dc ec3f f9c6 ae30 ea4a 4dbf
000007c0: 0bab ae4c 950d 54bf dfc3 a2c1 1b1f 53bf
000007d0: 5ec9 35c9 4310 54bf f346 2980 b497 563f
000007e0: 5057 7083 8aa7 40bf cee4 f4eb 3f1c 533f
000007f0: 074b 95f0 46b4 403f a946 3b66 a466 57bf
