ws_icra2022/src/my_pkg/ur5_eye2hand/keyboard_adaptive/before0913/0912_step_3e-5_1/log_theta_z.npy (npy, 6992 bytes, 1 tensors)

array f8 [66, 13, 1]
0	0x0000000000000000	0.0
1	0x0000000000000000	0.0
2	0x0000000000000000	0.0
3	0x0000000000000000	0.0
4	0x0000000000000000	0.0
5	0x0000000000000000	0.0
6	0x0000000000000000	0.0
7	0x0000000000000000	0.0
8	0x0000000000000000	0.0
9	0x3fe5b5ebbe6e540a	0.678457138
10	0xbfe781e20fd50a33	-0.734604865
11	0xbf7d6c86175c1434	-0.00718357448
12	0x3ff977be223a119f	1.59173406
13	0x3eb930fa97346095	1.5015199011422408e-06
14	0x3e8573a917b849ae	1.5982835664723994e-07
15	0x3eb15aada8bcba47	1.0343916611689159e-06
16	0x3e7ffdafa7c64a51	1.1917561865683523e-07
17	0xbebe96938827c752	-1.823198119252059e-06
18	0x3e7d2edbb89ec1f9	1.0871529645853857e-07
19	0xbeb17229ee5ab9dd	-1.0398597906458866e-06
20	0x3e5771c9f1fb3df5	2.1834380635822e-08
21	0x3eb9449489731dec	1.5060836966884328e-06
22	0x3fe5b5ec42108052	0.6784573831864782
23	0xbfe781e4243e8a74	-0.7346058566948401
24	0xbf7d6d88a8ad1aaa	-0.0071845377195304625
25	0x3ff977bc36e7666b	1.5917322296794747
26	0x3eb930fa97346095	1.5015199011422408e-06
27	0x3e8573a917b849ae	1.5982835664723994e-07
28	0x3eb15aada8bcba47	1.0343916611689159e-06
29	0x3e7ffdafa7c64a51	1.1917561865683523e-07
30	0xbebe96938827c752	-1.823198119252059e-06
31	0x3e7d2edbb89ec1f9	1.0871529645853857e-07
32	0xbeb17229ee5ab9dd	-1.0398597906458866e-06
33	0x3e5771c9f1fb3df5	2.1834380635822e-08
34	0x3eb9449489731dec	1.5060836966884328e-06
35	0x3fe5b5ec42108052	0.6784573831864782
36	0xbfe781e4243e8a74	-0.7346058566948401
37	0xbf7d6d88a8ad1aaa	-0.0071845377195304625
38	0x3ff977bc36e7666b	1.5917322296794747
39	0xbea3a3c65600f34a	-5.853100155727594e-07
40	0xbe70a7b6a13f6e5c	-6.204519592495965e-08
41	0xbe9b1461dfc03ce4	-4.035177594294207e-07
42	0xbe688bd86b429da2	-4.5720992687427773e-08
43	0x3ea7da44c0d19ca0	7.108632204101116e-07
44	0xbe6713b107c34a46	-4.298411313140039e-08
45	0x3e9b39bd0d02f43c	4.056921740871815e-07
46	0xbe4430f788b09f0e	-9.402296071989918e-09
47	0xbea3b271ff633714	-5.870178927614929e-07
48	0x3fe5b5eb8b5143a7	0.6784570427936288
49	0xbfe781e1401acd71	-0.7346044780773991
50	0xbf7d6c215c48e3d7	-0.007183199228671242
51	0x3ff977bee1ca29a3	1.591734773627288
52	0xbea3a3c65600f34a	-5.853100155727594e-07
53	0xbe70a7b6a13f6e5c	-6.204519592495965e-08
54	0xbe9b1461dfc03ce4	-4.035177594294207e-07
55	0xbe688bd86b429da2	-4.5720992687427773e-08
56	0x3ea7da44c0d19ca0	7.108632204101116e-07
57	0xbe6713b107c34a46	-4.298411313140039e-08
58	0x3e9b39bd0d02f43c	4.056921740871815e-07
59	0xbe4430f788b09f0e	-9.402296071989918e-09
60	0xbea3b271ff633714	-5.870178927614929e-07
61	0x3fe5b5eb8b5143a7	0.6784570427936288
62	0xbfe781e1401acd71	-0.7346044780773991
63	0xbf7d6c215c48e3d7	-0.007183199228671242
64	0x3ff977bee1ca29a3	1.591734773627288
65	0xbefb178fa3fb2905	-2.583697846495708e-05
66	0xbec6721d7073d389	-2.6757433065856625e-06
67	0xbef2cba834d97328	-1.7924819351799976e-05
68	0xbebd34397c9487ac	-1.740694175752094e-06
69	0x3f007b3c916e2d58	3.1435762301768976e-05
70	0xbec2510a7fe3e9fa	-2.1835048747951827e-06
71	0x3ef2ea77759e2916	1.8039593988863454e-05
72	0xbeaaceb5b1176b18	-7.989245622245951e-07
73	0xbefb23f74e8e0418	-2.588319049179688e-05
74	0x3fe5b5e3269ee61d	0.6784530405340693
75	0xbfe781bdf48235a0	-0.7345876479682154
76	0xbf7d5b46de3de11c	-0.007167126492156475
77	0x3ff977df39f1704a	1.5917656196025
78	0xbf30db8b39818835	-0.00025722645796666675
79	0xbefb4846e4948eea	-2.6018459071810053e-05
80	0xbf2787ecd1c89f9c	-0.00017952695715561524
81	0xbeeeb4478cf8eca8	-1.4640911472621414e-05
82	0x3f348b06b4c81ff6	0.0003134623882776738
83	0xbef9a33686d1914a	-2.4449873695779342e-05
84	0x3f27b2ed36baedb0	0.00018080850292344136
85	0xbee8641c82905df6	-1.163056374946148e-05
86	0xbf30de1934b3ff30	-0.00025737872483942974
87	0x3fe5b5986b2bc01b	0.678417405431904
88	0xbfe78077d37c6cfa	-0.7344321375452687
89	0xbf7cc1f98017baea	-0.007020926104344774
90	0x3ff979082e620c53	1.5920488178096732
91	0xbf30db8b39818835	-0.00025722645796666675
92	0xbefb4846e4948eea	-2.6018459071810053e-05
93	0xbf2787ecd1c89f9c	-0.00017952695715561524
94	0xbeeeb4478cf8eca8	-1.4640911472621414e-05
95	0x3f348b06b4c81ff6	0.0003134623882776738
96	0xbef9a33686d1914a	-2.4449873695779342e-05
97	0x3f27b2ed36baedb0	0.00018080850292344136
98	0xbee8641c82905df6	-1.163056374946148e-05
99	0xbf30de1934b3ff30	-0.00025737872483942974
100	0x3fe5b5986b2bc01b	0.678417405431904
101	0xbfe78077d37c6cfa	-0.7344321375452687
102	0xbf7cc1f98017baea	-0.007020926104344774
103	0x3ff979082e620c53	1.5920488178096732
104	0xbf44cc34015c0650	-0.0006346944744281633
105	0xbf0ffb751dc8e6c0	-6.100131188131524e-05
106	0xbf3d4e24cb3a636a	-0.0004471626118430135
107	0xbef9489454988c30	-2.4112237303818864e-05
108	0x3f49655e24fabf9a	0.0007750234307959292
109	0xbf12b918680a0fc0	-7.142268624177241e-05
110	0x3f3d870d1e6a2aae	0.00045055456431756624
111	0xbf074439adf9a9a8	-4.43773367323098e-05
112	0xbf44c28aefe7d12a	-0.0006335428623161267
113	0x3fe5b52859ba7c9e	0.6783639671811164
114	0xbfe77e583baf5725	-0.7341729322167551
115	0xbf7bcc82418ee989	-0.006786831677283786
116	0x3ff97aeec3a46476	1.5925128595611375
117	0xbf44cc34015c0650	-0.0006346944744281633
118	0xbf0ffb751dc8e6c0	-6.100131188131524e-05
119	0xbf3d4e24cb3a636a	-0.0004471626118430135
120	0xbef9489454988c30	-2.4112237303818864e-05
121	0x3f49655e24fabf9a	0.0007750234307959292
122	0xbf12b918680a0fc0	-7.142268624177241e-05
123	0x3f3d870d1e6a2aae	0.00045055456431756624
124	0xbf074439adf9a9a8	-4.43773367323098e-05
125	0xbf44c28aefe7d12a	-0.0006335428623161267
126	0x3fe5b52859ba7c9e	0.6783639671811164
127	0xbfe77e583baf5725	-0.7341729322167551
128	0xbf7bcc82418ee989	-0.006786831677283786
129	0x3ff97aeec3a46476	1.5925128595611375
130	0xbf506c2c61005476	-0.0010023530376248846
131	0xbf17cf24dbc6c0dd	-9.082472292365773e-05
132	0xbf47522a751915fc	-0.0007116992293922371
133	0xbef4e0efdee6d60d	-1.9911441933214954e-05
134	0x3f54139be2e08c36	0.0012253782583762202
135	0xbf20c81584ace198	-0.0001280332820330465
136	0x3f477c66381461e2	0.0007167338482388342
137	0xbf184b86d1894792	-9.26781689341279e-05
138	0xbf505a144e5e2de9	-0.0009980390836713488
139	0x3fe5b4c6bd38de6b	0.6783174224610325
140	0xbfe77c38de6af2a9	-0.7339138359162308
141	0xbf7ae1b2db00cfc1	-0.006562899259780098
142	0x3ff97ccabb6c8744	1.5929667779204957
143	0xbf556693350e970f	-0.001306194073757042
144	0xbf1dc9af05fe85c5	-0.00011363154180667804
145	0xbf4e8593987806df	-0.0009314509088087195
146	0xbee82f95b8a366d7	-1.1532725484309138e-05
147	0x3f5a2cc2f8fb8e2f	0.0015975860623535056
148	0xbf275cfef5276c28	-0.00017824756885329138
149	0x3f4eb860c731e614	0.0009375069188443685
150	0xbf221cf5e8f1b5b6	-0.00013819219427395134
151	0xbf55469786e396cd	-0.0012985687022192716
152	0x3fe5b47a59621ed4	0.6782809968726391
153	0xbfe77a72960e28fb	-0.7336972170608357
154	0xbf7a20ef39d1acc9	-0.006379065013884141
155	0x3ff97e54a76bd838	1.5933424510854035
156	0xbf556693350e970f	-0.001306194073757042
157	0xbf1dc9af05fe85c5	-0.00011363154180667804
158	0xbf4e8593987806df	-0.0009314509088087195
159	0xbee82f95b8a366d7	-1.1532725484309138e-05
160	0x3f5a2cc2f8fb8e2f	0.0015975860623535056
161	0xbf275cfef5276c28	-0.00017824756885329138
162	0x3f4eb860c731e614	0.0009375069188443685
163	0xbf221cf5e8f1b5b6	-0.00013819219427395134
164	0xbf55469786e396cd	-0.0012985687022192716
165	0x3fe5b47a59621ed4	0.6782809968726391
166	0xbfe77a72960e28fb	-0.7336972170608357
167	0xbf7a20ef39d1acc9	-0.006379065013884141
168	0x3ff97e54a76bd838	1.5933424510854035
169	0xbf59b73e28e6bc43	-0.0015695673970233116
170	0xbf20e9f753fdc9b4	-0.00012904304639567226
171	0xbf5266e2984fed7b	-0.0011231625405788415
172	0x3ed1b07300ec8b2a	4.21744699855251e-06
173	0x3f5f7465117d32d9	0.0019198405261306366
174	0xbf2d9848b2306a90	-0.00022579085734338424
175	0x3f52802ba14ee6a5	0.0011291910243315464
176	0xbf285bf7eabc99b5	-0.00018584634141767328
177	0xbf59870882de084a	-0.0015580733411018227
178	0x3fe5b440081fea14	0.6782531889614938
179	0xbfe778e0669313db	-0.7335054400833728
180	0xbf797b291b7520e0	-0.006220970702379897
181	0x3ff97faa9e76aac8	1.59366857433149
182	0xbf5d67893eebdbc0	-0.0017947044649966187
183	0xbf226226f9a897b1	-0.00014025426647029445
184	0xbf55184086f10dee	-0.0012875204227079623
185	0x3ef656770f55d25c	2.1302942476224932e-05
186	0x3f61fb68dede77c4	0.002195076775890011
187	0xbf318fc626f1cb36	-0.0002679690141526471
188	0x3f552f69c31ad89a	0.0012930424531254815
189	0xbf2e23dfec4fcb1b	-0.00022995098529995307
190	0xbf5d27cc5fa86dd2	-0.001779508193641689
191	0x3fe5b411acabff2d	0.6782310841080964
192	0xbfe77784fc2b2420	-0.7333397793928533
193	0xbf78ede6ab1fdce1	-0.0060862551199456225
194	0x3ff980cf24b17f1d	1.5939475472768614
195	0xbf5d67893eebdbc0	-0.0017947044649966187
196	0xbf226226f9a897b1	-0.00014025426647029445
197	0xbf55184086f10dee	-0.0012875204227079623
198	0x3ef656770f55d25c	2.1302942476224932e-05
199	0x3f61fb68dede77c4	0.002195076775890011
200	0xbf318fc626f1cb36	-0.0002679690141526471
201	0x3f552f69c31ad89a	0.0012930424531254815
202	0xbf2e23dfec4fcb1b	-0.00022995098529995307
203	0xbf5d27cc5fa86dd2	-0.001779508193641689
204	0x3fe5b411acabff2d	0.6782310841080964
205	0xbfe77784fc2b2420	-0.7333397793928533
206	0xbf78ede6ab1fdce1	-0.0060862551199456225
207	0x3ff980cf24b17f1d	1.5939475472768614
208	0xbf6051c9d4e23e89	-0.001992124750422712
209	0xbf231e567aef172a	-0.0001458626333869448
210	0xbf5777a86ef263ad	-0.00143233727047785
211	0x3f06b95012f5536e	4.334235779405211e-05
212	0x3f63f4388bfebf40	0.002435789530828375
213	0xbf34243ef7d0dbe2	-0.00030733620934902787
214	0x3f57883450af7aad	0.0014362822428137065
215	0xbf3200ff81a7983f	-0.0002747176928593643
216	0xbf6029c666b2b9fc	-0.001973044874453265
217	0x3fe5b3f03e8f2e04	0.6782151433812378
218	0xbfe7764dd65aca77	-0.7331914126028342
219	0xbf78729473dea3eb	-0.005968646901160372
220	0x3ff981cff1b481cf	1.5941924516301815
221	0xbf6051c9d4e23e89	-0.001992124750422712
222	0xbf231e567aef172a	-0.0001458626333869448
223	0xbf5777a86ef263ad	-0.00143233727047785
224	0x3f06b95012f5536e	4.334235779405211e-05
225	0x3f63f4388bfebf40	0.002435789530828375
226	0xbf34243ef7d0dbe2	-0.00030733620934902787
227	0x3f57883450af7aad	0.0014362822428137065
228	0xbf3200ff81a7983f	-0.0002747176928593643
229	0xbf6029c666b2b9fc	-0.001973044874453265
230	0x3fe5b3f03e8f2e04	0.6782151433812378
231	0xbfe7764dd65aca77	-0.7331914126028342
232	0xbf78729473dea3eb	-0.005968646901160372
233	0x3ff981cff1b481cf	1.5941924516301815
234	0xbf6197598cbbc364	-0.002147364522777572
235	0xbf234de24bd708ee	-0.00014727961926836543
236	0xbf59571d8a2e381b	-0.001546648833684389
237	0x3f1129c95855ad6b	6.547252094939663e-05
238	0x3f65801308a98f5c	0.0026245471720346813
239	0xbf3643b7dec2dc7e	-0.00033972968118285
240	0x3f595ea0f4c43025	0.0015484401547523144
241	0xbf3492c1f5a80fca	-0.0003139232191247092
242	0xbf61682eff3a44f7	-0.002124873915655297
243	0x3fe5b3db24f75e99	0.678205082130222
244	0xbfe77554fa7870e6	-0.7330727474214
245	0xbf7811daf0b427a9	-0.0058764030793642475
246	0x3ff9829a19c16851	1.5943852430414334
247	0xbf6197598cbbc364	-0.002147364522777572
248	0xbf234de24bd708ee	-0.00014727961926836543
249	0xbf59571d8a2e381b	-0.001546648833684389
250	0x3f1129c95855ad6b	6.547252094939663e-05
251	0x3f65801308a98f5c	0.0026245471720346813
252	0xbf3643b7dec2dc7e	-0.00033972968118285
253	0x3f595ea0f4c43025	0.0015484401547523144
254	0xbf3492c1f5a80fca	-0.0003139232191247092
255	0xbf61682eff3a44f7	-0.002124873915655297
