ws_icra2022/src/my_pkg/ur5_eye2hand/keyboard_adaptive0915/log_theta_k.npy (npy, 148808 bytes, 1 tensors)

array f8 [1239, 15, 1]
000000 17 12 ee 9d 0e 16 a4 c0 37 0d 17 da b5 0c 53 c0
       -2571.02854866 -76.19859935999999
000010 ca 58 65 8d 17 5e 49 c0 39 89 18 e1 b3 9e 52 40
       -50.73509376 74.47972896
000020 7d 6e 91 49 80 7d 48 c0 ec c5 ab 07 ef 44 a2 c0
       -48.98047752 -2338.4668554
000030 c1 19 13 9a d8 87 a5 3f b6 39 7f 27 ee c7 f0 bf
       0.0420520485 -1.048811106
000040 79 1c 82 ba b3 3c 9e 3f 5b 0d 7c 51 2a 18 42 40
       0.029528434999999995 36.188791452
000050 f7 06 dc 84 ed 43 8b c0 5e 19 26 e3 b0 f2 32 40
       -872.4909760656 18.948011586
000060 62 ee 04 42 c5 f6 34 40 78 24 70 81 6a f5 7e c0
       20.963947416499998 -495.338502348
000070 bf 1e d4 c4 09 d6 30 40 68 8f 65 9d 0e 16 a4 c0
       16.836086561 -2571.0285445916707
000080 a7 ad f1 15 b6 0c 53 c0 5a 4d 7b ed 13 5e 49 c0
       -76.19861363030815 -50.73498314400304
000090 86 17 af 07 b4 9e 52 40 52 9e 46 58 81 7d 48 c0
       74.47973816012208 -48.98050979087988
0000a0 16 3b e2 e6 ee 44 a2 c0 c1 19 13 9a d8 87 a5 3f
       -2338.4666052529456 0.0420520485
0000b0 b6 39 7f 27 ee c7 f0 bf 79 1c 82 ba b3 3c 9e 3f
       -1.048811106 0.029528434999999995
0000c0 3c 6b d3 51 2a 18 42 40 35 2e ef 84 ed 43 8b c0
       36.18879149268329 -872.4909762083031
0000d0 1e 05 b5 f5 b0 f2 32 40 cb 12 90 43 c5 f6 34 40
       18.94801269215997 20.963947508501217
0000e0 d9 c4 c6 81 6a f5 7e c0 b2 da cb ee 09 d6 30 40
       -495.3385026707088 16.836089062470542
0000f0 ae a6 db 9c 0e 16 a4 c0 76 b2 6a 52 b6 0c 53 c0
       -2571.0285404816595 -76.19862804813042
000100 cc 55 3d 44 10 5e 49 c0 51 db aa 2e b4 9e 52 40
       -50.73487141604309 74.47974745450234
000110 5d 2e c8 69 82 7d 48 c0 0f 50 c4 c5 ee 44 a2 c0
       -48.980542395348245 -2338.466352591298
000120 c1 19 13 9a d8 87 a5 3f b6 39 7f 27 ee c7 f0 bf
       0.0420520485 -1.048811106
000130 79 1c 82 ba b3 3c 9e 3f 42 ae 2b 52 2a 18 42 40
       0.029528434999999995 36.1887915337834
000140 22 88 02 85 ed 43 8b c0 07 b3 73 08 b1 f2 32 40
       -872.4909763524813 18.94801380943957
000150 96 43 1f 45 c5 f6 34 40 78 4a 1e 82 6a f5 7e c0
       20.96394760144502 -495.3385029967535
000160 e4 96 2f 19 0a d6 30 40 5e d1 13 97 e0 15 a4 c0
       16.83609158908702 -2570.938652629192
000170 8d 31 2e e7 09 0f 53 c0 f6 e3 70 c9 cb 39 49 c0
       -76.23497943411913 -50.4515315819953
000180 25 f3 c4 67 bf ab 52 40 17 87 4f 3b 0f 88 48 c0
       74.68355745538118 -49.06296483405293
000190 57 75 f5 d7 a5 43 a2 c0 c1 19 13 9a d8 87 a5 3f
       -2337.8239132600534 0.0420520485
0001a0 b6 39 7f 27 ee c7 f0 bf 79 1c 82 ba b3 3c 9e 3f
       -1.048811106 0.029528434999999995
0001b0 2d 9d 82 c6 47 18 42 40 40 89 98 43 ee 43 8b c0
       36.189690412308074 -872.4913398663411
0001c0 81 e8 fc b8 6a f3 32 40 d2 25 c4 d6 4a f7 34 40
       18.950847207780047 20.96598570145381
0001d0 0f 57 61 e2 6d f5 7e c0 55 c3 9e 20 af d7 30 40
       -495.33932722114054 16.842515982399465
0001e0 d7 ed c5 aa 8b 15 a4 c0 a4 01 c5 83 48 0f 53 c0
       -2570.772787270816 -76.23880094756038
0001f0 f4 3b 38 e0 85 07 49 c0 e8 bd 65 19 d1 c3 52 40
       -50.05877306695757 75.05963740287518
000200 89 07 25 29 2b 89 48 c0 c0 19 ff e3 dd 41 a2 c0
       -49.07162966068342 -2336.9333801001485
000210 c1 19 13 9a d8 87 a5 3f b6 39 7f 27 ee c7 f0 bf
       0.0420520485 -1.048811106
000220 79 1c 82 ba b3 3c 9e 3f 13 10 4e 20 7e 18 42 40
       0.029528434999999995 36.191349065891835
000230 45 af a1 57 ee 43 8b c0 6d ae ee 1e 6c f4 32 40
       -872.4913780814755 18.954774792930426
000240 40 e6 82 4e 41 f8 34 40 94 ce 3c 3d 6e f5 7e c0
       20.96974650092875 -495.3394138694068
000250 af bd 4a bf f6 d9 30 40 f5 5c b8 de 1d 15 a4 c0
       16.85142131399851 -2570.558339845035
000260 60 b8 74 e6 f0 11 53 c0 f0 78 ed 41 dc bd 48 c0
       -76.28032838247736 -49.48328422637303
000270 eb 7d 81 06 ac e2 52 40 28 bf 5e 64 1e 95 48 c0
       75.54174959798517 -49.16498999239258
000280 ff e7 32 78 47 3f a2 c0 c1 19 13 9a d8 87 a5 3f
       -2335.6395889194678 0.0420520485
000290 b6 39 7f 27 ee c7 f0 bf 79 1c 82 ba b3 3c 9e 3f
       -1.048811106 0.029528434999999995
0002a0 0a 77 75 65 c4 18 42 40 42 dd 5a 31 ef 43 8b c0
       36.193493540149646 -872.4917933558247
0002b0 35 2d f0 45 e5 f5 32 40 69 02 84 43 7d f9 34 40
       18.960529681336272 20.97456762287985
0002c0 02 0a 31 10 72 f5 7e c0 69 d4 6e a5 46 dd 30 40
       -495.3403474727239 16.86435922580532
0002d0 61 1a ff f2 88 14 a4 c0 23 44 d1 68 3f 18 53 c0
       -2570.2674789161397 -76.37887020527027
0002e0 57 71 30 af 2c 59 48 c0 b4 21 49 8e 85 0c 53 40
       -48.69667615762108 76.19565159932864
0002f0 56 72 45 be 79 b1 48 c0 70 e7 b6 09 be 3b a2 c0
       -49.386527809056744 -2333.8711678655163
000300 c1 19 13 9a d8 87 a5 3f b6 39 7f 27 ee c7 f0 bf
       0.0420520485 -1.048811106
000310 79 1c 82 ba b3 3c 9e 3f f8 59 a4 b4 23 19 42 40
       0.029528434999999995 36.1964021494386
000320 c1 75 ff 35 f1 43 8b c0 29 7a df c8 e8 f7 32 40
       -872.4927787740527 18.968395762023793
000330 71 1d 11 ce 29 fb 34 40 64 16 2f 23 7b f5 7e c0
       20.981106642893284 -495.34256285089054
000340 a5 c0 40 99 cd e1 30 40 c3 bb df 23 d2 13 a4 c0
       16.882043436344834 -2569.910429946585
000350 d0 4c 59 62 b9 20 53 c0 d5 db 00 b0 c6 df 47 c0
       -76.51131495209415 -47.74825096170358
000360 a9 d5 2f 3c 62 3f 53 40 b1 79 0f 99 35 d7 48 c0
       76.9903707949767 -49.6813231778682
000370 b9 93 3b 34 85 37 a2 c0 c1 19 13 9a d8 87 a5 3f
       -2331.76016412905 0.0420520485
000380 b6 39 7f 27 ee c7 f0 bf 79 1c 82 ba b3 3c 9e 3f
       -1.048811106 0.029528434999999995
000390 86 96 14 b4 98 19 42 40 3f ca 63 ec f3 43 8b c0
       36.199972639134145 -872.494103221521
0003a0 08 78 37 58 56 fa 32 40 c2 a9 d2 a1 32 fd 34 40
       18.97788001398297 20.989053834849763
0003b0 48 61 56 36 87 f5 7e c0 e1 d9 e8 10 35 e7 30 40
       -495.3455108045787 16.903153473709498
0003c0 38 e5 ff 25 29 13 a4 c0 20 e3 d1 15 6e 27 53 c0
       -2569.5803680388744 -76.61609406945036
0003d0 20 99 84 59 af 74 47 c0 4b 82 97 c3 66 6e 53 40
       -46.91160124754447 77.72502221866414
0003e0 7b aa 14 a9 0f f5 48 c0 7d b9 1e c0 cb 33 a2 c0
       -49.91454041966514 -2329.8979501344133
0003f0 c1 19 13 9a d8 87 a5 3f b6 39 7f 27 ee c7 f0 bf
       0.0420520485 -1.048811106
000400 79 1c 82 ba b3 3c 9e 3f 97 15 ae db 04 1a 42 40
       0.029528434999999995 36.20327325821125
000410 d5 f0 bb 11 f6 43 8b c0 f7 12 bf a6 7a fc 32 40
       -872.4951510126945 18.98624651112456
000420 d3 0c e1 17 14 ff 34 40 81 25 cc c3 90 f5 7e c0
       20.996400349086638 -495.3478429769967
000430 fb e6 92 7c f9 eb 30 40 4d 7c ef e6 87 12 a4 c0
       16.921775613655864 -2569.2654337729678
000440 98 b4 7a 5d af 2c 53 c0 ae 4b c1 ef bb 18 47 c0
       -76.69820343954996 -46.19323536813987
000450 6c 59 1f 5b c3 9a 53 40 a5 77 b4 6b 31 0c 49 c0
       78.41817358075576 -50.09525820075877
000460 18 64 cb 3c a2 30 a2 c0 c1 19 13 9a d8 87 a5 3f
       -2328.3168700751958 0.0420520485
000470 b6 39 7f 27 ee c7 f0 bf 79 1c 82 ba b3 3c 9e 3f
       -1.048811106 0.029528434999999995
000480 56 f2 47 0e 6c 1a 42 40 93 45 39 c0 f7 43 8b c0
       36.20642260087031 -872.4959721063955
000490 fe a8 8a 70 51 fe 32 40 1c 5d 61 5b da 00 35 40
       18.993430169918604 21.003331862707554
0004a0 0a bf c2 2a 98 f5 7e c0 86 5e ca a9 05 f0 30 40
       -495.3496501548076 16.937586414248038
0004b0 f7 28 e2 05 e5 11 a4 c0 b3 ad 6b 06 27 33 53 c0
       -2568.9473105120665 -76.79925690188865
0004c0 40 3d 36 fa 90 b2 46 c0 38 4c 93 f1 92 c7 53 40
       -45.39504935882951 79.11834372887176
0004d0 36 db b7 6f a9 28 49 c0 01 e4 d4 c6 1e 2d a2 c0
       -50.31767078854902 -2326.5601107147527
0004e0 c1 19 13 9a d8 87 a5 3f b6 39 7f 27 ee c7 f0 bf
       0.0420520485 -1.048811106
0004f0 79 1c 82 ba b3 3c 9e 3f 79 f4 64 4c d4 1a 42 40
       0.029528434999999995 36.20960383347933
000500 d8 ee 08 d2 f9 43 8b c0 a4 b8 ee 89 5c 00 33 40
       -872.4969826410188 19.001412030011707
000510 dc 3d 70 38 a5 02 35 40 90 fd ec 46 a1 f5 7e c0
       21.010333564188713 -495.3518742806855
000520 a3 5e 1a f9 84 f4 30 40 34 d9 30 95 14 11 a4 c0
       16.955154007852467 -2568.5402007355824
000530 93 15 cf c0 78 3b 53 c0 9f ac a6 3e 57 33 46 c0
       -76.92924518797945 -44.4010999978866
000540 ff ae ba 5b 7e 00 54 40 b7 de b6 9b 02 4d 49 c0
       80.00771229964083 -50.6016420977516
000550 70 31 95 08 c7 28 a2 c0 c1 19 13 9a d8 87 a5 3f
       -2324.3887373564576 0.0420520485
000560 b6 39 7f 27 ee c7 f0 bf 79 1c 82 ba b3 3c 9e 3f
       -1.048811106 0.029528434999999995
000570 99 d5 3c b3 59 1b 42 40 db 41 8c 7b fc 43 8b c0
       36.213674931244164 -872.4982825238798
000580 6a b6 f6 ee e7 02 33 40 40 7f b9 13 ec 04 35 40
       19.011351523621137 21.019227249896403
000590 54 ab 94 e8 ac f5 7e c0 86 fb 19 01 14 fa 30 40
       -495.3547139937775 16.97686774143542
0005a0 43 7d 2b 5d 99 10 a4 c0 bf 14 99 5e 8e 3f 53 c0
       -2568.2995389547737 -76.99306454610176
0005b0 d8 f4 83 44 d8 dd 45 c0 71 eb 5c 35 24 22 54 40
       -43.733162464553686 80.5334599883479
0005c0 ef 3b fa 18 db 5e 49 c0 be d5 29 f0 db 25 a2 c0
       -50.741061327156665 -2322.9295666764656
0005d0 c1 19 13 9a d8 87 a5 3f b6 39 7f 27 ee c7 f0 bf
       0.0420520485 -1.048811106
0005e0 79 1c 82 ba b3 3c 9e 3f 66 39 69 8f a8 1b 42 40
       0.029528434999999995 36.21608154905225
0005f0 56 26 25 ca fd 43 8b c0 b1 53 49 ac 9d 04 33 40
       -872.498920717461 19.018030898954468
000600 59 c9 8c a1 44 06 35 40 3f 50 7f 9e b2 f5 7e c0
       21.024484726783474 -495.3561081860716
000610 22 7b 51 49 d0 fd 30 40 80 e4 58 3c 10 10 a4 c0
       16.99145944823534 -2568.031710412877
000620 b7 1f 66 f0 68 44 53 c0 35 38 4e 15 08 89 45 c0
       -77.06890497181926 -43.0705591804439
000630 a5 9d be df 41 47 54 40 cd 08 c1 3a e0 73 49 c0
       81.11339563002419 -50.90528044152743
000640 a7 ea 7b 58 fd 22 a2 c0 c1 19 13 9a d8 87 a5 3f
       -2321.4948157047215 0.0420520485
000650 b6 39 7f 27 ee c7 f0 bf 79 1c 82 ba b3 3c 9e 3f
       -1.048811106 0.029528434999999995
000660 ba 5d 7f 52 00 1c 42 40 31 72 c4 57 ff 43 8b c0
       36.218759834471214 -872.4996791217183
000670 81 ae ab ea 4f 06 33 40 32 ef 9a b2 c0 07 35 40
       19.024656931795565 21.030284083200236
000680 58 a4 75 58 b9 f5 7e c0 16 7f 96 90 7c 01 31 40
       -495.3577503772153 17.005806957952778
000690 72 a1 3d 47 8c 0f a4 c0 9b 46 7a e9 26 49 53 c0
       -2567.773981023748 -77.14300000134465
0006a0 0b 7f 32 74 16 34 45 c0 34 e7 55 41 f9 6a 54 40
       -42.40693523851049 81.67146333111742
0006b0 a0 3a 0e 85 69 88 49 c0 55 da 20 9f 1d 20 a2 c0
       -51.06572020716453 -2320.057854677822
0006c0 c1 19 13 9a d8 87 a5 3f b6 39 7f 27 ee c7 f0 bf
       0.0420520485 -1.048811106
0006d0 79 1c 82 ba b3 3c 9e 3f 90 da 67 c6 54 1c 42 40
       0.029528434999999995 36.22133712836251
0006e0 7b 1c 3d dc 00 44 8b c0 c4 f4 4a d4 02 08 33 40
       -872.5004200720135 19.031293171214898
0006f0 94 2f d4 6e 2e 09 35 40 c4 db ca ea bf f5 7e c0
       21.03586476021117 -495.3593547748717
000700 75 a8 a4 4a 2a 05 31 40 5b c2 83 b5 12 0f a4 c0
       17.020176568221775 -2567.5365410971403
000710 87 f4 f1 9e e6 4c 53 c0 a6 44 37 db 91 e9 44 c0
       -77.20157598141132 -41.82476368139878
000720 e6 65 e8 70 77 8b 54 40 a3 d0 5d ae 71 98 49 c0
       82.17916510291215 -51.190969272430515
000730 dc c3 52 46 a0 1d a2 c0 c1 19 13 9a d8 87 a5 3f
       -2318.8130365242087 0.0420520485
000740 b6 39 7f 27 ee c7 f0 bf 79 1c 82 ba b3 3c 9e 3f
       -1.048811106 0.029528434999999995
000750 95 73 4f 94 a2 1c 42 40 fa 75 58 0f 02 44 8b c0
       36.22371152762859 -872.5010058318142
000760 d0 f0 78 5c 80 09 33 40 e3 3e 0d 29 7b 0a 35 40
       19.037114886786014 21.040941777929117
000770 08 c2 1f 0c c5 f5 7e c0 1a 40 79 18 5a 08 31 40
       -495.3606072655243 17.032624749757908
000780 5d 6c 91 1b ab 0e a4 c0 0c df 89 93 f1 4e 53 c0
       -2567.3341947026042 -77.23349464859001
000790 e3 e0 aa 93 be ad 44 c0 f2 4a db d9 87 a6 54 40
       -41.3573784431808 82.60204168715771
0007a0 b2 d1 4b 7e fb a0 49 c0 f5 54 e0 2a ac 1b a2 c0
       -51.25767496778589 -2317.836264620181
0007b0 c1 19 13 9a d8 87 a5 3f b6 39 7f 27 ee c7 f0 bf
       0.0420520485 -1.048811106
0007c0 79 1c 82 ba b3 3c 9e 3f bd 2f 5b e2 e4 1c 42 40
       0.029528434999999995 36.22573499157395
0007d0 82 f8 b0 b6 02 44 8b c0 87 11 b4 aa b2 0a 33 40
       -872.5013250184859 19.041788739168194
0007e0 cf 3d f8 4b 90 0b 35 40 d5 7e 95 c7 c7 f5 7e c0
       21.045170543771572 -495.36127432247787
0007f0 bd 15 9b 3b da 0a 31 40 25 d8 b2 f4 4b 0e a4 c0
       17.042392468798187 -2567.1483512772415
