ws_icra2022/src/my_pkg/ur5_eye2hand/hololens2_adaptive/log_theta_k.npy (npy, 193088 bytes, 1 tensors)

array f8 [1608, 15, 1]
-2571.02854866 -76.19859935999999 -50.73509376 74.47972896 -48.98047752 -2338.4668554 0.0420520485 -1.048811106
0.029528434999999995 36.188791452 -872.4909760656 18.948011586 20.963947416499998 -495.338502348 16.836086561 -2571.02854866
-76.19859935999999 -50.73509376 74.47972896 -48.98047752 -2338.4668554 0.0420520485 -1.048811106 0.029528434999999995
36.188791452 -872.4909760656 18.948011586 20.963947416499998 -495.338502348 16.836086561 -2571.02854866 -76.19859935999999
-50.73509376 74.47972896 -48.98047752 -2338.4668554 0.0420520485 -1.048811106 0.029528434999999995 36.188791452
-872.4909760656 18.948011586 20.963947416499998 -495.338502348 16.836086561 -2571.0282731667294 -76.19982420183614 -50.71186026049376
74.48145388385 -48.98814652363529 -2338.3213853589587 0.0420520485 -1.048811106 0.029528434999999995 36.188794206932705 -872.4909883140183
18.94824392099506 20.963964665738498 -495.33857903803636 16.83754126141041 -2571.004746370343 -76.23565603187046 -50.49708643136124 74.62790437777174
-49.21119385742705 -2336.984453086441 0.0420520485 -1.048811106 0.029528434999999995 36.18902947489657 -872.4913466323186 18.950391659286385
20.965429170677716 -495.3408095113743 16.850910584135587 -2570.9605891065653 -76.28774118978514 -50.18897421148631 74.90277618710316 -49.53541552268562
-2335.0665044612683 0.0420520485 -1.048811106 0.029528434999999995 36.18947104753435 -872.4918674838977 18.953472781485136 20.96817788877103
-495.3440517280269 16.870090070387317 -2570.904204304423 -76.35774329723688 -49.795904257900766 75.24690814593433 -49.96265764191574 -2332.6674904017077
0.0420520485 -1.048811106 0.029528434999999995 36.19003489555577 -872.4925675049723 18.95740348102099 20.971619208359343 -495.3483241492192
16.89408021098292 -2570.8338295438184 -76.43583514008498 -49.36205210636066 75.64349602693053 -50.40273414394785 -2330.2225725935796 0.0420520485
-1.048811106 0.029528434999999995 36.190738643161815 -872.4933484234008 18.96174200253639 20.975585087169303 -495.3527249142395 16.918529389064204
-2570.7729385810917 -76.50490459127691 -48.96965997948121 75.98663918894094 -50.79196612220899 -2328.0112974036992 0.0420520485 -1.048811106
0.029528434999999995 36.19134755278908 -872.4940391179127 18.965665923805183 20.979016518789408 -495.3566172340221 16.94064214096301 -2570.7180542819856
-76.54727670917865 -48.6788066768455 76.26831331498151 -51.00942593262591 -2326.518596373343 0.0420520485 -1.048811106 0.029528434999999995
36.19189639578014 -872.4944628390917 18.96857445683154 20.981833260049815 -495.35879183212626 16.955569151266573 -2570.6657557786384 -76.58950727154507
-48.395814552879166 76.53671676484682 -51.22615925965246 -2325.066240043883 0.0420520485 -1.048811106 0.029528434999999995 36.19241938081361
-872.4948851447155 18.971404378071203 20.984517294548468 -495.36095916539654 16.970092714561172 -2570.634203114239 -76.61039663391962 -48.215774315410464
76.69982689359907 -51.33414591153531 -2324.1355298527415 0.0420520485 -1.048811106 0.029528434999999995 36.192734907457606 -872.4950940383392
18.97320478044589 20.98614839583599 -495.36203903191534 16.97939981647259 -2570.6090319480245 -76.6277235537158 -48.07616679907285 76.8176655164184
-51.41526175452407 -2323.4819583288636 0.0420520485 -1.048811106 0.029528434999999995 36.19298661911975 -872.4952673075371 18.974600855609268
20.987326782064184 -495.3628501903452 16.985935531711366 -2570.5877787311056 -76.63792162882133 -47.96726407367947 76.91716228946848 -51.46300396541783
-2322.9721310498103 0.0420520485 -1.048811106 0.029528434999999995 36.193199151288944 -872.4953692882882 18.9756898828632 20.988321749794686
-495.36332761245416 16.9910338045019 -2570.573900357495 -76.64055075530419 -47.9087339793829 76.96842292472678 -51.47271480744191 -2322.755946509784
0.0420520485 -1.048811106 0.029528434999999995 36.19333793502505 -872.495395579553 18.976275183806166 20.98883435614727 -495.3634247208744
16.993195649902166 -2570.562213187614 -76.64564391247646 -47.84311302718006 77.01159021285935 -51.491526699918836 -2322.513571445493 0.0420520485
-1.048811106 0.029528434999999995 36.19345480672386 -872.4954465111248 18.976931393328194 20.989266029028595 -495.36361283979915 16.995619400545074
-2570.5566991973706 -76.64776794454077 -47.8103312165053 77.028728319923 -51.49812843247893 -2322.4116818598573 0.0420520485 -1.048811106
0.029528434999999995 36.19350994662629 -872.4954677514454 18.97725921143494 20.98943741009923 -495.36367885712474 16.996638296401432 -2570.5515578007953
00000000: 1712 ee9d 0e16 a4c0 370d 17da b50c 53c0
00000010: ca58 658d 175e 49c0 3989 18e1 b39e 5240
00000020: 7d6e 9149 807d 48c0 ecc5 ab07 ef44 a2c0
00000030: c119 139a d887 a53f b639 7f27 eec7 f0bf
00000040: 791c 82ba b33c 9e3f 5b0d 7c51 2a18 4240
00000050: f706 dc84 ed43 8bc0 5e19 26e3 b0f2 3240
00000060: 62ee 0442 c5f6 3440 7824 7081 6af5 7ec0
00000070: bf1e d4c4 09d6 3040 1712 ee9d 0e16 a4c0
00000080: 370d 17da b50c 53c0 ca58 658d 175e 49c0
00000090: 3989 18e1 b39e 5240 7d6e 9149 807d 48c0
000000a0: ecc5 ab07 ef44 a2c0 c119 139a d887 a53f
000000b0: b639 7f27 eec7 f0bf 791c 82ba b33c 9e3f
000000c0: 5b0d 7c51 2a18 4240 f706 dc84 ed43 8bc0
000000d0: 5e19 26e3 b0f2 3240 62ee 0442 c5f6 3440
000000e0: 7824 7081 6af5 7ec0 bf1e d4c4 09d6 3040
000000f0: 1712 ee9d 0e16 a4c0 370d 17da b50c 53c0
00000100: ca58 658d 175e 49c0 3989 18e1 b39e 5240
00000110: 7d6e 9149 807d 48c0 ecc5 ab07 ef44 a2c0
00000120: c119 139a d887 a53f b639 7f27 eec7 f0bf
00000130: 791c 82ba b33c 9e3f 5b0d 7c51 2a18 4240
00000140: f706 dc84 ed43 8bc0 5e19 26e3 b0f2 3240
00000150: 62ee 0442 c5f6 3440 7824 7081 6af5 7ec0
00000160: bf1e d4c4 09d6 3040 ea0c d279 0e16 a4c0
00000170: 79f5 72eb c90c 53c0 4512 ad3c 1e5b 49c0
00000180: bf6a f323 d09e 5240 b755 d595 7b7e 48c0
00000190: 482c 9f8c a444 a2c0 c119 139a d887 a53f
000001a0: b639 7f27 eec7 f0bf 791c 82ba b33c 9e3f
000001b0: a139 9868 2a18 4240 6afb 478b ed43 8bc0
000001c0: fa4d 151d c0f2 3240 afd8 6963 c6f6 3440
000001d0: a377 dad1 6af5 7ec0 edce a61a 69d6 3040
000001e0: ccc2 1d6e 0216 a4c0 487f 09fd 140f 53c0
000001f0: aefd 3687 a03f 49c0 dfe2 d795 2fa8 5240
00000200: f461 7b66 089b 48c0 6c25 3c0a f841 a2c0
00000210: c119 139a d887 a53f b639 7f27 eec7 f0bf
00000220: 791c 82ba b33c 9e3f 9654 2a1e 3218 4240
00000230: 77a6 2447 ee43 8bc0 b506 27de 4cf3 3240
00000240: 4aaa ba5d 26f7 3440 4b98 acf4 73f5 7ec0
00000250: bfae aa46 d5d9 3040 2fdb 55d2 eb15 a4c0
00000260: b7f5 055a 6a12 53c0 800f 954e 3018 49c0
00000270: cdcd c515 c7b9 5240 4dda ef7e 88c4 48c0
00000280: 5f6c df0c 223e a2c0 c119 139a d887 a53f
00000290: b639 7f27 eec7 f0bf 791c 82ba b33c 9e3f
000002a0: 7559 5896 4018 4240 742a 3858 ef43 8bc0
000002b0: d51a ceca 16f4 3240 5efb 9081 daf7 3440
000002c0: 2080 623c 81f5 7ec0 4be3 0c39 bede 3040
000002d0: ccd8 ddf3 ce15 a4c0 b87f 2444 e516 53c0
000002e0: 2937 d330 e0e5 48c0 daf9 d257 cdcf 5240
000002f0: e4a2 985d 38fb 48c0 754b 4dc1 5539 a2c0
00000300: c119 139a d887 a53f b639 7f27 eec7 f0bf
00000310: 791c 82ba b33c 9e3f 62c1 3e10 5318 4240
00000320: 6d67 3bc7 f043 8bc0 cc0f 0065 18f5 3240
00000330: 9c11 5409 bcf8 3440 dbd4 57bc 92f5 7ec0
00000340: 242c d270 e2e4 3040 47ba b4eb aa15 a4c0
00000350: 3447 12b9 e41b 53c0 2b22 32b9 57ae 48c0
00000360: 72b1 f509 2fe9 5240 8a9e dcca 8c33 49c0
00000370: d2f4 08f5 7134 a2c0 c119 139a d887 a53f
00000380: b639 7f27 eec7 f0bf 791c 82ba b33c 9e3f
00000390: 513b b51f 6a18 4240 5180 a860 f243 8bc0
000003a0: 5615 50b9 34f6 3240 83db bbf1 bff9 3440
000003b0: 4a32 e1c2 a4f5 7ec0 1472 f6bd 24eb 3040
000003c0: 360f 9bbe 8b15 a4c0 9dc8 585b 5020 53c0
000003d0: 500e 76d1 1d7c 48c0 035d b218 25ff 5240
000003e0: ba36 5925 5f65 49c0 d6f6 c5c8 0530 a2c0
000003f0: c119 139a d887 a53f b639 7f27 eec7 f0bf
00000400: 791c 82ba b33c 9e3f 0ab3 9c13 7e18 4240
00000410: 0af3 c7ca f343 8bc0 da9a c9e1 35f7 3240
00000420: bc71 9ad3 a0fa 3440 0ad5 45b4 b4f5 7ec0
00000430: f1ac 60ec cdf0 3040 c393 cfa4 6f15 a4c0
00000440: 3af2 e394 0623 53c0 cead 1e23 e356 48c0
00000450: 533b 9c0b 2c11 5340 692e 74de 3481 49c0
00000460: aabe 7685 092d a2c0 c119 139a d887 a53f
00000470: b639 7f27 eec7 f0bf 791c 82ba b33c 9e3f
00000480: 490c a40f 9018 4240 e4d7 eea8 f443 8bc0
00000490: 1ad5 df7e f4f7 3240 fd09 ae6c 59fb 3440
000004a0: de10 819c bdf5 7ec0 a4c1 0d2e a0f4 3040
000004b0: c000 f1dd 5415 a4c0 9402 b57c ba25 53c0
000004c0: cdf2 1f0d aa32 48c0 d90e 4691 5922 5340
000004d0: 8cf2 5fc9 f29c 49c0 540c 37ea 212a a2c0
000004e0: c119 139a d887 a53f b639 7f27 eec7 f0bf
000004f0: 791c 82ba b33c 9e3f 03db c132 a118 4240
00000500: a2be 5786 f543 8bc0 cd01 13f5 adf8 3240
00000510: 9c6e 4e53 09fc 3440 1d29 1e7d c6f5 7ec0
00000520: cb20 03ff 57f8 3040 5b45 45b6 4415 a4c0
00000530: 7d11 0bbd 1027 53c0 9b00 267e 9e1b 48c0
00000540: a237 bdf6 c92c 5340 7111 114b c5aa 49c0
00000550: 503a 2b64 4528 a2c0 c119 139a d887 a53f
00000560: b639 7f27 eec7 f0bf 791c 82ba b33c 9e3f
00000570: fc29 9689 ab18 4240 e4f8 dcf3 f543 8bc0
00000580: 7253 d0f2 23f9 3240 521e a538 74fc 3440
00000590: 3b9f 70e9 caf5 7ec0 4b75 45f2 b9fa 3040
000005a0: f815 09d3 3715 a4c0 d988 699f 2c28 53c0
000005b0: 8a87 6bd5 bf09 48c0 6005 bfa1 5434 5340
000005c0: f07a 134c 27b5 49c0 02f9 3dc3 f626 a2c0
000005d0: c119 139a d887 a53f b639 7f27 eec7 f0bf
000005e0: 791c 82ba b33c 9e3f acd7 18c9 b318 4240
000005f0: 33c5 b44e f643 8bc0 d47e 1171 7ff9 3240
00000600: 3b6e af72 c1fc 3440 154e 003c cef5 7ec0
00000610: 29aa 6045 66fc 3040 c476 55f1 2c15 a4c0
00000620: b74c 3db5 d328 53c0 4886 254f cffb 47c0
00000630: 1099 75c9 b23a 5340 a7b1 c4b6 43bb 49c0
00000640: b934 29bb f125 a2c0 c119 139a d887 a53f
00000650: b639 7f27 eec7 f0bf 791c 82ba b33c 9e3f
00000660: 5333 f2bf ba18 4240 2065 2c84 f643 8bc0
00000670: 7eef e9cf c6f9 3240 2e4b 79a7 02fd 3440
00000680: 9753 9d30 d0f5 7ec0 ed90 3364 b4fd 3040
00000690: 3585 44d6 2515 a4c0 6a5d 98c8 fe28 53c0
000006a0: 541b 2165 51f4 47c0 7c99 25a4 fa3d 5340
000006b0: 2326 37eb 81bc 49c0 18c2 6b0b 8325 a2c0
000006c0: c119 139a d887 a53f b639 7f27 eec7 f0bf
000006d0: 791c 82ba b33c 9e3f 1f01 264c bf18 4240
000006e0: 1b26 f591 f643 8bc0 0858 a22b edf9 3240
000006f0: 51d0 943f 24fd 3440 6aab 7096 d0f5 7ec0
00000700: f9db f211 42fe 3040 5d2c 68da 1f15 a4c0
00000710: aa3c d83a 5229 53c0 f348 af20 ebeb 47c0
00000720: d04b e0e4 bd40 5340 90a1 ce58 eabe 49c0
00000730: 1b25 d6f2 0625 a2c0 c119 139a d887 a53f
00000740: b639 7f27 eec7 f0bf 791c 82ba b33c 9e3f
00000750: 0511 8a20 c318 4240 9611 a9ac f643 8bc0
00000760: c2c7 002d 18fa 3240 bbb8 d989 40fd 3440
00000770: 7d75 b25b d1f5 7ec0 ae9a bce9 e0fe 3040
00000780: d55c ad07 1d15 a4c0 c94c ae07 7529 53c0
00000790: b9e8 ecee b8e7 47c0 74a2 4eaf d641 5340
000007a0: 355a 27ac c2bf 49c0 e3f8 f6c7 d224 a2c0
000007b0: c119 139a d887 a53f b639 7f27 eec7 f0bf
000007c0: 791c 82ba b33c 9e3f f61a 16ef c418 4240
000007d0: 72e5 cbb7 f643 8bc0 ecd3 e0a8 2dfa 3240
000007e0: add0 25c5 4bfd 3440 8fd9 eba0 d1f5 7ec0
000007f0: 3dfc f8af 23ff 3040 8ab8 c865 1a15 a4c0
