ws_icra2022/src/my_pkg/ur5_eye2hand/hololens2_adaptive/log_theta_k.npy (npy, 152648 bytes, 1 tensors)

array f8 [1271, 15, 1]
00000000: 1712 ee9d 0e16 a4c0 370d 17da b50c 53c0
00000010: ca58 658d 175e 49c0 3989 18e1 b39e 5240
00000020: 7d6e 9149 807d 48c0 ecc5 ab07 ef44 a2c0
00000030: c119 139a d887 a53f b639 7f27 eec7 f0bf
00000040: 791c 82ba b33c 9e3f 5b0d 7c51 2a18 4240
00000050: f706 dc84 ed43 8bc0 5e19 26e3 b0f2 3240
00000060: 62ee 0442 c5f6 3440 7824 7081 6af5 7ec0
00000070: bf1e d4c4 09d6 3040 d85b dc9d 0e16 a4c0
00000080: 8aa9 efe3 b50c 53c0 34c6 7917 165e 49c0
00000090: 0b67 9cee b39e 5240 eb26 c7c1 807d 48c0
000000a0: 3c83 01e4 ee44 a2c0 c119 139a d887 a53f
000000b0: b639 7f27 eec7 f0bf 791c 82ba b33c 9e3f
000000c0: 4663 8751 2a18 4240 8f2d df84 ed43 8bc0
000000d0: 0f92 a0ea b0f2 3240 6a53 8f42 c5f6 3440
000000e0: 0f9c 9681 6af5 7ec0 82da 7af2 09d6 3040
000000f0: 819b ca9d 0e16 a4c0 ea99 cded b50c 53c0
00000100: 4bcb 9da0 145e 49c0 19f2 1dfc b39e 5240
00000110: f5c3 e439 817d 48c0 f6c8 5ac0 ee44 a2c0
00000120: c119 139a d887 a53f b639 7f27 eec7 f0bf
00000130: 791c 82ba b33c 9e3f a7bf 9251 2a18 4240
00000140: dc55 e284 ed43 8bc0 a3d9 1ff2 b0f2 3240
00000150: a8a0 1943 c5f6 3440 ef0b bd81 6af5 7ec0
00000160: 9f10 1d20 0ad6 3040 cf7d 4d08 0e16 a4c0
00000170: bfd0 2e0a 090d 53c0 7a52 e781 c351 49c0
00000180: b46a 06b9 259f 5240 89cb b4fa 7481 48c0
00000190: c6bb 1adf c243 a2c0 c119 139a d887 a53f
000001a0: b639 7f27 eec7 f0bf 791c 82ba b33c 9e3f
000001b0: 9efb 3eb1 2a18 4240 e3c6 7a9f ed43 8bc0
000001c0: 7442 1902 f0f2 3240 33c4 c6cf c9f6 3440
000001d0: dddd 7fc5 6bf5 7ec0 8bf8 c0f8 89d7 3040
000001e0: c334 f0f6 0b16 a4c0 6d0c b34c 2f0e 53c0
000001f0: 4742 bbce c23d 49c0 32e7 e375 aca0 5240
00000200: 7aea 9b31 088f 48c0 78fe f767 ea41 a2c0
00000210: c119 139a d887 a53f b639 7f27 eec7 f0bf
00000220: 791c 82ba b33c 9e3f a60b 0a04 2c18 4240
00000230: cd8a a4fd ed43 8bc0 5605 156c 56f3 3240
00000240: 8a58 ee70 d9f6 3440 816f 911d 70f5 7ec0
00000250: 0d1e 35ba e6d9 3040 6a14 90a8 fd15 a4c0
00000260: 9f6a dfb1 5b11 53c0 610e ae1c 0216 49c0
00000270: 9144 88c1 3bab 5240 b91e ef98 82b4 48c0
00000280: cdc4 0372 3f3e a2c0 c119 139a d887 a53f
00000290: b639 7f27 eec7 f0bf 791c 82ba b33c 9e3f
000002a0: 78a5 f52b 3518 4240 29f5 9b01 ef43 8bc0
000002b0: 6a5d c3f4 21f4 3240 8e3d ad92 45f7 3440
000002c0: c5fa c61b 7cf5 7ec0 a05d de98 98de 3040
000002d0: 8548 144c dc15 a4c0 0c8b 1a24 fc14 53c0
000002e0: 7c07 017c d5e3 48c0 f8d3 17e3 ffc3 5240
000002f0: 3e65 507d 96df 48c0 6090 5a86 9739 a2c0
00000300: c119 139a d887 a53f b639 7f27 eec7 f0bf
00000310: 791c 82ba b33c 9e3f e179 de85 4a18 4240
00000320: 8545 b62a f043 8bc0 98b4 41d9 22f5 3240
00000330: bb80 9e2d 43f8 3440 b3e6 b3e4 89f5 7ec0
00000340: 2107 6541 8ee4 3040 19fa a118 ad15 a4c0
00000350: 6561 8495 a419 53c0 adbd e58b 15a6 48c0
00000360: 88b4 f22d 0ae7 5240 e9d8 c114 ea16 49c0
00000370: c609 859f dc33 a2c0 c119 139a d887 a53f
00000380: b639 7f27 eec7 f0bf 791c 82ba b33c 9e3f
00000390: 265a 46bb 6818 4240 3034 4ba8 f143 8bc0
000003a0: 5a17 e601 5ff6 3240 65d1 69fd a9f9 3440
000003b0: af52 0d99 9bf5 7ec0 5705 bee3 e3eb 3040
000003c0: f325 3c1c 8415 a4c0 6b64 0faf 7c1e 53c0
000003d0: 12ee 1afa f468 48c0 2418 6bdc 1905 5340
000003e0: f8d8 12f6 c24f 49c0 5de5 c9ef 412e a2c0
000003f0: c119 139a d887 a53f b639 7f27 eec7 f0bf
00000400: 791c 82ba b33c 9e3f 72cd 68f6 8218 4240
00000410: 792d 2035 f343 8bc0 811b 93fa 97f7 3240
00000420: 8a31 31d1 ddfa 3440 a543 f9c9 adf5 7ec0
00000430: 6c48 cc49 10f3 3040 2434 cd6d 5e15 a4c0
00000440: 051d be64 e222 53c0 9533 ec9e 952f 48c0
00000450: f533 3d11 bd20 5340 82f2 fb71 5d83 49c0
00000460: 5eb1 3660 ff28 a2c0 c119 139a d887 a53f
00000470: b639 7f27 eec7 f0bf 791c 82ba b33c 9e3f
00000480: 7172 2014 9b18 4240 e750 5a9d f443 8bc0
00000490: 1d9a d6b9 bdf8 3240 ef13 4ed3 f8fb 3440
000004a0: 991d 544d bef5 7ec0 759f dae2 cbf9 3040
000004b0: 42f6 48bc 4315 a4c0 c20e 015c e026 53c0
000004c0: f311 a879 f1fa 47c0 2b0f 6808 af33 5340
000004d0: df1d 7798 b2b0 49c0 0519 c0d1 5324 a2c0
000004e0: c119 139a d887 a53f b639 7f27 eec7 f0bf
000004f0: 791c 82ba b33c 9e3f 3fcd 9329 ac18 4240
00000500: 7cc2 61e4 f543 8bc0 e81f b43f cbf9 3240
00000510: d2a1 f3d2 bafc 3440 9207 face ccf5 7ec0
00000520: a995 ce32 c6ff 3040 ed5f 853f 1c15 a4c0
00000530: 1075 57fc d82a 53c0 2d10 1ec7 70c5 47c0
00000540: 37f1 da8b b54f 5340 9cfe 8c1c cbdd 49c0
00000550: f98f 3db2 941f a2c0 c119 139a d887 a53f
00000560: b639 7f27 eec7 f0bf 791c 82ba b33c 9e3f
00000570: 94b2 2f6f c518 4240 a7c9 b329 f743 8bc0
00000580: 625d cb2e ddfa 3240 393a f8cd d9fd 3440
00000590: e4c6 383d dbf5 7ec0 29f3 568e d905 3140
000005a0: 50f7 1f9f fe14 a4c0 b05a dd8d 452e 53c0
000005b0: 4ec6 d0c7 1c96 47c0 92b5 9da6 6364 5340
000005c0: cc38 90fd 0804 4ac0 25d4 4d89 731b a2c0
000005d0: c119 139a d887 a53f b639 7f27 eec7 f0bf
000005e0: 791c 82ba b33c 9e3f bb28 3365 d818 4240
000005f0: 6b46 3442 f843 8bc0 804f b380 cffb 3240
00000600: 3d9e 9991 adfe 3440 34a9 fb79 e7f5 7ec0
00000610: a991 7fb8 220b 3140 9477 9079 d814 a4c0
00000620: ca4c 365a df30 53c0 9120 b700 9369 47c0
00000630: 2c70 b743 047f 5340 4544 86e6 1421 4ac0
00000640: 3c12 c4b1 9017 a2c0 c119 139a d887 a53f
00000650: b639 7f27 eec7 f0bf 791c 82ba b33c 9e3f
00000660: 3499 28cf f018 4240 5c77 4217 f943 8bc0
00000670: 6a6c cd89 b3fc 3240 065e b93b beff 3440
00000680: 9468 79c5 f0f5 7ec0 589e 4e1e 1c10 3140
00000690: 5050 fb55 be14 a4c0 b1ae a393 7c33 53c0
000006a0: 132c 17ab bf3f 47c0 362e 7f4f ac90 5340
000006b0: 51fe 26b0 553d 4ac0 9a8e 119e 0814 a2c0
000006c0: c119 139a d887 a53f b639 7f27 eec7 f0bf
000006d0: 791c 82ba b33c 9e3f 227f c589 0119 4240
000006e0: af52 69ed f943 8bc0 d3dc 5aaf 89fd 3240
000006f0: 06cc fe08 7300 3540 925e f7cf f9f5 7ec0
00000700: 505b 3d56 a114 3140 eda0 58e3 a314 a4c0
00000710: 7745 1ded 5236 53c0 d29a e578 0c15 47c0
00000720: a969 5fc1 89a2 5340 0511 5cde ff5b 4ac0
00000730: 475f 81a3 6d10 a2c0 c119 139a d887 a53f
00000740: b639 7f27 eec7 f0bf 791c 82ba b33c 9e3f
00000750: 436a fa76 1219 4240 fedf d7d5 fa43 8bc0
00000760: 882c 144f 64fe 3240 9a01 12f9 2901 3540
00000770: e027 06a0 03f6 7ec0 5eac ebbf 3e19 3140
00000780: f43d 1aec 8e14 a4c0 9739 0a45 9f38 53c0
00000790: 57ee 7a0c 53f0 46c0 6537 7470 a6b0 5340
000007a0: d0bc 1e14 c074 4ac0 2e7c cda0 560d a2c0
000007b0: c119 139a d887 a53f b639 7f27 eec7 f0bf
000007c0: 791c 82ba b33c 9e3f 5d9f 03e2 1f19 4240
000007d0: 9ef8 1c92 fb43 8bc0 c8fc 5d56 20ff 3240
000007e0: 501e f47a ba01 3540 a67a 9c8b 0bf6 7ec0
000007f0: 9d91 423e 331d 3140 7214 9abc 7914 a4c0
-2571.02854866 -76.19859935999999 -50.73509376 74.47972896 -48.98047752 -2338.4668554 0.0420520485 -1.048811106
0.029528434999999995 36.188791452 -872.4909760656 18.948011586 20.963947416499998 -495.338502348 16.836086561 -2571.0285481321444
-76.19860170750158 -50.735049185237955 74.47973218225177 -48.98049185013027 -2338.466583297033 0.0420520485 -1.048811106 0.029528434999999995
36.188791457278555 -872.4909760890749 18.94801203174762 20.963947448722514 -495.3385024913013 16.83608928202967 -2571.0285476031136 -76.19860405996556
-50.73500449852744 74.47973540233978 -48.98050616903485 -2338.466311299354 0.0420520485 -1.048811106 0.029528434999999995 36.188791462568865
-872.4909761125996 18.948012478614725 20.963947480923395 -495.33850263449034 16.836092002006463 -2571.027407094581 -76.2036767441923 -50.63877891345051
74.4866774141945 -49.01138242557415 -2337.8806084017006 0.0420520485 -1.048811106 0.029528434999999995 36.18880286765419 -872.4910268394418
18.948974734465494 20.96401690104194 -495.33881139705574 16.841949030983 -2571.0233683647543 -76.22163693890771 -50.482507554469116 74.51052615410006
-49.1174375544842 -2336.9578244684344 0.0420520485 -1.048811106 0.029528434999999995 36.18884325495246 -872.491206441389 18.950537448055307
20.964255388440996 -495.33987194834486 16.85117687031566 -2570.995426657192 -76.27122160738007 -50.17193945406758 74.67552221591383 -49.410235516317194
-2335.123916738294 0.0420520485 -1.048811106 0.029528434999999995 36.18912267202808 -872.4917022880737 18.953643129059323 20.965905349059135
-495.3427999279632 16.86951594761706 -2570.930267938473 -76.32788946716408 -49.779952526571805 75.06249310805276 -49.746780075317005 -2332.7959469128837
0.0420520485 -1.048811106 0.029528434999999995 36.18977425921526 -872.4922689666715 18.957562998334282 20.969775057980524 -495.3461653735532
16.892795645871164 -2570.838078557758 -76.40067041328219 -49.297532546213326 75.60999630643539 -50.17901858773423 -2329.930904538577 0.0420520485
-1.048811106 0.029528434999999995 36.190696153022415 -872.4929967761327 18.96238719813787 20.97525008996435 -495.3504877586774 16.92144606961423
-2570.758027915604 -76.4763600969615 -48.81997610392513 76.07970343073299 -50.62313724441805 -2327.128782567261 0.0420520485 -1.048811106
0.029528434999999995 36.191496659443956 -872.4937536729695 18.96716276256075 20.979947161207328 -495.35492894524424 16.949467289327387 -2570.68443146955
-76.54506796422727 -48.371753564198265 76.51153975464679 -51.02628922273745 -2324.4987809268487 0.0420520485 -1.048811106 0.029528434999999995
36.192232623904495 -872.4944407516422 18.97164498795802 20.984265524446467 -495.35896046502745 16.975767305731512 -2570.6322958756073 -76.60744381049429
-47.960494238915906 76.80755815660511 -51.38045030418629 -2322.1637096434156 0.0420520485 -1.048811106 0.029528434999999995 36.19275397984392
-872.4950645101048 18.975757581210843 20.98722570846605 -495.3625020758419 16.99911801856584 -2570.5551721267316 -76.66949375668287 -47.54250420539788
77.2454557073696 -51.732760971875194 -2319.790422366929 0.0420520485 -1.048811106 0.029528434999999995 36.19352521733268 -872.4956850095667
18.979937481546024 20.991604683973694 -495.3660251825188 17.02285089133071 -2570.4973077763934 -76.72299524895311 -47.17275331205438 77.56858220483107
-52.031524367733795 -2317.7256569215265 0.0420520485 -1.048811106 0.029528434999999995 36.19410386083606 -872.4962200244894 18.98363499047946
20.99483594894831 -495.3690128164774 17.043498545784733 -2570.4228024621934 -76.76363234808665 -46.82479866925963 77.98463528550991 -52.25845033222189
-2315.78260624621 0.0420520485 -1.048811106 0.029528434999999995 36.19484891397806 -872.4966263954807 18.987114536907406 20.9989964797551
-495.37128207612227 17.062929052537896 -2570.3717497382677 -76.80447855934723 -46.49803675300077 78.26051700038883 -52.479177493133314 -2314.0168309675764
0.0420520485 -1.048811106 0.029528434999999995 36.19535944121732 -872.4970348575933 18.990382156069995 21.001755296903887 -495.3734893477314
17.08058680532423 -2570.320093888897 -76.84881141527681 -46.1644431229703 78.53965792005205 -52.71874598975595 -2312.2141380719 0.0420520485
-1.048811106 0.029528434999999995 36.19587599971103 -872.4974781861526 18.9937180923703 21.00454670610052 -495.3758850326976 17.098613734280995
-2570.279145069182 -76.88472105024844 -45.877534446740064 78.7601586470533 -52.91211177349908 -2310.6691955770575 0.0420520485 -1.048811106
0.029528434999999995 36.19628548790818 -872.4978372825024 18.996587179132604 21.006751713370534 -495.37781869053504 17.11406315922942 -2570.2377670431097
