ws_icra2022/src/my_pkg/ur5_eye2hand/hololens2_adaptive/log_theta_z.npy (npy, 131480 bytes, 1 tensors)

array f8 [1263, 13, 1]
0.0 0.0 0.0 0.0 0.0 0.0 0.0 0.0
0.0 0.678457138 -0.734604865 -0.00718357448 1.59173406 0.0 0.0 0.0
0.0 0.0 0.0 0.0 0.0 0.0 0.678457138 -0.734604865
-0.00718357448 1.59173406 1.648506961599202e-06 5.678821370010018e-07 1.379655495747178e-06 -4.305948030226435e-07 -1.7874558718232783e-06 1.2502416697605405e-06
-1.4284703441374296e-06 1.1941633036025302e-06 1.2153028804212696e-06 0.678457265427593 -0.7346065377437992 -0.007184494391070188 1.5917318365984146 1.648506961599202e-06
5.678821370010018e-07 1.379655495747178e-06 -4.305948030226435e-07 -1.7874558718232783e-06 1.2502416697605405e-06 -1.4284703441374296e-06 1.1941633036025302e-06 1.2153028804212696e-06
0.678457265427593 -0.7346065377437992 -0.007184494391070188 1.5917318365984146 -2.157992617368728e-07 -7.364299911682029e-08 -1.8044012359679015e-07 5.680533660411074e-08
2.3376047872184803e-07 -1.633410495444564e-07 1.864271590060518e-07 -1.5647376835829052e-07 -1.590973852666045e-07 0.6784571218026512 -0.7346046458608533 -0.007183453582249176
1.591734350776319 -8.498251848661543e-06 -2.9097722700242134e-06 -7.107801052227224e-06 2.235344524873081e-06 9.204717138378487e-06 -6.440831244455717e-06 7.347846409544981e-06
-6.165574108736453e-06 -6.261209064738381e-06 0.6784564952419713 -0.734596234779515 -0.007178818930436312 1.5917455146009116 -8.498251848661543e-06 -2.9097722700242134e-06
-7.107801052227224e-06 2.235344524873081e-06 9.204717138378487e-06 -6.440831244455717e-06 7.347846409544981e-06 -6.165574108736453e-06 -6.261209064738381e-06 0.6784564952419713
-0.734596234779515 -0.007178818930436312 1.5917455146009116 -4.294900087557336e-05 -1.452715322625094e-05 -3.587216312831641e-05 1.1480220295141277e-05 4.6392696741474735e-05
-3.253283422379267e-05 3.696007931959021e-05 -3.1291194642353554e-05 -3.1579681161680504e-05 0.6784540501500782 -0.734561180774769 -0.007159420517958189 1.5917918741325576
-4.294900087557336e-05 -1.452715322625094e-05 -3.587216312831641e-05 1.1480220295141277e-05 4.6392696741474735e-05 -3.253283422379267e-05 3.696007931959021e-05 -3.1291194642353554e-05
-3.1579681161680504e-05 0.6784540501500782 -0.734561180774769 -0.007159420517958189 1.5917918741325576 -9.44198733286667e-05 -3.157430748594615e-05 -7.87587921940746e-05
2.56249138113863e-05 0.0001017158993082692 -7.149935876916755e-05 8.088952350352311e-05 -6.907818872047472e-05 -6.92820172204865e-05 0.6784506903163161 -0.7345086719228024
-0.007130199186257517 1.5918610053059317 -9.44198733286667e-05 -3.157430748594615e-05 -7.87587921940746e-05 2.56249138113863e-05 0.0001017158993082692 -7.149935876916755e-05
8.088952350352311e-05 -6.907818872047472e-05 -6.92820172204865e-05 0.6784506903163161 -0.7345086719228024 -0.007130199186257517 1.5918610053059317 -0.00013453379375809614
-4.464180093029182e-05 -0.00011212279219289403 3.686225247965085e-05 0.00014468399946440853 -0.00010183921838790247 0.00011491360468867732 -9.867591628716131e-05 -9.859718250148177e-05
0.6784482624363767 -0.734467649963948 -0.007107220230232056 1.5919147923163808 -0.00013453379375809614 -4.464180093029182e-05 -0.00011212279219289403 3.686225247965085e-05
0.00014468399946440853 -0.00010183921838790247 0.00011491360468867732 -9.867591628716131e-05 -9.859718250148177e-05 0.6784482624363767 -0.734467649963948 -0.007107220230232056
1.5919147923163808 -0.00018431487069900523 -6.052798437321799e-05 -0.0001534585365391107 5.105306668402695e-05 0.00019787363893296794 -0.0001393712480673155 0.00015686161271355212
-0.00013552237656840356 -0.00013495475659440872 0.6784454820987079 -0.7344166370900342 -0.007078373049128662 1.5919814194145199 -0.00023045492291497667 -7.513906663753127e-05
-0.00019174539952941517 6.428732939377756e-05 0.00024712717898665024 -0.00017411624920093277 0.00019564591228312254 -0.00016971122106936953 -0.00016864708568653346 0.6784429826011642
-0.7343693107803719 -0.007051495165607178 1.592043130613026 -0.00023045492291497667 -7.513906663753127e-05 -0.00019174539952941517 6.428732939377756e-05 0.00024712717898665024
-0.00017411624920093277 0.00019564591228312254 -0.00016971122106936953 -0.00016864708568653346 0.6784429826011642 -0.7343693107803719 -0.007051495165607178 1.592043130613026
-0.0002783380668741489 -8.99739962756344e-05 -0.00023144554708743857 7.808904952823856e-05 0.00029830341835673503 -0.00020988603217730707 0.00023571696635992862 -0.00020506500043564709
-0.0002037667844125386 0.6784404934036148 -0.7343201763230132 -0.007023219503222743 1.5921070756857754 -0.0002783380668741489 -8.99739962756344e-05 -0.00023144554708743857
7.808904952823856e-05 0.00029830341835673503 -0.00020988603217730707 0.00023571696635992862 -0.00020506500043564709 -0.0002037667844125386 0.6784404934036148 -0.7343201763230132
-0.007023219503222743 1.5921070756857754 -0.00033305432207851447 -0.0001065322621027506 -0.00027677678897472475 9.389759676680772e-05 0.00035690305950195143 -0.0002503723031057606
0.00028131507479055344 -0.00024525047209251295 -0.00024412649968778014 0.6784377427761101 -0.7342640347881971 -0.006990447783147637 1.5921800343469599 -0.00033305432207851447
-0.0001065322621027506 -0.00027677678897472475 9.389759676680772e-05 0.00035690305950195143 -0.0002503723031057606 0.00028131507479055344 -0.00024525047209251295 -0.00024412649968778014
00000000: 0000 0000 0000 0000 0000 0000 0000 0000
00000010: 0000 0000 0000 0000 0000 0000 0000 0000
00000020: 0000 0000 0000 0000 0000 0000 0000 0000
00000030: 0000 0000 0000 0000 0000 0000 0000 0000
00000040: 0000 0000 0000 0000 0a54 6ebe ebb5 e53f
00000050: 330a d50f e281 e7bf 3414 5c17 866c 7dbf
00000060: 9f11 3a22 be77 f93f 0000 0000 0000 0000
00000070: 0000 0000 0000 0000 0000 0000 0000 0000
00000080: 0000 0000 0000 0000 0000 0000 0000 0000
00000090: 0000 0000 0000 0000 0000 0000 0000 0000
000000a0: 0000 0000 0000 0000 0000 0000 0000 0000
000000b0: 0a54 6ebe ebb5 e53f 330a d50f e281 e7bf
000000c0: 3414 5c17 866c 7dbf 9f11 3a22 be77 f93f
000000d0: 059d 9f92 48a8 bb3e 7ed1 9206 120e a33e
000000e0: 12bf 8842 9325 b73e 5330 9cf8 8fe5 9cbe
000000f0: 668d e483 10fd bdbe fce7 e040 bff9 b43e
00000100: f912 d9c0 3bf7 b7be 65fb 1170 e408 b43e
00000110: 3485 f6a5 af63 b43e e3d7 d702 ecb5 e53f
00000120: 7132 e191 e581 e7bf 1ec5 2a07 7d6d 7dbf
00000130: 4713 63cd bb77 f93f 059d 9f92 48a8 bb3e
00000140: 7ed1 9206 120e a33e 12bf 8842 9325 b73e
00000150: 5330 9cf8 8fe5 9cbe 668d e483 10fd bdbe
00000160: fce7 e040 bff9 b43e f912 d9c0 3bf7 b7be
00000170: 65fb 1170 e408 b43e 3485 f6a5 af63 b43e
00000180: e3d7 d702 ecb5 e53f 7132 e191 e581 e7bf
00000190: 1ec5 2a07 7d6d 7dbf 4713 63cd bb77 f93f
000001a0: 705c 5f61 cef6 8cbe 7086 6157 b5c4 73be
000001b0: 1054 b21c e037 88be 989e 8619 447f 6e3e
000001c0: 10ce 6eea f25f 8f3e 986d ee10 5bec 85be
000001d0: 286b eaa1 9605 893e 6092 6fd2 6500 85be
000001e0: 604b 8066 8b5a 85be 7e2e bcb5 ebb5 e53f
000001f0: ecc8 2e9a e181 e7bf a55a 54a3 656c 7dbf
00000200: b910 4870 be77 f93f 92dd 25d7 76d2 e1be
00000210: c61c f838 b068 c8be c4ef e879 f1cf ddbe
00000220: cd1a 0aa6 5dc0 c23e 83e7 c4b0 be4d e33e
00000230: b4f2 2136 ca03 dbbe 7902 40a4 b0d1 de3e
00000240: ce85 2a1b 3cdc d9be d060 eb0a ec42 dabe
00000250: 6556 5a65 eab5 e53f 7291 84f6 cf81 e7bf
00000260: 3d69 7b88 8967 7dbf ec3f 0c25 ca77 f93f
00000270: 92dd 25d7 76d2 e1be c61c f838 b068 c8be
00000280: c4ef e879 f1cf ddbe cd1a 0aa6 5dc0 c23e
00000290: 83e7 c4b0 be4d e33e b4f2 2136 ca03 dbbe
000002a0: 7902 40a4 b0d1 de3e ce85 2a1b 3cdc d9be
000002b0: d060 eb0a ec42 dabe 6556 5a65 eab5 e53f
000002c0: 7291 84f6 cf81 e7bf 3d69 7b88 8967 7dbf
000002d0: ec3f 0c25 ca77 f93f 6a95 e96e 8484 06bf
000002e0: e4fe 80bc 3477 eebe 68d4 c823 aece 02bf
000002f0: afa8 8676 6513 e83e 1ccf 16ec b852 083f
00000300: 16ca 1bac 7b0e 01bf 2da5 cda7 b260 033f
00000310: fca3 d942 d567 00bf 981c 1c95 8d8e 00bf
00000320: 7077 a744 e5b5 e53f 42d7 0a73 8681 e7bf
00000330: 2f21 ba4f 3253 7dbf 9201 97c1 fa77 f93f
00000340: 6a95 e96e 8484 06bf e4fe 80bc 3477 eebe
00000350: 68d4 c823 aece 02bf afa8 8676 6513 e83e
00000360: 1ccf 16ec b852 083f 16ca 1bac 7b0e 01bf
00000370: 2da5 cda7 b260 033f fca3 d942 d567 00bf
00000380: 981c 1c95 8d8e 00bf 7077 a744 e5b5 e53f
00000390: 42d7 0a73 8681 e7bf 2f21 ba4f 3253 7dbf
000003a0: 9201 97c1 fa77 f93f 94d6 7812 69c0 18bf
000003b0: 2218 c2f1 d48d 00bf 9f58 3abf 69a5 14bf
000003c0: 445c 24ab a2de fa3e 1198 13d8 09aa 1a3f
000003d0: 5a83 61a1 3dbe 12bf 3229 a16e 6734 153f
000003e0: 5c3d e53e c21b 12bf 326a 1efe 6f29 12bf
000003f0: 326e db38 deb5 e53f b62d 9154 1881 e7bf
00000400: c462 1a45 8e34 7dbf 0911 d93e 4378 f93f
00000410: 94d6 7812 69c0 18bf 2218 c2f1 d48d 00bf
00000420: 9f58 3abf 69a5 14bf 445c 24ab a2de fa3e
00000430: 1198 13d8 09aa 1a3f 5a83 61a1 3dbe 12bf
00000440: 3229 a16e 6734 153f 5c3d e53e c21b 12bf
00000450: 326a 1efe 6f29 12bf 326e db38 deb5 e53f
00000460: b62d 9154 1881 e7bf c462 1a45 8e34 7dbf
00000470: 0911 d93e 4378 f93f 6eb6 217d 34a2 21bf
00000480: b167 a999 b867 07bf 0eea 04e7 6e64 1dbf
00000490: 44b2 d159 9153 033f 444c 8717 caf6 223f
000004a0: 73dd 1f73 50b2 1abf 92ee 2db2 b81f 1e3f
000004b0: 5353 5b55 07de 19bf 105d 81b2 bed8 19bf
000004c0: 0527 6621 d9b5 e53f 9015 124d c280 e7bf
000004d0: 23e1 44e7 751c 7dbf a147 30a5 7b78 f93f
000004e0: 6eb6 217d 34a2 21bf b167 a999 b867 07bf
000004f0: 0eea 04e7 6e64 1dbf 44b2 d159 9153 033f
00000500: 444c 8717 caf6 223f 73dd 1f73 50b2 1abf
00000510: 92ee 2db2 b81f 1e3f 5353 5b55 07de 19bf
00000520: 105d 81b2 bed8 19bf 0527 6621 d9b5 e53f
00000530: 9015 124d c280 e7bf 23e1 44e7 751c 7dbf
00000540: a147 30a5 7b78 f93f 32dc 02af 9428 28bf
00000550: 1a5b feb4 edbb 0fbf 8acb 9cca 361d 24bf
00000560: 0627 9f03 3ac4 0a3f ac9e ac9d 89ef 293f
00000570: f0c3 a7e7 8544 22bf a1af 42fe 668f 243f
00000580: 71ba b859 60c3 21bf 90ce 3288 54b0 21bf
00000590: f373 b74c d3b5 e53f 7614 be51 5780 e7bf
000005a0: 340d 144c 36fe 7cbf b199 4382 c178 f93f
000005b0: bbb2 d8b6 c834 2ebf 2c70 df55 7fb2 13bf
000005c0: cbd5 b570 e821 29bf 809d bfe8 3fda 103f
000005d0: 66d6 d526 1b32 303f 048f 2931 5fd2 26bf
000005e0: 9bda f696 c9a4 293f 5813 dc49 903e 26bf
000005f0: c0df 676f db1a 26bf 5620 cf0e ceb5 e53f
00000600: b69b 9f11 f47f e7bf 57a9 fc51 07e2 7cbf
00000610: d6de bc37 0279 f93f bbb2 d8b6 c834 2ebf
00000620: 2c70 df55 7fb2 13bf cbd5 b570 e821 29bf
00000630: 809d bfe8 3fda 103f 66d6 d526 1b32 303f
00000640: 048f 2931 5fd2 26bf 9bda f696 c9a4 293f
00000650: 5813 dc49 903e 26bf c0df 676f db1a 26bf
00000660: 5620 cf0e ceb5 e53f b69b 9f11 f47f e7bf
00000670: 57a9 fc51 07e2 7cbf d6de bc37 0279 f93f
00000680: 0f17 fbe4 bc3d 32bf d1fe 687c 0d96 17bf
00000690: 9171 701c 0656 2ebf d945 d5a7 7778 143f
000006a0: cbab 166d b38c 333f bfff c549 9b82 2bbf
000006b0: 4eef c052 59e5 2e3f bf96 dbf0 d6e0 2abf
000006c0: 61d9 a159 47b5 2abf 8e6b 6ed6 c8b5 e53f
000006d0: 9e35 c306 8d7f e7bf 2577 4321 61c4 7cbf
000006e0: 44cf dc44 4579 f93f 0f17 fbe4 bc3d 32bf
000006f0: d1fe 687c 0d96 17bf 9171 701c 0656 2ebf
00000700: d945 d5a7 7778 143f cbab 166d b38c 333f
00000710: bfff c549 9b82 2bbf 4eef c052 59e5 2e3f
00000720: bf96 dbf0 d6e0 2abf 61d9 a159 47b5 2abf
00000730: 8e6b 6ed6 c8b5 e53f 9e35 c306 8d7f e7bf
00000740: 2577 4321 61c4 7cbf 44cf dc44 4579 f93f
00000750: e56e ce6b b9d3 35bf 8d38 a953 42ed 1bbf
00000760: f7b5 c641 8b23 32bf be7e dc6d 5c9d 183f
00000770: 0e46 e9f7 d663 373f f1af 89da 8c68 30bf
00000780: 0907 cd0b af6f 323f 7984 c8c1 9e12 30bf
00000790: ce24 1caa 86ff 2fbf f40d b311 c3b5 e53f
000007a0: 036b 014a 177f e7bf 9ce8 ce09 04a2 7cbf
000007b0: 60d4 8dc5 9179 f93f e56e ce6b b9d3 35bf
000007c0: 8d38 a953 42ed 1bbf f7b5 c641 8b23 32bf
000007d0: be7e dc6d 5c9d 183f 0e46 e9f7 d663 373f
000007e0: f1af 89da 8c68 30bf 0907 cd0b af6f 323f
000007f0: 7984 c8c1 9e12 30bf ce24 1caa 86ff 2fbf
