ws_icra2022/src/my_pkg/ur5_eye2hand/hololens2_adaptive/log_theta_k.npy (npy, 36968 bytes, 1 tensors)

array f8 [307, 15, 1]
000000 17 12 ee 9d 0e 16 a4 c0 37 0d 17 da b5 0c 53 c0
       -2571.02854866 -76.19859935999999
000010 ca 58 65 8d 17 5e 49 c0 39 89 18 e1 b3 9e 52 40
       -50.73509376 74.47972896
000020 7d 6e 91 49 80 7d 48 c0 ec c5 ab 07 ef 44 a2 c0
       -48.98047752 -2338.4668554
000030 c1 19 13 9a d8 87 a5 3f b6 39 7f 27 ee c7 f0 bf
       0.0420520485 -1.048811106
000040 79 1c 82 ba b3 3c 9e 3f 5b 0d 7c 51 2a 18 42 40
       0.029528434999999995 36.188791452
000050 f7 06 dc 84 ed 43 8b c0 5e 19 26 e3 b0 f2 32 40
       -872.4909760656 18.948011586
000060 62 ee 04 42 c5 f6 34 40 78 24 70 81 6a f5 7e c0
       20.963947416499998 -495.338502348
000070 bf 1e d4 c4 09 d6 30 40 c6 9d dc 9d 0e 16 a4 c0
       16.836086561 -2571.0285481398196
000080 62 df ca e3 b5 0c 53 c0 4a 8a f3 1c 16 5e 49 c0
       -76.19860167323853 -50.7350498379861
000090 ec 72 a1 ee b3 9e 52 40 bc 4d f2 c1 80 7d 48 c0
       74.4797321869516 -48.98049187022431
0000a0 9c 28 f5 e3 ee 44 a2 c0 c1 19 13 9a d8 87 a5 3f
       -2338.466582928855 0.0420520485
0000b0 b6 39 7f 27 ee c7 f0 bf 79 1c 82 ba b3 3c 9e 3f
       -1.048811106 0.029528434999999995
0000c0 14 39 87 51 2a 18 42 40 ca 21 df 84 ed 43 8b c0
       36.1887914572018 -872.4909760887324
0000d0 04 89 84 ea b0 f2 32 40 17 87 8f 42 c5 f6 34 40
       18.948012025220137 20.963947448769513
0000e0 de a9 96 81 6a f5 7e c0 ab aa 8a f2 09 d6 30 40
       -495.33850249150225 16.83608928571145
0000f0 c9 60 cb 9d 0e 16 a4 c0 3b cd 5f ed b5 0c 53 c0
       -2571.02854762608 -76.19860395770677
000100 16 be 22 b1 14 5e 49 c0 d9 4e 2f fc b3 9e 52 40
       -50.735006467785 74.47973541850969
000110 cb 72 7d 3a 81 7d 48 c0 4d 2c 33 c0 ee 44 a2 c0
       -48.98050624013339 -2338.4663101188257
000120 c1 19 13 9a d8 87 a5 3f b6 39 7f 27 ee c7 f0 bf
       0.0420520485 -1.048811106
000130 79 1c 82 ba b3 3c 9e 3f 64 41 92 51 2a 18 42 40
       0.029528434999999995 36.188791462339196
000140 ba 32 e2 84 ed 43 8b c0 6b 45 cb f1 b0 f2 32 40
       -872.4909761115771 18.948012458922147
000150 72 52 1a 43 c5 f6 34 40 cb 3c bd 81 6a f5 7e c0
       20.963947481085093 -495.33850263520134
000160 a9 c4 4f 20 0a d6 30 40 93 4b 91 0f 0e 16 a4 c0
       16.83609201381174 -2571.0274625210527
000170 0f 9c c9 fc 04 0d 53 c0 46 1b 72 51 61 52 49 c0
       -76.20342940987051 -50.643594914165575
000180 f6 c4 d0 d0 23 9f 52 40 e2 6d 02 d9 63 81 48 c0
       74.48656101596484 -49.010859609781406
000190 71 a0 6d 59 c8 43 a2 c0 c1 19 13 9a d8 87 a5 3f
       -2337.8913072832443 0.0420520485
0001a0 b6 39 7f 27 ee c7 f0 bf 79 1c 82 ba b3 3c 9e 3f
       -1.048811106 0.029528434999999995
0001b0 5e b5 98 ac 2a 18 42 40 77 cf 2e 9e ed 43 8b c0
       36.18880231338947 -872.4910243660987
0001c0 98 9a 1b da ec f2 32 40 21 80 3f bc c9 f6 34 40
       18.94892657445834 20.964015737059643
0001d0 96 71 04 c0 6b f5 7e c0 eb 81 c7 f5 82 d7 30 40
       -495.3388061688978 16.841842042167553
0001e0 2a 53 d9 a9 df 15 a4 c0 93 26 f7 b2 b4 10 53 c0
       -2570.9368427194613 -76.26102899680909
0001f0 f7 0f cb 53 91 24 49 c0 1e 48 73 0a 66 c3 52 40
       -50.28568503775744 75.05310307748775
000200 21 e5 9b bf 7b af 48 c0 cc 02 88 b2 4e 3f a2 c0
       -49.37096400367796 -2335.653705835668
000210 c1 19 13 9a d8 87 a5 3f b6 39 7f 27 ee c7 f0 bf
       0.0420520485 -1.048811106
000220 79 1c 82 ba b3 3c 9e 3f 26 21 56 5e 48 18 42 40
       0.029528434999999995 36.189708511405385
000230 d7 aa 2b cc ee 43 8b c0 a9 be 6b 69 d7 f3 32 40
       -872.4916003619682 18.952505673222422
000240 d1 c2 3b 06 3d f8 34 40 c6 50 fc 7f 7a f5 7e c0
       20.969681157674874 -495.34240721283675
000250 4d e5 01 65 3d dd 30 40 b6 fd f4 9f c8 15 a4 c0
       16.864218056643313 -2570.891845375033
000260 b8 c8 15 69 cb 15 53 c0 d9 43 40 43 66 e7 48 c0
       -76.34054019095754 -49.80780830991689
000270 28 3e b8 7a 3f d5 52 40 b6 04 0a 53 90 ee 48 c0
       75.33199947349988 -49.863779430286215
000280 7b db 06 33 62 39 a2 c0 c1 19 13 9a d8 87 a5 3f
       -2332.691795553486 0.0420520485
000290 b6 39 7f 27 ee c7 f0 bf 79 1c 82 ba b3 3c 9e 3f
       -1.048811106 0.029528434999999995
0002a0 3d be fc 1c 57 18 42 40 1f c9 09 6d f0 43 8b c0
       36.19015848484967 -872.4923954739096
0002b0 b4 eb d4 97 10 f5 32 40 6b c2 48 cd f3 f8 34 40
       18.95728444050083 20.972470121634995
0002c0 37 a7 87 af 8e f5 7e c0 30 da 17 83 d2 e4 30 40
       -495.34733536710286 16.893837159465136
0002d0 c8 85 25 71 a7 15 a4 c0 63 5e 73 b1 c2 1b 53 c0
       -2570.827035114842 -76.43375812784647
0002e0 ee 8c 19 22 af 9d 48 c0 5a 52 b0 e6 f4 ee 52 40
       -49.2319071411856 75.73369757861056
0002f0 01 7c da b6 84 38 49 c0 9e cc 31 a1 3e 32 a2 c0
       -50.44155011814292 -2329.122323566654
000300 c1 19 13 9a d8 87 a5 3f b6 39 7f 27 ee c7 f0 bf
       0.0420520485 -1.048811106
000310 79 1c 82 ba b3 3c 9e 3f a2 7b aa 59 6c 18 42 40
       0.029528434999999995 36.190806587451576
000320 59 c8 c4 55 f2 43 8b c0 67 c6 03 04 8a f6 32 40
       -872.4933276532785 18.963043452188142
000330 aa 00 0b 0f fb f9 34 40 a5 08 e5 59 a6 f5 7e c0
       20.9764871026861 -495.35311307398143
000340 9d 53 1e cd f5 ed 30 40 2b 10 3e ac 79 15 a4 c0
       16.929531879333457 -2570.7376422304856
000350 fb a5 2e 8f 89 22 53 c0 a0 79 84 75 1a 44 48 c0
       -76.53964595370773 -48.53205746620665
000360 e9 26 ca 64 46 11 53 40 19 cf 2a ee d1 89 49 c0
       76.26992149106412 -51.07671906557352
000370 6c ab e5 39 d9 29 a2 c0 c1 19 13 9a d8 87 a5 3f
       -2324.9242698451762 0.0420520485
000380 b6 39 7f 27 ee c7 f0 bf 79 1c 82 ba b3 3c 9e 3f
       -1.048811106 0.029528434999999995
000390 96 0e 7c a4 89 18 42 40 47 04 ed 80 f4 43 8b c0
       36.19170051629514 -872.4943865315371
0003a0 c0 6f 4e ab 54 f8 32 40 02 ad 7c 7a 5a fb 34 40
       18.970041948937933 20.981849341810637
0003b0 b5 b1 1f 5e c0 f5 7e c0 8b bb a8 09 b5 f8 30 40
       -495.3594647634557 16.971512416548233
0003c0 15 96 6a bf 48 15 a4 c0 99 d5 14 de 92 29 53 c0
       -2570.6420853908735 -76.64958908114058
0003d0 87 ef 32 bd fc ed 47 c0 cb 18 53 ad f5 35 53 40
       -47.85927548396199 76.8431199370854
0003e0 17 bd ba 40 3c de 49 c0 e1 93 34 f4 c6 21 a2 c0
       -51.73621377103898 -2320.8885818892018
0003f0 c1 19 13 9a d8 87 a5 3f b6 39 7f 27 ee c7 f0 bf
       0.0420520485 -1.048811106
000400 79 1c 82 ba b3 3c 9e 3f ec 8f 5f f4 a8 18 42 40
       0.029528434999999995 36.192656084691265
000410 38 2f 58 c1 f6 43 8b c0 1d 8c 64 95 0d fa 32 40
       -872.4954859628115 18.97676976876038
000420 3e 79 3a 21 d2 fc 34 40 68 50 6d 61 db f5 7e c0
       20.98758132627085 -495.3660597105104
000430 3d 9c be dd 09 03 31 40 97 6a 0b 6d 1c 15 a4 c0
       17.011869296107978 -2570.555519444238
000440 fe 2c a3 98 fd 2f 53 c0 55 7a 1d 12 83 9f 47 c0
       -76.74985328612453 -47.246187462228285
000450 43 3d 79 f1 83 56 53 40 67 59 0b 6d a6 29 4a c0
       77.35180317725921 -52.32539141706621
000460 14 75 76 64 92 1a a2 c0 c1 19 13 9a d8 87 a5 3f
       -2317.285922719757 0.0420520485
000470 b6 39 7f 27 ee c7 f0 bf 79 1c 82 ba b3 3c 9e 3f
       -1.048811106 0.029528434999999995
000480 66 1c 0d 52 c5 18 42 40 ba 85 04 cf f8 43 8b c0
       36.19352174415762 -872.4964886048613
000490 94 93 7e 60 9f fb 32 40 80 47 1d 80 1f fe 34 40
       18.98290064897772 20.992668158672586
0004a0 cd 03 67 83 f3 f5 7e c0 6c b9 a7 e7 42 0c 31 40
       -495.37195148697066 17.047895887802426
0004b0 f5 66 9b 96 f8 14 a4 c0 82 54 cf 0e 1d 33 53 c0
       -2570.4855240405254 -76.79864855048257
0004c0 b7 27 70 ad 39 60 47 c0 14 b8 09 db d6 70 53 40
       -46.75176017738652 77.7631137461579
0004d0 05 79 ae 19 5a 4e 4a c0 d3 50 a4 d6 c2 14 a2 c0
       -52.612124643508686 -2314.3805438374197
0004e0 c1 19 13 9a d8 87 a5 3f b6 39 7f 27 ee c7 f0 bf
       0.0420520485 -1.048811106
0004f0 79 1c 82 ba b3 3c 9e 3f c3 f5 b0 41 dc 18 42 40
       0.029528434999999995 36.194221698194745
000500 e5 6a d8 ce f9 43 8b c0 4f c3 a0 67 e3 fc 32 40
       -872.4969765575048 18.987844921826134
000510 d0 b2 93 0e 2d ff 34 40 a4 a8 04 42 ff f5 7e c0
       20.996781264361573 -495.3748188192351
000520 aa 8b 58 f9 b2 13 31 40 8f 3e 9a a3 ce 14 a4 c0
       17.076949676625794 -2570.403591938149
000530 b3 62 6c 82 3b 38 53 c0 21 91 59 6b 45 1a 47 c0
       -76.87863216957594 -46.20524350999245
000540 7a 54 e4 2e 14 8d 53 40 a9 9b 7e e7 7c 85 4a c0
       78.20435688302851 -53.04287427598985
000550 8f 56 de e4 df 0e a2 c0 c1 19 13 9a d8 87 a5 3f
       -2311.4372930031454 0.0420520485
000560 b6 39 7f 27 ee c7 f0 bf 79 1c 82 ba b3 3c 9e 3f
       -1.048811106 0.029528434999999995
000570 04 76 a7 1a f7 18 42 40 27 9d 30 72 fb 43 8b c0
       36.19504101921851 -872.4977763936957
000580 0a e5 e8 91 49 fe 32 40 78 1f e4 3a 4e 00 35 40
       18.993310088500074 21.00119369573028
000590 20 66 c1 e6 10 f6 7e c0 20 51 e5 dc 3b 1b 31 40
       -495.3791263155599 17.10638218496854
0005a0 6d ec a7 23 a7 14 a4 c0 4b 37 74 6f 64 3d 53 c0
       -2570.32644390832 -76.95925508832185
0005b0 f0 6d 0a 94 de d3 46 c0 5d ed 9f 62 ab a7 53 40
       -45.65523005017519 78.61983552568331
0005c0 3e 00 b5 86 10 bd 4a c0 6a 44 c3 4e f3 08 a2 c0
       -53.47706683957993 -2308.4752102871907
0005d0 c1 19 13 9a d8 87 a5 3f b6 39 7f 27 ee c7 f0 bf
       0.0420520485 -1.048811106
0005e0 79 1c 82 ba b3 3c 9e 3f 4d c9 4c 62 10 19 42 40
       0.029528434999999995 36.1958124995168
0005f0 19 dd e2 18 fd 43 8b c0 10 1e db 06 b2 ff 32 40
       -872.4985826228832 18.998810223098246
000600 62 f2 a3 84 5e 01 35 40 da 2f 98 af 22 f6 7e c0
       21.005348482156826 -495.3834682411958
000610 64 3f e9 17 d1 22 31 40 e4 b7 aa 7e 86 14 a4 c0
       17.136003012128086 -2570.2626851415134
000620 6c 2f 6b 43 27 41 53 c0 4e 75 ef e4 9c 9d 46 c0
       -77.01802144496259 -45.23135053341194
000630 04 69 0c a9 a9 bd 53 40 0a 56 9d 5b 9b e5 4a c0
       78.96348024570403 -53.79380364592005
000640 f5 77 46 96 61 04 a2 c0 c1 19 13 9a d8 87 a5 3f
       -2306.190599634307 0.0420520485
000650 b6 39 7f 27 ee c7 f0 bf 79 1c 82 ba b3 3c 9e 3f
       -1.048811106 0.029528434999999995
000660 af e0 c5 46 25 19 42 40 7d bb fd 4c fe 43 8b c0
       36.196450087184864 -872.4991702864496
000670 a3 bc 09 d2 c7 00 33 40 40 49 a8 ba 3f 02 35 40
       19.00304901826588 21.008784929357034
000680 cc 13 d2 a8 2f f6 7e c0 42 a1 f9 55 aa 28 31 40
       -495.3866356092592 17.158849118656924
000690 9e 25 ba 91 5d 14 a4 c0 c1 86 b2 bd 16 44 53 c0
       -2570.182752434818 -77.0638880008146
0006a0 dd f0 7b e3 e2 69 46 c0 16 b3 90 30 3c d9 53 40
       -44.827236590879444 79.39429868822876
0006b0 43 9d bd ee 3f 05 4b c0 a3 32 1f 69 06 00 a2 c0
       -54.04101356752883 -2304.0125207661927
0006c0 c1 19 13 9a d8 87 a5 3f b6 39 7f 27 ee c7 f0 bf
       0.0420520485 -1.048811106
0006d0 79 1c 82 ba b3 3c 9e 3f f0 ae 03 78 3f 19 42 40
       0.029528434999999995 36.197249414251814
0006e0 14 c8 76 3d ff 43 8b c0 3f 68 1b a9 d0 01 33 40
       -872.4996289520082 19.007090157691206
0006f0 6a 7f ff 11 5a 03 35 40 5e 28 01 c9 39 f6 7e c0
       21.013093113782283 -495.3891077084753
000700 4f b2 f8 c2 3d 2e 31 40 ea 3f fd 61 3e 14 a4 c0
       17.18062990733807 -2570.1218413486977
000710 52 b5 85 c9 00 47 53 c0 a4 a7 47 86 c0 3b 46 c0
       -77.10942304665994 -44.46681288241169
000720 26 f3 d9 1b 17 ed 53 40 69 8e d1 90 ef 22 4b c0
       79.70453544887695 -54.27293596489182
000730 0d ce 82 83 5a fc a1 c0 c1 19 13 9a d8 87 a5 3f
       -2302.176784598973 0.0420520485
000740 b6 39 7f 27 ee c7 f0 bf 79 1c 82 ba b3 3c 9e 3f
       -1.048811106 0.029528434999999995
000750 30 4c 9b 6d 53 19 42 40 b2 e2 32 2c 00 44 8b c0
       36.19785852511302 -872.5000843024666
000760 1c d0 2b de bc 02 33 40 60 e8 16 63 25 04 35 40
       19.010694394775882 21.016195481388763
000770 45 1a e3 48 43 f6 7e c0 2e b8 64 d4 f0 32 31 40
       -495.39142693244895 17.198987269010267
000780 ca 2d c5 84 2b 14 a4 c0 ca 20 07 39 69 46 53 c0
       -2570.084997331466 -77.1001722879038
000790 ad d1 ab c0 5b 22 46 c0 d5 a0 c3 ac 19 f9 53 40
       -44.26842506780245 79.89219206909486
0007a0 31 b7 d5 a5 e7 1c 4b c0 87 0f b3 2a 55 fa a1 c0
       -54.22581932959873 -2301.1663413959936
0007b0 c1 19 13 9a d8 87 a5 3f b6 39 7f 27 ee c7 f0 bf
       0.0420520485 -1.048811106
0007c0 79 1c 82 ba b3 3c 9e 3f fd 8a 4e 80 5f 19 42 40
       0.029528434999999995 36.198226965285336
0007d0 31 ba b2 fb ff 43 8b c0 d4 91 1f e2 3e 03 33 40
       -872.4999917948791 19.012678272921974
0007e0 f6 5f a5 5e a0 04 35 40 0a 59 d5 5a 41 f6 7e c0
       21.01807204759094 -495.390955766096
0007f0 03 d5 a1 08 87 35 31 40 a7 0d 0f 4c 15 14 a4 c0
       17.209091701040062 -2570.0415959076086
