ws_icra2022/src/my_pkg/ur5_eye2hand/hololens2_adaptive/log_theta_z.npy (npy, 9952 bytes, 1 tensors)

array f8 [307, 4, 1]
0	0x3fa4816092bcdb93	0.04004957
1	0xbfeff6b96fcdc342	-0.99886772
2	0x3f9a4b0b970cf75f	0.0256769
3	0x3fef69a6acfd7993	0.98164686
4	0x3fa4816092bcdb93	0.04004957
5	0xbfeff6b96fcdc342	-0.99886772
6	0x3f9a4b0b970cf75f	0.0256769
7	0x3fef69a6acfd7993	0.98164686
8	0x3fa48279443ebb56	0.04005793531484041
9	0xbfeff79fbb72b074	-0.9989775334447715
10	0x3f9a3b36affe13f1	0.025616507045487628
11	0x3fef661058727bcf	0.9812089660152824
12	0x3fa48279443ebb56	0.04005793531484041
13	0xbfeff79fbb72b074	-0.9989775334447715
14	0x3f9a3b36affe13f1	0.025616507045487628
15	0x3fef661058727bcf	0.9812089660152824
16	0x3fa4809e7e991ab7	0.040043786004891606
17	0xbfeff619985bf29a	-0.998791501595025
18	0x3f9a561da3933839	0.025719130619840967
19	0x3fef6c246a1a684c	0.9819509575202203
20	0x3fa46b97d1213129	0.03988336971142054
21	0xbfefe4c5e58c1557	-0.9966763957351458
22	0x3f9b8965400bbc6d	0.026891309770629968
23	0x3fefb1471bd4fe6d	0.9903903525918857
24	0x3fa46b97d1213129	0.03988336971142054
25	0xbfefe4c5e58c1557	-0.9966763957351458
26	0x3f9b8965400bbc6d	0.026891309770629968
27	0x3fefb1471bd4fe6d	0.9903903525918857
28	0x3fa434c1d82957c5	0.03946500552835589
29	0xbfefb7138278a768	-0.9910981701152481
30	0x3f9ebed5ab6557a4	0.030024851404355637
31	0x3ff033e7658d2d0c	1.0126718489507907
32	0x3fa434c1d82957c5	0.03946500552835589
33	0xbfefb7138278a768	-0.9910981701152481
34	0x3f9ebed5ab6557a4	0.030024851404355637
35	0x3ff033e7658d2d0c	1.0126718489507907
36	0x3fa3f7f998045474	0.03900127392459121
37	0xbfef83a3cb7a2d06	-0.9848193144001989
38	0x3fa1359d9cfe0186	0.033612180151069856
39	0x3ff09ac6039141fe	1.0377864970542983
40	0x3fa3f7f998045474	0.03900127392459121
41	0xbfef83a3cb7a2d06	-0.9848193144001989
42	0x3fa1359d9cfe0186	0.033612180151069856
43	0x3ff09ac6039141fe	1.0377864970542983
44	0x3fa3b1c4b107784e	0.03846563969612814
45	0xbfef46fcd20a1260	-0.9774154760676304
46	0x3fa36ae834bb62d6	0.0379250110979165
47	0x3ff11440c2041b04	1.0674445704223112
48	0x3fa3b1c4b107784e	0.03846563969612814
49	0xbfef46fcd20a1260	-0.9774154760676304
50	0x3fa36ae834bb62d6	0.0379250110979165
51	0x3ff11440c2041b04	1.0674445704223112
52	0x3fa37e5a670ec2a0	0.03807337291744273
53	0xbfef19bb33ce0466	-0.9718910228549589
54	0x3fa51842aee5fd21	0.041200717782880376
55	0x3ff16f03c3e26674	1.089603200124114
56	0x3fa37e5a670ec2a0	0.03807337291744273
57	0xbfef19bb33ce0466	-0.9718910228549589
58	0x3fa51842aee5fd21	0.041200717782880376
59	0x3ff16f03c3e26674	1.089603200124114
60	0x3fa355da2d2e7b49	0.037764375701263626
61	0xbfeef559171d66f4	-0.9674497081243474
62	0x3fa67721a80cc4f4	0.04387765098943844
63	0x3ff1b80e999e1884	1.1074357987104415
64	0x3fa355da2d2e7b49	0.037764375701263626
65	0xbfeef559171d66f4	-0.9674497081243474
66	0x3fa67721a80cc4f4	0.04387765098943844
67	0x3ff1b80e999e1884	1.1074357987104415
68	0x3fa3370bc59ea019	0.03752934253071789
69	0xbfeed91495d2329a	-0.9639990736191806
70	0x3fa78c4a90377e80	0.045992212395273846
71	0x3ff1f0db7e29100a	1.1213030746594108
72	0x3fa3370bc59ea019	0.03752934253071789
73	0xbfeed91495d2329a	-0.9639990736191806
74	0x3fa78c4a90377e80	0.045992212395273846
75	0x3ff1f0db7e29100a	1.1213030746594108
76	0x3fa32336b46fe801	0.03737803413964969
77	0xbfeec68845e90a76	-0.9617349019466264
78	0x3fa84495ca407355	0.04739826291936448
79	0x3ff21626a910bb82	1.130407963191573
80	0x3fa32336b46fe801	0.03737803413964969
81	0xbfeec68845e90a76	-0.9617349019466264
82	0x3fa84495ca407355	0.04739826291936448
83	0x3ff21626a910bb82	1.130407963191573
84	0x3fa31647003a7bc9	0.03727933767117226
85	0xbfeeba381bee6c41	-0.9602318330320331
86	0x3fa8c04ef739a78f	0.048342197111948974
87	0x3ff22eeb808f0a67	1.1364550611330289
88	0x3fa31647003a7bc9	0.03727933767117226
89	0xbfeeba381bee6c41	-0.9602318330320331
90	0x3fa8c04ef739a78f	0.048342197111948974
91	0x3ff22eeb808f0a67	1.1364550611330289
92	0x3fa30de0658e9833	0.03721524467191308
93	0xbfeeb2114bfd9f88	-0.9592367634004271
94	0x3fa9131716179317	0.04897377152136622
95	0x3ff23f5308e8f41b	1.1404600475355042
96	0x3fa30de0658e9833	0.03721524467191308
97	0xbfeeb2114bfd9f88	-0.9592367634004271
98	0x3fa9131716179317	0.04897377152136622
99	0x3ff23f5308e8f41b	1.1404600475355042
100	0x3fa30de0658e9833	0.03721524467191308
101	0xbfeeb2114bfd9f88	-0.9592367634004271
102	0x3fa9131716179317	0.04897377152136622
103	0x3ff23f5308e8f41b	1.1404600475355042
104	0x3fa30641aa44854c	0.03715710833990701
105	0xbfeeaa83f81d4457	-0.9583148809416667
106	0x3fa9609eb5b42934	0.04956527679503822
107	0x3ff24e869ed6a208	1.1441713528275859
108	0x3fa3038ccf520c38	0.03713645964401063
109	0xbfeea7d06fce9349	-0.9579851325730512
110	0x3fa97c712d4e3b50	0.049777542858569945
111	0x3ff253f6a851cbf5	1.1454989027959048
112	0x3fa3038ccf520c38	0.03713645964401063
113	0xbfeea7d06fce9349	-0.9579851325730512
114	0x3fa97c712d4e3b50	0.049777542858569945
115	0x3ff253f6a851cbf5	1.1454989027959048
116	0x3fa302199a10c9ea	0.03712539678271638
117	0xbfeea65a8e023caa	-0.9578068517311256
118	0x3fa98b8cfd7426c1	0.04989281267087398
119	0x3ff256e7506472f9	1.1462166920020407
120	0x3fa302199a10c9ea	0.03712539678271638
121	0xbfeea65a8e023caa	-0.9578068517311256
122	0x3fa98b8cfd7426c1	0.04989281267087398
123	0x3ff256e7506472f9	1.1462166920020407
124	0x3fa3013aa7fa2637	0.0371187524843432
125	0xbfeea577d97d8c67	-0.9576987502918087
126	0x3fa994bdca92c3b9	0.04996293161219207
127	0x3ff258afb5dc4003	1.146651945487975
128	0x3fa3013aa7fa2637	0.0371187524843432
129	0xbfeea577d97d8c67	-0.9576987502918087
130	0x3fa994bdca92c3b9	0.04996293161219207
131	0x3ff258afb5dc4003	1.146651945487975
132	0x3fa3008fb60d0b69	0.037113657925622
133	0xbfeea4c84c0518e3	-0.9576150402797591
134	0x3fa99be0588afa3b	0.05001736718030655
135	0x3ff25a111ee7d035	1.1469889838454155
136	0x3fa300296aad3c93	0.0371106093140209
137	0xbfeea45ed5e4fcf1	-0.9575647523523952
138	0x3fa9a02aefdc8e70	0.05005010774609964
139	0x3ff25ae56b5cdada	1.1471914476257354
140	0x3fa300296aad3c93	0.0371106093140209
141	0xbfeea45ed5e4fcf1	-0.9575647523523952
142	0x3fa9a02aefdc8e70	0.05005010774609964
143	0x3ff25ae56b5cdada	1.1471914476257354
144	0x3fa2ffdb9b9abc5b	0.03710829042881222
145	0xbfeea40e40310ad7	-0.9575263265363344
146	0x3fa9a374008e84b4	0.050075173442800575
147	0x3ff25b87a66e957a	1.1473461629151118
148	0x3fa2ffdb9b9abc5b	0.03710829042881222
149	0xbfeea40e40310ad7	-0.9575263265363344
150	0x3fa9a374008e84b4	0.050075173442800575
151	0x3ff25b87a66e957a	1.1473461629151118
152	0x3fa2ffa9e19a5150	0.037106808461575214
153	0xbfeea3da689b2625	-0.9575016062819414
154	0x3fa9a591ce690cc9	0.050091320463729945
155	0x3ff25bf003c644e4	1.1474456927720036
156	0x3fa2ffa9e19a5150	0.037106808461575214
157	0xbfeea3da689b2625	-0.9575016062819414
158	0x3fa9a591ce690cc9	0.050091320463729945
159	0x3ff25bf003c644e4	1.1474456927720036
160	0x3fa2ff86aedc1514	0.03710575947301656
161	0xbfeea3b57dbfaa1e	-0.9574840026883213
162	0x3fa9a71412251631	0.05010283204550737
163	0x3ff25c3a550f2c73	1.1475165674808323
164	0x3fa2ff86aedc1514	0.03710575947301656
165	0xbfeea3b57dbfaa1e	-0.9574840026883213
166	0x3fa9a71412251631	0.05010283204550737
167	0x3ff25c3a550f2c73	1.1475165674808323
168	0x3fa2ff716b8bd08d	0.03710512578791834
169	0xbfeea39f15e50689	-0.9574733188275825
170	0x3fa9a7feb1458a0c	0.050109824313739976
171	0x3ff25c676f9cf490	1.1475595817458135
172	0x3fa2ff716b8bd08d	0.03710512578791834
173	0xbfeea39f15e50689	-0.9574733188275825
174	0x3fa9a7feb1458a0c	0.050109824313739976
175	0x3ff25c676f9cf490	1.1475595817458135
176	0x3fa2ff66ef23e548	0.037104813281937654
177	0xbfeea39403654539	-0.9574680391616887
178	0x3fa9a872b7218885	0.05011328206525526
179	0x3ff25c7db99ee1e7	1.1475808382802997
180	0x3fa2ff601a3dc4ac	0.037104609683305284
181	0xbfeea38cc9d2e8e3	-0.9574645940658936
182	0x3fa9a8be70521c9f	0.05011553879835983
183	0x3ff25c8c44cc41aa	1.1475947081963604
184	0x3fa2ff601a3dc4ac	0.037104609683305284
185	0xbfeea38cc9d2e8e3	-0.9574645940658936
186	0x3fa9a8be70521c9f	0.05011553879835983
187	0x3ff25c8c44cc41aa	1.1475947081963604
188	0x3fa2ff5aa35765bf	0.03710444682992486
189	0xbfeea386fd46658a	-0.9574618288781249
190	0x3fa9a8fb3e692f58	0.050117350929751836
191	0x3ff25c97f124047d	1.1476058406408634
192	0x3fa2ff5aa35765bf	0.03710444682992486
193	0xbfeea386fd46658a	-0.9574618288781249
194	0x3fa9a8fb3e692f58	0.050117350929751836
195	0x3ff25c97f124047d	1.1476058406408634
196	0x3fa2ff58b472afa2	0.03710438921674998
197	0xbfeea384efe03af0	-0.9574608502460631
198	0x3fa9a910c4d0c410	0.05011799242527826
199	0x3ff25c9c12bd8648	1.1476097805065297
200	0x3fa2ff58b472afa2	0.03710438921674998
201	0xbfeea384efe03af0	-0.9574608502460631
202	0x3fa9a910c4d0c410	0.05011799242527826
203	0x3ff25c9c12bd8648	1.1476097805065297
204	0x3fa2ff5665322f7b	0.037104320385963306
205	0xbfeea3827aeed18d	-0.9574596787484083
206	0x3fa9a92a8a70cbe3	0.050118760489929824
207	0x3ff25ca104ba8e22	1.1476144966808381
208	0x3fa2ff5665322f7b	0.037104320385963306
209	0xbfeea3827aeed18d	-0.9574596787484083
210	0x3fa9a92a8a70cbe3	0.050118760489929824
211	0x3ff25ca104ba8e22	1.1476144966808381
212	0x3fa2ff552f7cbb61	0.03710428433111335
213	0xbfeea3813143def0	-0.9574590646943459
214	0x3fa9a9380d9e61bb	0.05011916319125783
215	0x3ff25ca39c521366	1.1476169687532205
216	0x3fa2ff552f7cbb61	0.03710428433111335
217	0xbfeea3813143def0	-0.9574590646943459
218	0x3fa9a9380d9e61bb	0.05011916319125783
219	0x3ff25ca39c521366	1.1476169687532205
220	0x3fa2ff552f7cbb61	0.03710428433111335
221	0xbfeea3813143def0	-0.9574590646943459
222	0x3fa9a9380d9e61bb	0.05011916319125783
223	0x3ff25ca39c521366	1.1476169687532205
224	0x3fa2ff54b95040df	0.03710427057387888
225	0xbfeea380b33b0adb	-0.9574588299368217
226	0x3fa9a93d381e527b	0.05011931715049386
227	0x3ff25ca49a012e6f	1.147617913799788
228	0x3fa2ff54b95040df	0.03710427057387888
229	0xbfeea380b33b0adb	-0.9574588299368217
230	0x3fa9a93d381e527b	0.05011931715049386
231	0x3ff25ca49a012e6f	1.147617913799788
232	0x3fa2ff54f403adc2	0.03710427740756074
233	0xbfeea380f1f42105	-0.9574589467675031
234	0x3fa9a93aa5d8563e	0.05011924051738646
235	0x3ff25ca41bc123da	1.1476174434812862
236	0x3fa2ff544d506bf7	0.03710425800110067
237	0xbfeea3803fc13208	-0.9574586148460762
238	0x3fa9a941f4262355	0.05011945824941814
239	0x3ff25ca582707134	1.1476187796861952
240	0x3fa2ff544d506bf7	0.03710425800110067
241	0xbfeea3803fc13208	-0.9574586148460762
242	0x3fa9a941f4262355	0.05011945824941814
243	0x3ff25ca582707134	1.1476187796861952
244	0x3fa2ff543015751d	0.03710425459824249
245	0xbfeea3802083d1de	-0.95745855665751
246	0x3fa9a9433c0e3cc2	0.050119496422774926
247	0x3ff25ca5c151c1fe	1.147619013932967
248	0x3fa2ff543015751d	0.03710425459824249
249	0xbfeea3802083d1de	-0.95745855665751
250	0x3fa9a9433c0e3cc2	0.050119496422774926
251	0x3ff25ca5c151c1fe	1.147619013932967
252	0x3fa2ff54a215825e	0.037104267869612725
253	0xbfeea3809a4caadf	-0.9574587834989322
254	0x3fa9a93e3db9125c	0.05011934760526479
255	0x3ff25ca4cc30a175	1.1476181007547812
