ws_icra2022/src/my_pkg/ur5_eye2hand/hololens2_adaptive/log_theta_k.npy (npy, 532808 bytes, 1 tensors)

array f8 [4439, 15, 1]
-1714.0 -1582.0 -8.0 3.0 26.0 -2334.0 5.0 4.0
4.0 515.0 -548.0 0.0 378.0 -399.0 1.0 -1714.0
-1582.0 -8.0 3.0 26.0 -2334.0 5.0 4.0 4.0
515.0 -548.0 0.0 378.0 -399.0 1.0 -1714.0 -1582.0
-8.0 3.0 26.0 -2334.0 5.0 4.0 4.0 515.0
-548.0 0.0 378.0 -399.0 1.0 -1713.9999907758286 -1581.9999879728641 -8.00000946744454
3.0000025287306986 26.000003297140385 -2334.000002595422 4.988262762411583 3.9846961481170813 4.012046789014956 515.0000092241713 -547.9999879728641
-9.467444540426984e-06 378.0000025287307 -398.9999967028596 0.9999974045779534 -1713.999971348921 -1581.9999700023893 -8.00002183984022 3.0000078903278515
26.000008256779264 -2334.000006010057 4.96352537849514 3.9618133228019166 4.027801262615001 515.0000286510789 -547.9999700023894 -2.1839840220758744e-05
378.0000078903279 -398.99999174322073 0.9999939899427969 -1713.9999416986523 -1581.9999461740908 -8.000035895766352 3.0000160734520036 26.000014833108363
-2334.0000098893265 4.925770008590803 3.931471397992218 4.045699471085682 515.0000583013476 -547.999946174091 -3.589576635260331e-05 378.00001607345206
-398.99998516689163 0.9999901106731092 -1713.999903551491 -1581.999912294409 -8.000056054753612 3.0000270965044775 26.000024623024526 -2334.000015714493
4.87711762903192 3.8882617046638286 4.071409973934263 515.0000964485089 -547.9999122944091 -5.6054753612763e-05 378.00002709650454 -398.9999753769755
0.9999842855063937 -1713.9998571740998 -1581.9998716471055 -8.00008056871545 3.0000404977746755 26.000036368521247 -2334.000022798079 4.817968524390904
3.8364206773337766 4.102674753137505 515.0001428259001 -547.9998716471057 -8.056871545013898e-05 378.00004049777476 -398.9999636314788 0.9999772019206602
-1713.999813016141 -1581.99983304099 -8.000099959149647 3.0000542192696855 26.000048364855147 -2334.000028823397 4.761493341126707 3.787045944110195
4.127473868630638 515.0001869838591 -547.9998330409902 -9.995914964724243e-05 378.00005421926977 -398.9999516351449 0.9999711766026387 -1713.9997690711534
-1581.9997945495236 -8.000120352733152 3.0000678745866423 26.00006032556343 -2334.00003516043 4.705290534719517 3.7378178394544475 4.153555947427228
515.0002309288466 -547.9997945495237 -0.00012035273315101627 378.0000678745867 -398.99993967443663 0.9999648395693902 -1713.9997292583976 -1581.9997584342314
-8.000137237385317 3.0000812872711546 26.00007249259406 -2334.0000408487704 4.654187790805078 3.691461075463412 4.175228701248574 515.0002707416024
-547.9997584342316 -0.0001372373853170079 378.0000812872712 -398.999927507406 0.9999591512288579 -1713.9996883330214 -1581.9997208978505 -8.000154892798482
3.000095074790931 26.00008513838115 -2334.0000467967757 4.60165691291075 3.6432802345211157 4.197890786281979 515.0003116669785 -547.9997208978508
-0.00015489279848228377 378.000095074791 -398.99991486161895 0.9999532032234543 -1713.9996497527936 -1581.9996865758508 -8.000165832787182 3.0001090558299173
26.000097576286304 -2334.000050761304 4.551956196599555 3.5990651517748673 4.211984152386419 515.0003502472064 -547.9996865758512 -0.00016583278718251872
378.00010905582997 -398.9999024237138 0.9999492386950617 -1713.999612805428 -1581.9996530377698 -8.000178378322568 3.0001224451381368 26.00010973010817
-2334.0000553076643 4.504359003708935 3.5558599469711987 4.228145853097439 515.0003871945721 -547.9996530377704 -0.00017837832256738538 378.0001224451382
-398.999890269892 0.9999446923346772 -1713.999578364637 -1581.9996209994056 -8.00018879639333 3.000134926091922 26.000121340449642 -2334.0000590830555
4.459990888864083 3.514586742011177 4.241566861962993 515.000421635363 -547.9996209994061 -0.00018879639332825536 378.00013492609196 -398.9998786595505
0.9999409169434533 -1713.9995443157266 -1581.9995898415777 -8.000198802981837 3.0001480294756817 26.000133331229005 -2334.000062933991 4.416023913426792
3.4743529893068317 4.2544882572171545 515.0004556842734 -547.9995898415784 -0.00019880298183626793 378.0001480294757 -398.9998666687712 0.9999370660076307
-1713.9995100318072 -1581.9995587856506 -8.000207812239667 3.0001612233002213 26.00014528279297 -2334.000066401114 4.3717534738145 3.434250819591971
4.2661218105785865 515.0004899681927 -547.9995587856512 -0.00020781223966671522 378.00016122330027 -398.9998547172072 0.999933598884576 -1713.9994790141625
00000000: 0000 0000 00c8 9ac0 0000 0000 00b8 98c0
00000010: 0000 0000 0000 20c0 0000 0000 0000 0840
00000020: 0000 0000 0000 3a40 0000 0000 003c a2c0
00000030: 0000 0000 0000 1440 0000 0000 0000 1040
00000040: 0000 0000 0000 1040 0000 0000 0018 8040
00000050: 0000 0000 0020 81c0 0000 0000 0000 0000
00000060: 0000 0000 00a0 7740 0000 0000 00f0 78c0
00000070: 0000 0000 0000 f03f 0000 0000 00c8 9ac0
00000080: 0000 0000 00b8 98c0 0000 0000 0000 20c0
00000090: 0000 0000 0000 0840 0000 0000 0000 3a40
000000a0: 0000 0000 003c a2c0 0000 0000 0000 1440
000000b0: 0000 0000 0000 1040 0000 0000 0000 1040
000000c0: 0000 0000 0018 8040 0000 0000 0020 81c0
000000d0: 0000 0000 0000 0000 0000 0000 00a0 7740
000000e0: 0000 0000 00f0 78c0 0000 0000 0000 f03f
000000f0: 0000 0000 00c8 9ac0 0000 0000 00b8 98c0
00000100: 0000 0000 0000 20c0 0000 0000 0000 0840
00000110: 0000 0000 0000 3a40 0000 0000 003c a2c0
00000120: 0000 0000 0000 1440 0000 0000 0000 1040
00000130: 0000 0000 0000 1040 0000 0000 0018 8040
00000140: 0000 0000 0020 81c0 0000 0000 0000 0000
00000150: 0000 0000 00a0 7740 0000 0000 00f0 78c0
00000160: 0000 0000 0000 f03f f1f9 94fd ffc7 9ac0
00000170: 61df d8fc ffb7 98c0 b7ba ac3d 0100 20c0
00000180: 7486 6653 0100 0840 311c 5137 0000 3a40
00000190: 8116 5700 003c a2c0 44a6 5127 fbf3 1340
000001a0: c147 c55f a8e0 0f40 3c5d 53fe 550c 1040
000001b0: 1d0c d604 0018 8040 c2be b1f9 ff1f 81c0
000001c0: ead5 70ab cbda e3be 0dcd a602 00a0 7740
000001d0: 3dee 8afc ffef 78c0 fce8 978e faff ef3f
000001e0: 3642 7df8 ffc7 9ac0 f9e4 22f8 ffb7 98c0
000001f0: 8bcc d2dc 0200 20c0 c299 0523 0400 0840
00000200: cf98 868a 0000 3a40 ffa9 c900 003c a2c0
00000210: b602 9665 a6da 1340 a154 f22e cbb1 0f40
00000220: 31e0 26ef 771c 1040 937b 050f 0018 8040
00000230: f3c9 45f0 ff1f 81c0 4e0a 5864 96e6 f6be
00000240: 340b 4608 00a0 7740 7396 57f7 ffef 78c0
00000250: 1707 6065 f3ff ef3f 7976 b7f0 ffc7 9ac0
00000260: eccd e3f1 ffb7 98c0 fc48 76b4 0400 20c0
00000270: 039b 576d 0800 0840 1fb7 dbf8 0000 3a40
00000280: abd4 4b01 003c a2c0 800f 9a0d fdb3 1340
00000290: ae49 bc46 a773 0f40 af07 97d7 cb2e 1040
000002a0: 0d13 911e 0018 8040 d99b c7e3 ff1f 81c0
000002b0: 9fe1 f023 d9d1 02bf 37af da10 00a0 7740
000002c0: 8e44 72f0 ffef 78c0 f742 b542 ebff ef3f
000002d0: 3b73 b7e6 ffc7 9ac0 6b2d 02e9 ffb7 98c0
000002e0: c7aa e258 0700 20c0 f6cd d434 0e00 0840
000002f0: c715 1b9d 0100 3a40 784a 0f02 003c a2c0
00000300: a6bf ad1f 2b82 1340 1690 def3 281b 0f40
00000310: 9d9f 3ab2 1f49 1040 8819 9132 0018 8040
00000320: d85a 04d2 ff1f 81c0 6864 1dab 8a63 0dbf
00000330: 9da9 691c 00a0 7740 a44e 2ee6 ffef 78c0
00000340: c571 580b dfff ef3f b81d 8fda ffc7 9ac0
00000350: 1062 5ade ffb7 98c0 f2fe 6f8f 0a00 20c0
00000360: 3df1 843b 1500 0840 ff9b 2962 0200 3a40
00000370: 02fa fc02 003c a2c0 4daa 758a 9945 1340
00000380: 1fc6 f652 fdb0 0e40 de66 0b92 2369 1040
00000390: 8fc4 e14a 0018 8040 22c4 b4bc ff1f 81c0
000003a0: cabd e3fd df1e 15bf e409 772a 00a0 7740
000003b0: 4166 ddd9 ffef 78c0 99d5 5f30 d0ff ef3f
000003c0: c3b9 fbce ffc7 9ac0 0d92 3bd4 ffb7 98c0
000003d0: ae8e 121a 0d00 20c0 c0eb 2f6d 1c00 0840
000003e0: 9c78 6d2b 0300 3a40 1827 c703 003c a2c0
000003f0: 3e0b 11e9 c40b 1340 cb38 73be de4b 0e40
00000400: e873 8382 8882 1040 7a8c 0862 0018 8040
00000410: 1b24 77a8 ff1f 81c0 eee5 5b1d 2534 1abf
00000420: d95f da38 00a0 7740 7728 49cd ffef 78c0
00000430: 606e 8e8d c3ff ef3f a0a0 76c3 ffc7 9ac0
00000440: b173 24ca ffb7 98c0 121b 5ec6 0f00 20c0
00000450: f309 f995 2300 0840 7252 18f4 0300 3a40
00000460: cbc9 9b04 003c a2c0 d931 93ae 37d2 1240
00000470: d9e5 160a 0de7 0d40 9739 31c5 3d9d 1040
00000480: c0be 1279 0018 8040 63e7 4894 ff1f 81c0
00000490: 02fc 2236 bc8c 1fbf 15f2 2b47 00a0 7740
000004a0: da7a bec0 ffef 78c0 9f36 6343 b6ff ef3f
000004b0: b0d6 06b9 ffc7 9ac0 b2cb acc0 ffb7 98c0
000004c0: d829 ecfc 1100 20c0 995e 319e 2a00 0840
000004d0: 1952 39c0 0400 3a40 44a8 5a05 003c a2c0
000004e0: 1bcd 7b67 e39d 1240 2894 8cbe 1c88 0d40
000004f0: 93bb 1427 6fb3 1040 a052 f28d 0018 8040
00000500: 6697 5981 ff1f 81c0 4bdf d729 ecfc 21bf
00000510: be62 3c55 00a0 7740 e06a fcb3 ffef 78c0
00000520: c4a4 7b55 aaff ef3f 1462 4cae ffc7 9ac0
00000530: 95c5 d5b6 ffb7 98c0 fb01 574d 1400 20c0
00000540: 19f1 b8d8 3100 0840 0b90 6294 0500 3a40
00000550: 3e3d 2206 003c a2c0 ba74 f1bf 1868 1240
00000560: 8373 8b1b 7025 0d40 160b dde1 a3ca 1040
00000570: d73b 67a3 0018 8040 2d8b ab6d ff1f 81c0
00000580: f8e5 fa01 574d 24bf e371 b163 00a0 7740
00000590: 01d7 b9a6 ffef 78c0 7501 2cdc 9dff ef3f
000005a0: d04e 2fa4 ffc7 9ac0 1e76 d6ad ffb7 98c0
000005b0: 8ccb 6cbc 1500 20c0 91c8 392d 3900 0840
000005c0: 63f5 0e65 0600 3a40 4844 a706 003c a2c0
000005d0: e8e0 5401 3435 1240 e35e 98ab e2ca 0c40
000005e0: 6e14 a75f 12d9 1040 6062 a1b7 0018 8040
000005f0: 40ec ac5b ff1f 81c0 1120 8ccb 6cbc 25bf
00000600: 9273 5a72 00a0 7740 ac10 af99 ffef 78c0
00000610: 565f bb8b 95ff ef3f e7cf 7f9a ffc7 9ac0
00000620: 46c2 0ba5 ffb7 98c0 9d1f 6261 1700 20c0
00000630: 2be9 4e32 4000 0840 da39 f730 0700 3a40
00000640: 38d1 3f07 003c a2c0 f97d c9af 7604 1240
00000650: 452e 2bb3 6672 0c40 0a16 0711 9fe9 1040
00000660: 3260 00cb 0018 8040 9184 174a ff1f 81c0
00000670: 6eae 9c1f 6261 27bf d39d 6480 00a0 7740
00000680: 658c f08c ffef 78c0 eb5b ec02 8cff ef3f
00000690: 9f87 7891 ffc7 9ac0 5eb3 a59c ffb7 98c0
000006a0: 7fab f4be 1800 20c0 ab37 79bd 4600 0840
000006b0: 4d43 c1f3 0700 3a40 957f be07 003c a2c0
000006c0: 4f84 00da 07d7 1140 4325 5fa7 df1d 0c40
000006d0: afb6 af4d 5df7 1040 c2f0 0edd 0018 8040
000006e0: c166 4b39 ff1f 81c0 c840 7eab f4be 28bf
000006f0: 70f2 7a8d 00a0 7740 ceeb c380 ffef 78c0
00000700: 518a 0618 84ff ef3f cb8b 8b88 ffc7 9ac0
00000710: f6bb 7a94 ffb7 98c0 559c b80e 1a00 20c0
00000720: 200e 2e9c 4d00 0840 a344 edbc 0800 3a40
00000730: deb6 3f08 003c a2c0 8916 3a2c 02aa 1140
00000740: 54a9 7e94 79cb 0b40 d8da d791 9804 1140
00000750: 6ae8 e8ee 0018 8040 f277 f528 ff1f 81c0
00000760: b6be 549c b80e 2abf 1d5c 389b 00a0 7740
00000770: b92b 3174 ffef 78c0 71f3 9104 7cff ef3f
00000780: 8bca 8e7f ffc7 9ac0 329b 568c ffb7 98c0
00000790: d18b 053d 1b00 20c0 186a 0687 5400 0840
000007a0: 30d8 7085 0900 3a40 3a0d b408 003c a2c0
000007b0: a7d4 50f1 ac7c 1140 0b45 637e 5879 0b40
000007c0: d5bf 643c 8210 1140 e96a e200 0118 8040
000007d0: 6936 ad18 ff1f 81c0 80c1 d08b 053d 2bbf
000007e0: d50c 0ea9 00a0 7740 80f2 a867 ffef 78c0
000007f0: cf2f 2cbf 74ff ef3f 773b 6d77 ffc7 9ac0
