ws_icra2022/src/my_pkg/ur5_eye2hand/hololens2_adaptive/log_theta_z.npy (npy, 167360 bytes, 1 tensors)

array f8 [1608, 13, 1]
00000000: 0000 0000 0000 0000 0000 0000 0000 0000
00000010: 0000 0000 0000 0000 0000 0000 0000 0000
00000020: 0000 0000 0000 0000 0000 0000 0000 0000
00000030: 0000 0000 0000 0000 0000 0000 0000 0000
00000040: 0000 0000 0000 0000 0a54 6ebe ebb5 e53f
00000050: 330a d50f e281 e7bf 3414 5c17 866c 7dbf
00000060: 9f11 3a22 be77 f93f 0000 0000 0000 0000
00000070: 0000 0000 0000 0000 0000 0000 0000 0000
00000080: 0000 0000 0000 0000 0000 0000 0000 0000
00000090: 0000 0000 0000 0000 0000 0000 0000 0000
000000a0: 0000 0000 0000 0000 0000 0000 0000 0000
000000b0: 0a54 6ebe ebb5 e53f 330a d50f e281 e7bf
000000c0: 3414 5c17 866c 7dbf 9f11 3a22 be77 f93f
000000d0: f035 3e5f 749f c43e d7c5 7865 b66a ac3e
000000e0: ff3f 5373 d641 c13e 1c43 1287 4d88 a5be
000000f0: 2fd5 7d75 925c c6be a011 e32c ec46 bf3e
00000100: 5a3b e5a4 78de c1be ad27 4a84 03df bd3e
00000110: 4d2d 92f1 3f69 be3e abf2 10bb efb5 e53f
00000120: 83f3 a25f 1682 e7bf bf5b c169 e87a 7dbf
00000130: 8cb0 67d5 5577 f93f f035 3e5f 749f c43e
00000140: d7c5 7865 b66a ac3e ff3f 5373 d641 c13e
00000150: 1c43 1287 4d88 a5be 2fd5 7d75 925c c6be
00000160: a011 e32c ec46 bf3e 5a3b e5a4 78de c1be
00000170: ad27 4a84 03df bd3e 4d2d 92f1 3f69 be3e
00000180: abf2 10bb efb5 e53f 83f3 a25f 1682 e7bf
00000190: bf5b c169 e87a 7dbf 8cb0 67d5 5577 f93f
000001a0: d0e9 5799 744d a7be fc66 f84d ae26 8fbe
000001b0: e00e a83c b47b a3be 84e8 78aa db2b 883e
000001c0: f81e 26b9 6464 a93e 240a 8b9b e460 a1be
000001d0: 645a 6644 9517 a43e aeb0 6922 84ab a0be
000001e0: 36d0 905a 915e a1be 3075 b3a1 eab5 e53f
000001f0: a894 1356 d381 e7bf 0aa3 ef18 6868 7dbf
00000200: dc3c b987 db77 f93f d0e9 5799 744d a7be
00000210: fc66 f84d ae26 8fbe e00e a83c b47b a3be
00000220: 84e8 78aa db2b 883e f81e 26b9 6464 a93e
00000230: 240a 8b9b e460 a1be 645a 6644 9517 a43e
00000240: aeb0 6922 84ab a0be 36d0 905a 915e a1be
00000250: 3075 b3a1 eab5 e53f a894 1356 d381 e7bf
00000260: 0aa3 ef18 6868 7dbf dc3c b987 db77 f93f
00000270: 69d0 b6da 6bbf 20bf 00dd c862 46b8 05bf
00000280: a89b 2586 18fb 1bbf 2d86 80ad d04a 013f
00000290: 647c 5d63 7854 223f 117d 0531 1e94 18bf
000002a0: 225a 8d15 fcbd 1c3f d31c b697 10af 17bf
000002b0: 5308 4364 f236 19bf 42ff 1f5c 23b5 e53f
000002c0: ac38 a81c 5777 e7bf 951a e2f8 df6c 7abf
000002d0: 068b 5937 d38c f93f a82f fc95 cbc1 3ebf
000002e0: a6d7 711d 576e 23bf b340 ac02 15ac 39bf
000002f0: e424 2e5a 55a1 1f3f 1238 d958 7fe4 403f
00000300: cff6 0404 5042 36bf 0e63 d382 2a49 3a3f
00000310: a4ae 0c94 0388 35bf 6abb a5aa ce57 37bf
00000320: a61c 402f 17b3 e53f f16a 3f49 475b e7bf
00000330: 420b d40e 8749 72bf 5ae8 92f3 09c5 f93f
00000340: a82f fc95 cbc1 3ebf a6d7 711d 576e 23bf
00000350: b340 ac02 15ac 39bf e424 2e5a 55a1 1f3f
00000360: 1238 d958 7fe4 403f cff6 0404 5042 36bf
00000370: 0e63 d382 2a49 3a3f a4ae 0c94 0388 35bf
00000380: 6abb a5aa ce57 37bf a61c 402f 17b3 e53f
00000390: f16a 3f49 475b e7bf 420b d40e 8749 72bf
000003a0: 5ae8 92f3 09c5 f93f a6db ed70 0247 4abf
000003b0: 9c96 c92b 230b 30bf b8a3 1b7b dfe7 45bf
000003c0: a46f 298a 11ee 2a3f b2eb 4b0c 10fc 4c3f
000003d0: 2cc6 2e69 e1af 42bf 1195 7fc3 8156 463f
000003e0: ca19 ec2f 8e2b 42bf ce01 6ec1 4e23 44bf
000003f0: c36d 4e7e 32b1 e53f 9e35 873f 2940 e7bf
00000400: 29e1 2ccd 4546 64bf 792c 2493 84fb f93f
00000410: a6db ed70 0247 4abf 9c96 c92b 230b 30bf
00000420: b8a3 1b7b dfe7 45bf a46f 298a 11ee 2a3f
00000430: b2eb 4b0c 10fc 4c3f 2cc6 2e69 e1af 42bf
00000440: 1195 7fc3 8156 463f ca19 ec2f 8e2b 42bf
00000450: ce01 6ec1 4e23 44bf c36d 4e7e 32b1 e53f
00000460: 9e35 873f 2940 e7bf 29e1 2ccd 4546 64bf
00000470: 792c 2493 84fb f93f 44bb b320 2098 50bf
00000480: 42cb cafd 8fc0 33bf dcc4 8e7c afa3 4bbf
00000490: f33b d29d 35f9 303f faf8 9695 245b 523f
000004a0: 6137 bbb8 fa4c 47bf d9fb 4277 5c1a 4c3f
000004b0: 269f 6110 97be 46bf c248 651f 839b 49bf
000004c0: 22f1 986e 0fb0 e53f de73 7dbd 152f e7bf
000004d0: ec4b 0224 3154 53bf ca69 e020 e71d fa3f
000004e0: 0213 9f33 d1b9 52bf b2ab 7dcc dcf7 35bf
000004f0: ce4b 1c41 fa2b 4fbf cd2d 6a65 1722 333f
00000500: a4f3 48a5 1cbf 543f 78a9 a90d 871a 4abf
00000510: 0bda b50e e2a4 4f3f 66fd 78b5 5189 49bf
00000520: 005d 18a5 6501 4dbf 120b 506c 5faf e53f
00000530: 2dcf 190c 9424 e7bf 34c4 e227 b568 38bf
00000540: ced5 b48e 1333 fa3f 0213 9f33 d1b9 52bf
00000550: b2ab 7dcc dcf7 35bf ce4b 1c41 fa2b 4fbf
00000560: cd2d 6a65 1722 333f a4f3 48a5 1cbf 543f
00000570: 78a9 a90d 871a 4abf 0bda b50e e2a4 4f3f
00000580: 66fd 78b5 5189 49bf 005d 18a5 6501 4dbf
00000590: 120b 506c 5faf e53f 2dcf 190c 9424 e7bf
000005a0: 34c4 e227 b568 38bf ced5 b48e 1333 fa3f
000005b0: c1ac fc04 eceb 53bf 3d33 4162 2028 37bf
000005c0: 8297 3279 2493 50bf d15b 64c5 8757 343f
000005d0: 02f9 435a b517 563f 6d62 e17e b1a4 4bbf
000005e0: 662c 4def 33cf 503f a38c 7ea7 7d14 4bbf
000005f0: ce43 e049 ebed 4ebf d86a dd5f ffae e53f
00000600: 404d d0e2 b31e e7bf acad 0082 76b7 163f
00000610: 62a8 72de ec3e fa3f c1ac fc04 eceb 53bf
00000620: 3d33 4162 2028 37bf 8297 3279 2493 50bf
00000630: d15b 64c5 8757 343f 02f9 435a b517 563f
00000640: 6d62 e17e b1a4 4bbf 662c 4def 33cf 503f
00000650: a38c 7ea7 7d14 4bbf ce43 e049 ebed 4ebf
00000660: d86a dd5f ffae e53f 404d d0e2 b31e e7bf
00000670: acad 0082 76b7 163f 62a8 72de ec3e fa3f
00000680: 84a1 a2a2 3e5e 54bf 71e4 054b d195 37bf
00000690: 1d38 154b 8cf1 50bf 5df7 0f1f 29cb 343f
000006a0: 6a32 1218 b998 563f a8da f86b a835 4cbf
000006b0: 508d 9815 2a2d 513f 33ab 09d2 9aa6 4bbf
000006c0: f5a8 cdd3 0ba7 4fbf 600a 1d78 dcae e53f
000006d0: b5fb 6865 831c e7bf 20f4 143f 8406 313f
000006e0: 22e9 cdb4 5743 fa3f ea5d 5590 599d 54bf
000006f0: 41b8 7737 65d1 37bf 67f4 6521 a025 51bf
00000700: b2de bd59 130b 353f 2618 3fd9 00e0 563f
00000710: 1754 04db 2785 4cbf 211a 5363 eb60 513f
00000720: 359a 2ab8 f0f6 4bbf e7e9 95d9 bf06 50bf
00000730: a823 e47e c9ae e53f 3419 2f3d 4e1b e7bf
00000740: bc6d 0128 a650 373f 51d3 cd6e c745 fa3f
00000750: ea5d 5590 599d 54bf 41b8 7737 65d1 37bf
00000760: 67f4 6521 a025 51bf b2de bd59 130b 353f
00000770: 2618 3fd9 00e0 563f 1754 04db 2785 4cbf
00000780: 211a 5363 eb60 513f 359a 2ab8 f0f6 4bbf
00000790: e7e9 95d9 bf06 50bf a823 e47e c9ae e53f
000007a0: 3419 2f3d 4e1b e7bf bc6d 0128 a650 373f
000007b0: 51d3 cd6e c745 fa3f 03d2 941c 88b4 54bf
000007c0: f018 dd83 fbe6 37bf 76f8 7189 be38 51bf
000007d0: ee2a af8a 8f22 353f 44d9 aa00 36fa 563f
000007e0: e92f 0b77 30a2 4cbf d8eb bbdd e573 513f
000007f0: f884 d206 5714 4cbf 922a d995 9c19 50bf
0.0 0.0 0.0 0.0 0.0 0.0 0.0 0.0
0.0 0.678457138 -0.734604865 -0.00718357448 1.59173406 0.0 0.0 0.0
0.0 0.0 0.0 0.0 0.0 0.0 0.678457138 -0.734604865
-0.00718357448 1.59173406 2.4584376152106594e-06 8.468879952370557e-07 2.0572159892054405e-06 -6.417165093909754e-07 -2.6657116158299784e-06 1.8642569333131138e-06
-2.1301541785265732e-06 1.780459130492559e-06 1.8126447172441961e-06 0.6784590390812658 -0.7346298091793958 -0.007197292197893056 1.591634591687611 2.4584376152106594e-06
8.468879952370557e-07 2.0572159892054405e-06 -6.417165093909754e-07 -2.6657116158299784e-06 1.8642569333131138e-06 -2.1301541785265732e-06 1.780459130492559e-06 1.8126447172441961e-06
0.6784590390812658 -0.7346298091793958 -0.007197292197893056 1.591634591687611 -6.944704177829867e-07 -2.3209376019753654e-07 -5.806451722216312e-07 1.8009037215818054e-07
7.567453955006976e-07 -5.179193101822994e-07 5.987918790136901e-07 -4.968042660153532e-07 -5.176486200853906e-07 0.6784566076491156 -0.734597843282832 -0.007179648046965035
1.591762094660047 -6.944704177829867e-07 -2.3209376019753654e-07 -5.806451722216312e-07 1.8009037215818054e-07 7.567453955006976e-07 -5.179193101822994e-07 5.987918790136901e-07
-4.968042660153532e-07 -5.176486200853906e-07 0.6784566076491156 -0.734597843282832 -0.007179648046965035 1.591762094660047 -0.00012777511197515086 -4.142727661753977e-05
-0.00010673844511686784 3.2982343043618966e-05 0.0001398465116677377 -9.375986360770176e-05 0.00010964251613408045 -9.034670613604642e-05 -9.618620339593821e-05 0.6783615874592004
-0.7333179053982994 -0.006451487437635924 1.5968811189747512 -0.0004693147693479679 -0.0001482468930792933 -0.00039172661733833796 0.0001206596703423771 0.0005155202686155677
-0.0003396458960372829 0.00040108955256594545 -0.00032854163514415614 -0.00035618587084844963 0.6781116412029362 -0.7298923903102531 -0.004464652605068066 1.6106051935771775
-0.0004693147693479679 -0.0001482468930792933 -0.00039172661733833796 0.0001206596703423771 0.0005155202686155677 -0.0003396458960372829 0.00040108955256594545 -0.00032854163514415614
-0.00035618587084844963 0.6781116412029362 -0.7298923903102531 -0.004464652605068066 1.6106051935771775 -0.000801922027547576 -0.00024480446498951493 -0.0006685105529103874
0.00020545925242998226 0.0008845404014147156 -0.0005702829970372684 0.0006816991435668903 -0.0005545086167735799 -0.0006145605610612893 0.6778805224343433 -0.7265821686539089
-0.0024749148664363796 1.6239057300288364 -0.000801922027547576 -0.00024480446498951493 -0.0006685105529103874 0.00020545925242998226 0.0008845404014147156 -0.0005702829970372684
0.0006816991435668903 -0.0005545086167735799 -0.0006145605610612893 0.6778805224343433 -0.7265821686539089 -0.0024749148664363796 1.6239057300288364 -0.0010128320453152853
-0.000301394609589046 -0.0008434874408661769 0.00025899466511075593 0.0011203629750152198 -0.0007110809542269886 0.00085763468680244 -0.0006941068284165061 -0.0007814779517423475
0.6777417335611384 -0.7244976712205433 -0.0011797408952005607 1.6323004993670218 -0.001142935083849384 -0.00033520832629701646 -0.0009512874550828777 0.00029194899745085546
0.0012662677519436972 -0.00079661936190449 0.0009657005115702456 -0.0007793091744544955 -0.000885176307010932 0.6776578059655967 -0.7232151256889431 -0.0003724519991790715
1.6374698233097322 -0.001142935083849384 -0.00033520832629701646 -0.0009512874550828777 0.00029194899745085546 0.0012662677519436972 -0.00079661936190449 0.0009657005115702456
-0.0007793091744544955 -0.000885176307010932 0.6776578059655967 -0.7232151256889431 -0.0003724519991790715 1.6374698233097322 -0.0012159161451091168 -0.0003533438741712308
-0.0010116439996550046 0.0003103929970093541 0.001348425962589384 -0.0008436075857032995 0.0010259635138989641 -0.0008264173074973468 -0.0009438895101557766 0.6776120064126543
-0.7224978856997168 8.665715040539226e-05 1.640362614571608 -0.0012159161451091168 -0.0003533438741712308 -0.0010116439996550046 0.0003103929970093541 0.001348425962589384
-0.0008436075857032995 0.0010259635138989641 -0.0008264173074973468 -0.0009438895101557766 0.6776120064126543 -0.7224978856997168 8.665715040539226e-05 1.640362614571608
-0.0012431728050988642 -0.0003598819703465933 -0.0010341520358738761 0.0003172850984468534 0.0013791854437698267 -0.0008608887073425402 0.0010483656864231534 -0.0008438354453351504
-0.0009659583807722071 0.6775953622785202 -0.7222306233087382 0.00025978783294872305 1.6414410650891758 -0.0012582182547101702 -0.00036343308553810424 -0.0010465682767908603
0.0003210947268068406 0.0013961799895567755 -0.000870365582189894 0.001060705061989638 -0.0008534121883102044 -0.0009781716856581636 0.6775863149970194 -0.7220832056998803
0.00035575920629124145 1.6420358970910522 -0.0012582182547101702 -0.00036343308553810424 -0.0010465682767908603 0.0003210947268068406 0.0013961799895567755 -0.000870365582189894
0.001060705061989638 -0.0008534121883102044 -0.0009781716856581636 0.6775863149970194 -0.7220832056998803 0.00035575920629124145 1.6420358970910522 -0.0012637452330867
-0.0003647197771566987 -0.00105112654799158 0.0003224945491494953 0.0014024283761223258 -0.0008738266606882458 0.0010652298723801048 -0.0008569168982327782 -0.00098266879594414
