ws_icra2022/src/my_pkg/ur5_eye2hand/hololens2_adaptive/log_theta_k.npy (npy, 193568 bytes, 1 tensors)

array f8 [1612, 15, 1]
00000000: 5242 5571 36aa 9ec0 b7bd b9d7 be02 9cc0
00000010: 4bb1 508b 1f5f 2cc0 6af1 0894 d51f f3bf
00000020: b547 827b a1e9 3640 11aa b8a7 c018 9fc0
00000030: dce9 1747 48f1 e33f 57ad 8c68 6723 ecbf
00000040: 6b24 c11b f0d5 7cbf 3eaf 3e93 f9d2 7d40
00000050: 089b 5e30 9b23 82c0 3e26 7ea9 6d58 19c0
00000060: a01f a6dc 8e47 7a40 2037 e5f1 bb1a 7bc0
00000070: a7d4 d756 c98b 0cc0 214b 5571 36aa 9ec0
00000080: abbe b9d7 be02 9cc0 1210 4e8b 1f5f 2cc0
00000090: 4cb3 b794 d51f f3bf 6119 817b a1e9 3640
000000a0: fb8f b8a7 c018 9fc0 89e0 8424 4ef1 e33f
000000b0: 7182 35c6 6623 ecbf c316 fe58 b0d7 7cbf
000000c0: 028c 3e93 f9d2 7d40 f09c 5e30 9b23 82c0
000000d0: cde3 78a9 6d58 19c0 de70 a5dc 8e47 7a40
000000e0: 054a e5f1 bb1a 7bc0 7fa8 a356 c98b 0cc0
000000f0: e753 5571 36aa 9ec0 9ebf b9d7 be02 9cc0
00000100: 8d71 4b8b 1f5f 2cc0 d071 6695 d51f f3bf
00000110: deea 7f7b a1e9 3640 e575 b8a7 c018 9fc0
00000120: 1237 d300 54f1 e33f 1428 e123 6623 ecbf
00000130: bb39 4f42 70d9 7cbf ea68 3e93 f9d2 7d40
00000140: d69e 5e30 9b23 82c0 c2a6 73a9 6d58 19c0
00000150: 1fc2 a4dc 8e47 7a40 ed5c e5f1 bb1a 7bc0
00000160: 287d 6f56 c98b 0cc0 ad5c 5571 36aa 9ec0
00000170: 91c0 b9d7 be02 9cc0 0dd3 488b 1f5f 2cc0
00000180: 2b2f 1596 d51f f3bf 6cbc 7e7b a1e9 3640
00000190: d05b b8a7 c018 9fc0 6a9a 17dd 59f1 e33f
000001a0: d87c 9581 6523 ecbf df9e 4828 30db 7cbf
000001b0: d245 3e93 f9d2 7d40 bca0 5e30 9b23 82c0
000001c0: c169 6ea9 6d58 19c0 6213 a4dc 8e47 7a40
000001d0: d46f e5f1 bb1a 7bc0 3452 3b56 c98b 0cc0
000001e0: 394a 2271 36aa 9ec0 72da c4d7 be02 9cc0
000001f0: 6847 b04e 1f5f 2cc0 4e5c 4d9d d11f f3bf
00000200: 0899 ae6d a1e9 3640 392a 5da5 c018 9fc0
00000210: 6761 4d75 43cf e33f a674 68b9 fc1b ecbf
00000220: 256c 6be4 3753 91bf a18f 0a94 f9d2 7d40
00000230: 7ed4 7430 9b23 82c0 7852 3d30 6d58 19c0
00000240: 35db 9ce0 8e47 7a40 0a72 c2f2 bb1a 7bc0
00000250: 5a23 d89f c48b 0cc0 943d e070 36aa 9ec0
00000260: ce7f d3d7 be02 9cc0 effb 31e0 1e5f 2cc0
00000270: 2192 577a cc1f f3bf be48 755b a1e9 3640
00000280: 0646 11a1 c018 9fc0 798e c9f5 2da3 e33f
00000290: c1bf e340 3612 ecbf 31e1 f06a 88e1 a1bf
000002a0: 37c2 1295 f9d2 7d40 361f 9230 9b23 82c0
000002b0: 87bb 4053 6c58 19c0 ffd0 bfe5 8e47 7a40
000002c0: 0f07 e6f3 bb1a 7bc0 57be 0f08 bc8b 0cc0
000002d0: 9e2f 6370 36aa 9ec0 a1a9 ecd7 be02 9cc0
000002e0: 0024 d84c 1e5f 2cc0 934e bb84 c21f f3bf
000002f0: efcb 643b a1e9 3640 c32d 339b c018 9fc0
00000300: 2fcc 6e7a 0a4f e33f 1361 d318 4801 ecbf
00000310: 689a 9f11 0346 aebf 0efa 0697 f9d2 7d40
00000320: db72 c430 9b23 82c0 a90b 8d2c 6b58 19c0
00000330: 436d b5ef 8e47 7a40 dc0e e7f5 bb1a 7bc0
00000340: 2039 df4b b08b 0cc0 d412 d06f 36aa 9ec0
00000350: 34d8 0dd8 be02 9cc0 6645 2097 1d5f 2cc0
00000360: 1c98 67cd b61f f3bf fb97 1c11 a1e9 3640
00000370: 79be f693 c018 9fc0 2e77 8ab9 0fec e23f
00000380: f7a3 9dd1 f4ea ebbf aa36 9700 36c7 b6bf
00000390: 346d 5399 f9d2 7d40 00d0 0631 9b23 82c0
000003a0: 754e 1dc1 6958 19c0 f9c0 6cfb 8e47 7a40
000003b0: 1b92 8bf8 bb1a 7bc0 92a5 00d3 a18b 0cc0
000003c0: 39e2 616f 36aa 9ec0 2926 20d8 be02 9cc0
000003d0: b93b 3318 1d5f 2cc0 0456 517e ac1f f3bf
000003e0: 0932 b6f5 a0e9 3640 85c8 068e c018 9fc0
000003f0: c4b3 9a2f 5e9b e23f 3f57 bc3a 8ddd ebbf
00000400: c67a ac5a 6796 bcbf a22f 0c9b f9d2 7d40
00000410: ea6b 2b31 9b23 82c0 1b3b 43c3 6858 19c0
00000420: 3bd7 bb05 8f47 7a40 7af8 41fa bb1a 7bc0
00000430: 9cbc 14f3 958b 0cc0 24be f26e 36aa 9ec0
00000440: d097 31d8 be02 9cc0 02de 0b9e 1c5f 2cc0
00000450: 77ca 7318 a21f f3bf 7e92 99db a0e9 3640
00000460: 4df8 4f88 c018 9fc0 4769 1459 fa49 e23f
00000470: 34ca 0cf9 c6d0 ebbf cd75 652e d716 c1bf
00000480: f5bf c89c f9d2 7d40 384f 4e31 9b23 82c0
00000490: ad7f f4ce 6758 19c0 c7b4 2110 8f47 7a40
000004a0: 73c2 e3fb bb1a 7bc0 764d 7485 8a8b 0cc0
000004b0: b08c c36e 36aa 9ec0 0cd9 37d8 be02 9cc0
000004c0: 2a49 3f70 1c5f 2cc0 f49e 9d4a 991f f3bf
000004d0: 331f eec8 a0e9 3640 e956 0a84 c018 9fc0
000004e0: 23b8 d5d2 e10e e23f 3ced 15e4 f1c8 ebbf
000004f0: b8cc d357 a4e1 c2bf c685 859d f9d2 7d40
00000500: b0d1 5a31 9b23 82c0 fd55 5b73 6758 19c0
00000510: f38a ef18 8f47 7a40 a879 0efd bb1a 7bc0
00000520: 4185 31fa 818b 0cc0 73d7 b06e 36aa 9ec0
00000530: 83ff 2ad8 be02 9cc0 e446 0d58 1c5f 2cc0
00000540: cda7 2acd 951f f3bf 81e8 48ef a0e9 3640
00000550: 2b95 c881 c018 9fc0 7733 d5af 74f7 e13f
00000560: f5ef 1315 09d9 ebbf d5c3 ddf8 05d4 c3bf
00000570: bb5a d09d f9d2 7d40 9e1e 4131 9b23 82c0
00000580: 7051 f742 6758 19c0 eafd 6c1c 8f47 7a40
00000590: 13cd a8fa bb1a 7bc0 2f0a ae76 7d8b 0cc0
000005a0: 2891 986e 36aa 9ec0 c989 27d8 be02 9cc0
000005b0: 563e 5f36 1c5f 2cc0 ad7b de45 911f f3bf
000005c0: b8ad 9cf9 a0e9 3640 0559 a47e c018 9fc0
000005d0: 0435 8315 0fd9 e13f ea48 6033 5edd ebbf
000005e0: 0501 29c9 6a25 c5bf e673 319e f9d2 7d40
000005f0: 2933 3a31 9b23 82c0 5440 9bff 6658 19c0
00000600: 164a f420 8f47 7a40 c090 03fa bb1a 7bc0
00000610: ebbe 352e 778b 0cc0 23af 9e6e 36aa 9ec0
00000620: 3b09 29d8 be02 9cc0 bfa8 a940 1c5f 2cc0
00000630: 8cf7 d29c 8e1f f3bf e0d4 0804 a1e9 3640
00000640: 967e 677c c018 9fc0 0449 f06e 3fca e13f
00000650: 165c 399e fee0 ebbf bbc0 fca5 bfec c5bf
00000660: f9fb 189e f9d2 7d40 0c32 3d31 9b23 82c0
00000670: 2715 3014 6758 19c0 9a55 9d23 8f47 7a40
00000680: 4ece 5cf9 bb1a 7bc0 05e1 80b4 728b 0cc0
00000690: 5c5f a46e 36aa 9ec0 f5d8 2ad8 be02 9cc0
000006a0: 7bee 594a 1c5f 2cc0 1c8d 8323 8c1f f3bf
000006b0: 1aa1 a310 a1e9 3640 df28 4c7a c018 9fc0
000006c0: 86fe 908a 79bc e13f 7ad8 446c 61e5 ebbf
000006d0: 5283 00be 6aa8 c6bf 163b 029e f9d2 7d40
000006e0: 80d1 4031 9b23 82c0 9ea0 9027 6758 19c0
000006f0: 04a5 1626 8f47 7a40 8a21 93f8 bb1a 7bc0
00000700: d372 d57d 6e8b 0cc0 85c8 ac6e 36aa 9ec0
00000710: 0411 29d8 be02 9cc0 9646 3f6b 1c5f 2cc0
00000720: fae0 dc10 8b1f f3bf c816 010d a1e9 3640
00000730: cd0e 3378 c018 9fc0 f5ae 43e5 41b7 e13f
00000740: 3fa3 d597 46e4 ebbf 3b9b b51c aa4b c7bf
00000750: 7396 e09d f9d2 7d40 9d41 3d31 9b23 82c0
00000760: d450 5b69 6758 19c0 b04b 2927 8f47 7a40
00000770: 2f4a cdf8 bb1a 7bc0 ed4e a14b 6a8b 0cc0
00000780: 54ca b06e 36aa 9ec0 b001 27d8 be02 9cc0
00000790: 5e18 ed91 1c5f 2cc0 d3c8 7fbc 8a1f f3bf
000007a0: b933 4b0a a1e9 3640 aae3 9b76 c018 9fc0
000007b0: 41d5 4104 deb5 e13f 131f 71a6 8fe3 ebbf
000007c0: 943e 42a7 03b7 c7bf 378f d09d f9d2 7d40
000007d0: f622 3931 9b23 82c0 64f4 b6b6 6758 19c0
000007e0: c8a8 7d27 8f47 7a40 60a8 f8f8 bb1a 7bc0
000007f0: 3408 4b1d 678b 0cc0 f4a3 b46e 36aa 9ec0
-1962.55316670625 -1792.6863698026698 -14.18578753814713 -1.1952720434774968 22.91262027674357 -1990.1881398061562 0.6232034100096899 -0.8793217699034511
-0.0070399646029467395 477.1859314392676 -580.450775851351 -6.336355827641055 420.472378395958 -433.6708849862789 -3.568255117856626 -1962.5531667067628
-1792.6863698027253 -14.185787537840984 -1.195272046020551 22.912620276468605 -1990.1881398046378 0.6232062066328733 -0.8793214675207094 -0.007041634424131696
477.1859314387549 -580.4507758514064 -6.33635582733491 420.47237839341494 -433.67088498655386 -3.568255116338207 -1962.5531667072735 -1792.6863698027805
-14.185787537536067 -1.1952720485634138 22.912620276193472 -1990.1881398031194 0.6232090011705813 -0.8793211651584465 -0.007043303024103438 477.1859314382442
-580.4507758514617 -6.336355827029992 420.47237839087205 -433.670884986829 -3.5682551148198804 -1962.5531667077842 -1792.6863698028358 -14.185787537231159
-1.1952720511062107 22.9126202759184 -1990.1881398016012 0.6232117956358938 -0.8793208628593687 -0.007044971575431907 477.18593143773353 -580.4507758515169
-6.336355826725083 420.4723783883293 -433.67088498710405 -3.568255113301598 -1962.5531659467508 -1792.686369968255 -14.185785731333183 -1.1952682633034502
22.912619452597056 -1990.1881308133145 0.6190507212695991 -0.8784164067507347 -0.01691901523268426 477.1859321987668 -580.4507760169361 -6.336354020827109
420.47238217613204 -433.6708858104254 -3.5682461250147925 -1962.5531649625382 -1792.6863701864963 -14.18578243837507 -1.1952633646952864 22.91261836636908
-1990.1881144236554 0.6136693764241975 -0.8772231356979249 -0.034923804334939475 477.18593318297957 -580.4507762351775 -6.336350727868996 420.4723870747402
-433.67088689665337 -3.56822973535581 -1962.5531630990804 -1792.6863705614599 -14.18577804697452 -1.1952538666563768 22.912616455181645 -1990.188092040699
0.6033985511079488 -0.8751564488293603 -0.059127899075794244 477.1859350464373 -580.4507766101409 -6.336346336468446 420.47239657277913 -433.6708888078408
-3.5682073523995683 -1962.553160906934 -1792.6863710559091 -14.185772631348936 -1.1952426932925908 22.912613934975507 -1990.1880644372707 0.5913160919041951
-0.8724311918314233 -0.08897721781178328 477.1859372385836 -580.4507771045901 -6.336340920842862 420.4724077461429 -433.67089132804693 -3.568179748971212
-1962.553159264977 -1792.6863713286677 -14.185768848661484 -1.195232861927594 22.912612301808654 -1990.1880417880905 0.5814658098002998 -0.870794882505585
-0.11166997874941406 477.1859388805407 -580.4507773773487 -6.33633713815541 420.4724175775079 -433.6708929612138 -3.568157099790893 -1962.5531576088479
-1792.686371588603 -14.185765208195338 -1.195222945706204 22.912610745423528 -1990.1880199904729 0.5715305080259804 -0.8692355026490248 -0.1335095383209776
477.18594053666976 -580.4507776372839 -6.336333497689265 420.4724274937293 -433.6708945175989 -3.568135302173398 -1962.5531569056147 -1792.686371681807
-14.185763843274419 -1.1952145495105784 22.912609632621024 -1990.1880036941095 0.5643166654460895 -0.8682794050977587 -0.1475110462994047 477.18594123990295
-580.450777730488 -6.336332132768345 420.47243588992495 -433.67089563040145 -3.568119005810019 -1962.5531566268444 -1792.6863714903309 -14.185763122196882
-1.1952112211533745 22.91261191873537 -1990.1879950848622 0.5614570078119944 -0.8702435886075351 -0.15490793849633513 477.18594151867336 -580.4507775390118
-6.336331411690807 420.47243921828215 -433.6708933442871 -3.5681103965628362 -1962.553156265125 -1792.6863714387748 -14.185762118460087 -1.1952069024334648
22.912612534286126 -1990.1879831008275 0.5577464504400784 -0.870772457450838 -0.16520438024782194 477.18594188039276 -580.4507774874556 -6.336330407954012
420.47244353700205 -433.67089272873636 -3.56809841252822 -1962.553156356277 -1792.6863714610943 -14.185762425146434 -1.1952043653431899 22.912613155513895
-1990.1879745646488 0.5559384505052383 -0.871215161353464 -0.17128749470567137 477.18594178924064 -580.450777509775 -6.3363307146403605 420.4724460740923
-433.6708921075086 -3.56808987634952 -1962.5531564410403 -1792.6863714880867 -14.185762713888144 -1.1952020060787794 22.912613906811295 -1990.1879665279337
0.5542571741461451 -0.8717505564334396 -0.17701467778627006 477.1859417044774 -580.4507775367674 -6.336331003382069 420.4724484333567 -433.6708913562112
-3.568081839634354 -1962.5531565663707 -1792.6863714615474 -14.185763694261635 -1.195200982923835 22.912613690152995 -1990.1879585244926 0.5536202886409841
-0.8716156926649105 -0.18199659730745474 477.185941579147 -580.450777510228 -6.33633198375556 420.47244945651164 -433.6708915728695 -3.5680738361933124
-1962.5531566260806 -1792.686371430853 -14.185764846985133 -1.195200668644749 22.91261352859485 -1990.1879524572091 0.5534505923412 -0.8715284586732842
-0.18527265231067658 477.1859415194371 -580.4507774795336 -6.336333136479059 420.4724497707907 -433.67089173442764 -3.568067768909737 -1962.5531566834516
