ws_icra2022/src/my_pkg/ur5_eye2hand/keyboard_adaptive/before0913/0907offset_0_step_1e-5/log_theta_k.npy (npy, 50528 bytes, 1 tensors)

array f8 [420, 15, 1]
-1719.05694246 -1587.53278008 -13.524045093 -1.4693306401800001 21.524458503600002 -2339.9005406399997 0.678457138 -0.734604865
-0.00718357448 510.878224914 -553.157463345 -5.4092315834399995 373.829883038 -404.767280615 -3.95814953848 -1719.05694246
-1587.53278008 -13.524045093 -1.4693306401800001 21.524458503600002 -2339.9005406399997 0.678457138 -0.734604865 -0.00718357448
510.878224914 -553.157463345 -5.4092315834399995 373.829883038 -404.767280615 -3.95814953848 -1719.05694246 -1587.53278008
-13.524045093 -1.4693306401800001 21.524458503600002 -2339.9005406399997 0.678457138 -0.734604865 -0.00718357448 510.878224914
-553.157463345 -5.4092315834399995 373.829883038 -404.767280615 -3.95814953848 -1719.0569365671615 -1587.5327761900073 -13.52404393609134
-1.4693292461448426 21.524459423833363 -2339.9005403663164 0.670830882473603 -0.739639124526681 -0.008680795390305203 510.87823080683853 -553.1574594550073
-5.409230426531339 373.82988443203516 -404.7672796947666 -3.958149264796725 -1719.056920288208 -1587.5327660558119 -13.524039936269736 -1.4693253951257752
21.524461821222133 -2339.9005394201013 0.6497633682959056 -0.7527543600008368 -0.013857190683015913 510.87824708579205 -553.1574493208117 -5.4092264267097345
373.82988828305423 -404.76727729737786 -3.9581483185817703 -1719.056895078228 -1587.5327503454773 -13.52403324969743 -1.469319433826885 21.524465536179495
-2339.900537838955 0.6171852158698916 -0.7730563863616567 -0.022498061203030932 510.8782722957719 -553.157433610477 -5.409219740137428 373.8298942443531
-404.7672735824205 -3.958146737435879 -1719.0568609767577 -1587.5327288581502 -13.524023375078881 -1.4693113934214461 21.524470602436722 -2339.900535510729
0.5734569667730631 -0.8006095439416269 -0.0351602653131825 510.8783063972424 -553.1574121231499 -5.40920986551888 373.82990228475853 -404.76726851616326
-3.958144409209689 -1719.0568207654474 -1587.532702777615 -13.524011845278348 -1.4693019124450115 21.524476751675298 -2339.9005327922455 0.521894081994304
-0.834052563477679 -0.04994490605540676 510.8783466085527 -553.1573860426147 -5.409198335718347 373.82991176573495 -404.7672623669247 -3.9581416907265967
-1719.056778409183 -1587.5326760501064 -13.523997223507985 -1.4692919976052057 21.52448300810444 -2339.900529369552 0.4682852635262763 -0.8678806212822348
-0.0684511611159278 510.87838896481713 -553.157359315106 -5.409183713947984 373.8299216805747 -404.76725611049557 -3.9581382680331 -1719.0567374044003
-1587.5326490125208 -13.523983409572791 -1.4692823991230226 21.524489337117 -2339.900526135958 0.4163869677390994 -0.9021011323660058 -0.08593496791551691
510.8784299695996 -553.1573322775204 -5.409169900012789 373.8299312790569 -404.76724978148303 -3.958135034439289 -1719.0566946810127 -1587.5326206294103
-13.52396861625593 -1.4692725550670747 21.5244958769759 -2339.900522727374 0.36312890994896846 -0.9374829084534404 -0.10437599907505833 510.8784726929873
-553.1573038944099 -5.409155106695928 373.82994112311286 -404.7672432416241 -3.958131625855687 -1719.056655115147 -1587.532595330485 -13.523954808917656
-1.469263545170666 21.52450163801995 -2339.900519583182 0.3145581212176788 -0.9685396976398211 -0.12132579400041185 510.87851225885305 -553.1572785954847
-5.409141299357655 373.8299501330093 -404.76723748058004 -3.958128481663459 -1719.0566162506325 -1587.5325699411922 -13.523941261433652 -1.4692546949852048
21.524507419642443 -2339.9005164981636 0.26684830650302566 -0.9997074216599383 -0.13795659358488235 510.8785511233676 -553.1572532061917 -5.409127751873651
373.82995898319473 -404.7672316989575 -3.958125396644966 -1719.0565767732526 -1587.532543033857 -13.523926093113886 -1.4692459341536654 21.524513390926007
-2339.900513132006 0.2192684691964205 -1.0321372999356802 -0.15623810536619384 510.87859060074754 -553.1572262988566 -5.409112583553885 373.82996774402625
-404.767225727674 -3.958122030487071 -1719.0565409385736 -1587.5325180152563 -13.52391190849652 -1.469237981711353 21.524518943061107 -2339.9005099841515
0.17607897174703693 -1.0622907943442537 -0.1733340166777633 510.8786264354266 -553.1572012802558 -5.40909839893652 373.8299756964686 -404.76722017553885
-3.9581188826326965 -1719.0565020715771 -1587.5324905379123 -13.523896226857737 -1.4692296031074543 21.52452486638434 -2339.9005066036425 0.13011771284757895
-1.0947834859637946 -0.1918779724269173 510.8786653024229 -553.1571738029116 -5.4090827172977365 373.8299840750725 -404.76721425221564 -3.958115502123466
-1719.056469423362 -1587.5324666705772 -13.523882274743256 -1.46922282045488 21.52452982481286 -2339.900503705097 0.09229466812297808 -1.122433857505139
-0.2080415343519009 510.87869795063824 -553.1571499355765 -5.409068765183256 373.8299908577251 -404.7672092937871 -3.958112603577733 -1719.0564362998934
00000000: d1cd 1f4f 3adc 9ac0 3eee 1991 21ce 98c0
00000010: e920 70a3 4f0c 2bc0 6d57 69d8 6082 f7bf
00000020: 3412 99e9 4286 3540 09ab a913 cd47 a2c0
00000030: 0a54 6ebe ebb5 e53f 330a d50f e281 e7bf
00000040: 3414 5c17 866c 7dbf 9942 9135 0dee 7f40
00000050: c068 247c 4249 81c0 db75 ad9a 0da3 15c0
00000060: 71bb 6f33 475d 7740 7ac4 09c8 464c 79c0
00000070: be97 234e 4aaa 0fc0 d1cd 1f4f 3adc 9ac0
00000080: 3eee 1991 21ce 98c0 e920 70a3 4f0c 2bc0
00000090: 6d57 69d8 6082 f7bf 3412 99e9 4286 3540
000000a0: 09ab a913 cd47 a2c0 0a54 6ebe ebb5 e53f
000000b0: 330a d50f e281 e7bf 3414 5c17 866c 7dbf
000000c0: 9942 9135 0dee 7f40 c068 247c 4249 81c0
000000d0: db75 ad9a 0da3 15c0 71bb 6f33 475d 7740
000000e0: 7ac4 09c8 464c 79c0 be97 234e 4aaa 0fc0
000000f0: d1cd 1f4f 3adc 9ac0 3eee 1991 21ce 98c0
00000100: e920 70a3 4f0c 2bc0 6d57 69d8 6082 f7bf
00000110: 3412 99e9 4286 3540 09ab a913 cd47 a2c0
00000120: 0a54 6ebe ebb5 e53f 330a d50f e281 e7bf
00000130: 3414 5c17 866c 7dbf 9942 9135 0dee 7f40
00000140: c068 247c 4249 81c0 db75 ad9a 0da3 15c0
00000150: 71bb 6f33 475d 7740 7ac4 09c8 464c 79c0
00000160: be97 234e 4aaa 0fc0 9f57 944d 3adc 9ac0
00000170: ade0 1490 21ce 98c0 dd5b 9e7c 4f0c 2bc0
00000180: 95f9 3362 5f82 f7bf 7c71 09f9 4286 3540
00000190: 1d7c a013 cd47 a2c0 c7de ab53 7277 e53f
000001a0: b1e4 55ab 1fab e7bf 04e1 6fa2 3cc7 81bf
000001b0: 611b bf3b 0dee 7f40 9e4d 1a7a 4249 81c0
000001c0: c2eb 094d 0da3 15c0 cff0 e534 475d 7740
000001d0: 85be 12c7 464c 79c0 33e8 6729 4aaa 0fc0
000001e0: 54e1 4f49 3adc 9ac0 86c8 6c8d 21ce 98c0
000001f0: 2327 68f6 4e0c 2bc0 b0f5 7358 5b82 f7bf
00000200: 5026 4221 4386 3540 30bc 8013 cd47 a2c0
00000210: ee07 1f8c dcca e43f 0a00 c44f 9016 e8bf
00000220: 3048 62a6 2861 8cbf 8cf4 d04c 0dee 7f40
00000230: 4f1d ca74 4249 81c0 4e82 9d40 0ca3 15c0
00000240: d3b0 ef38 475d 7740 3833 8fc4 464c 79c0
00000250: 7035 68aa 49aa 0fc0 2c11 b442 3adc 9ac0
00000260: 087b 4e89 21ce 98c0 23ef 0a16 4e0c 2bc0
00000270: 8b9e 3a18 5582 f7bf 21c5 955f 4386 3540
00000280: 3fae 4b13 cd47 a2c0 5e8c b735 fbbf e33f
00000290: 6764 2cbf e0bc e8bf 2e98 5c54 bb09 97bf
000002a0: 2c35 4067 0dee 7f40 5282 8d6c 4249 81c0
000002b0: 4d12 e37f 0aa3 15c0 2aea 2f3f 475d 7740
000002c0: 4bf9 a9c0 464c 79c0 1973 30d6 48aa 0fc0
000002d0: 5f8e c339 3adc 9ac0 907d ac83 21ce 98c0
000002e0: 4f9b b4ca 4c0c 2bc0 312a e6a9 4c82 f7bf
000002f0: dc2d 95b4 4386 3540 ef8e fd12 cd47 a2c0
00000300: 6c84 be6c c259 e23f 4b08 03e8 979e e9bf
00000310: 0f11 47bb 8600 a2bf 6140 028b 0dee 7f40
00000320: 6287 4961 4249 81c0 a66a 36e9 07a3 15c0
00000330: 9e3e 9e47 475d 7740 bf02 5abb 464c 79c0
00000340: f434 b39d 47aa 0fc0 5205 392f 3adc 9ac0
00000350: 6141 d67c 21ce 98c0 ce5f d447 4b0c 2bc0
00000360: df6c deb8 4282 f7bf 2df5 bf1b 4486 3540
00000370: 5757 a212 cd47 a2c0 fd86 c437 5bb3 e03f
00000380: d402 6900 8fb0 eabf 0a33 38f4 6092 a9bf
00000390: 9564 2cb5 0dee 7f40 040f 9d53 4249 81c0
000003a0: a4f3 75e3 04a3 15c0 5b46 8f51 475d 7740
000003b0: 4a56 e7b4 464c 79c0 cbd6 d430 46aa 0fc0
000003c0: 3d8a 1e24 3adc 9ac0 479a d475 21ce 98c0
000003d0: bd52 345d 490c 2bc0 68d2 5f53 3882 f7bf
000003e0: c41d b784 4486 3540 a07e 2f12 cd47 a2c0
000003f0: 82d2 02c1 62f8 dd3f d6a8 a794 adc5 ebbf
00000400: 24bb 5dea 0386 b1bf e950 96e1 0dee 7f40
00000410: cfc0 9945 4249 81c0 82d9 350e 01a3 15c0
00000420: f5c4 f45b 475d 7740 c1e3 57ae 464c 79c0
00000430: 69fc 7165 44aa 0fc0 70c1 5e19 3adc 9ac0
00000440: 1824 be6e 21ce 98c0 ff85 af8d 470c 2bc0
00000450: 1926 cd42 2e82 f7bf ab04 e6ee 4486 3540
00000460: 44fe c211 cd47 a2c0 ebe1 3a86 15a6 da3f
00000470: 3c4a a631 03de ecbf 18ab c784 d5ff b5bf
00000480: 1b74 950c 0eee 7f40 71d4 6c37 4249 81c0
00000490: 0540 2c6f fda2 15c0 a157 0566 475d 7740
000004a0: 53f5 b4a7 464c 79c0 748c 70b3 42aa 0fc0
000004b0: 3aa3 2b0e 3adc 9ac0 f861 4d67 21ce 98c0
000004c0: 31e6 4d9d 450c 2bc0 6ec6 4ef0 2382 f7bf
000004d0: 937f 9e5c 4586 3540 c19e 5011 cd47 a2c0
000004e0: f3a0 1d0a 813d d73f 46ba 0b28 dcff edbf
000004f0: 7fc3 83ae 62b8 babf f4ec 6139 0eee 7f40
00000500: 3150 8b28 4249 81c0 6900 698e f9a2 15c0
00000510: 01d6 5770 475d 7740 a46d d9a0 464c 79c0
00000520: 0482 f2e9 40aa 0fc0 d46a cc03 3adc 9ac0
00000530: be99 ab60 21ce 98c0 3bc4 01ce 430c 2bc0
00000540: 9168 bb7d 1a82 f7bf 7efe 45bd 4586 3540
00000550: 591e e710 cd47 a2c0 768d d462 b821 d43f
00000560: 4eb4 c7f6 46fe eebf c69b 640d 350f bfbf
00000570: 8bce de62 0eee 7f40 bebf 471b 4249 81c0
00000580: 7ebc d0ef f5a2 15c0 5f69 ca79 475d 7740
00000590: b5f5 ce9a 464c 79c0 b3e2 f043 3faa 0fc0
000005a0: 8e43 9cf9 39dc 9ac0 03c1 035a 21ce 98c0
000005b0: dac3 6d07 420c 2bc0 684b 0736 1182 f7bf
000005c0: a7df 451e 4686 3540 3e9a 7f10 cd47 a2c0
000005d0: 491a 5beb 0a14 d13f 2322 336b 9afd efbf
000005e0: 1979 dbc8 8fa8 c1bf a56b 9f8b 0eee 7f40
000005f0: 470e f80d 4249 81c0 bcbb a862 f2a2 15c0
00000600: 7c1d 1283 475d 7740 a2f7 be94 464c 79c0
00000610: 0f75 e0a5 3daa 0fc0 55fb 42ef 39dc 9ac0
00000620: 8408 f652 21ce 98c0 f0e3 760a 400c 2bc0
00000630: 1089 4f06 0882 f7bf 5d57 7482 4686 3540
00000640: 2ba7 0e10 cd47 a2c0 d40d 1f3c fd10 cc3f
00000650: af49 c366 a283 f0bf 37e9 7738 9cff c3bf
00000660: 8a8c 04b5 0eee 7f40 489d dcff 4149 81c0
00000670: e8fb ba68 eea2 15c0 3ed5 418c 475d 7740
00000680: 2710 7c8e 464c 79c0 1627 14e2 3baa 0fc0
00000690: 3c28 dee5 39dc 9ac0 3a10 674c 21ce 98c0
000006a0: 7bf4 812e 3e0c 2bc0 65dc 97af ff81 f7bf
000006b0: 7794 9adf 4686 3540 4e07 a50f cd47 a2c0
000006c0: bd5a 9578 c189 c63f 91ce c8a1 24ff f0bf
000006d0: f128 751e cf2f c6bf efd8 97da 0eee 7f40
000006e0: b4ac bef2 4149 81c0 fe1c d1b0 eaa2 15c0
000006f0: eb8c 9894 475d 7740 55ac a988 464c 79c0
00000700: 30b3 943b 3aaa 0fc0 52d6 addb 39dc 9ac0
00000710: 0d17 3345 21ce 98c0 1cb4 5120 3c0c 2bc0
00000720: d195 7ae6 f681 f7bf 3c0f fb42 4786 3540
00000730: f498 330f cd47 a2c0 0ec4 a77c b2a7 c03f
00000740: 5ea5 46b0 3b84 f1bf 38bd 3218 758f c8bf
00000750: 9520 5903 0fee 7f40 59ba 56e4 4149 81c0
00000760: 419c 7094 e6a2 15c0 32aa 619d 475d 7740
00000770: a9a4 7382 464c 79c0 8949 db75 38aa 0fc0
00000780: 41da 1ed3 39dc 9ac0 5b61 f13e 21ce 98c0
00000790: e7f3 294c 3a0c 2bc0 db3f c6c9 ef81 f7bf
000007a0: 0c59 2b96 4786 3540 a356 d20e cd47 a2c0
000007b0: fbf0 2e95 9fa0 b73f ec85 5e34 7df5 f1bf
000007c0: 3923 20e1 1aa1 cabf db10 9525 0fee 7f40
000007d0: f54e d3d7 4149 81c0 d71b 21ec e2a2 15c0
000007e0: 885e 7ea4 475d 7740 0ca0 407d 464c 79c0
000007f0: a303 d2f0 36aa 0fc0 66f9 6fca 39dc 9ac0
