ws_icra2022/src/my_pkg/ur5_eye2hand/keyboard_adaptive/0912_step_4e-5/log_theta_z.npy (npy, 10320 bytes, 1 tensors)

array f8 [98, 13, 1]
00000000: 0000 0000 0000 0000 0000 0000 0000 0000
00000010: 0000 0000 0000 0000 0000 0000 0000 0000
00000020: 0000 0000 0000 0000 0000 0000 0000 0000
00000030: 0000 0000 0000 0000 0000 0000 0000 0000
00000040: 0000 0000 0000 0000 0a54 6ebe ebb5 e53f
00000050: 330a d50f e281 e7bf 3414 5c17 866c 7dbf
00000060: 9f11 3a22 be77 f93f 354f 3a80 1840 9abe
00000070: 81b4 a857 be5c 66be 7afb 0fa3 ac15 92be
00000080: 74f4 2890 0caf 60be 3ebe 20cd e8df 9f3e
00000090: 899d 77dc e764 5ebe ee0a b25b 212e 923e
000000a0: 122a 827c 7c4d 38be b934 b191 9154 9abe
000000b0: 2c61 239c ebb5 e53f 7c5b 2185 e181 e7bf
000000c0: 0bec c3ba 426c 7dbf 6348 39a2 be77 f93f
000000d0: 83f6 8faf 64eb 9abe 78f9 9520 adee 66be
000000e0: a4df b59e ae8b 92be ea5d 2bed fa1b 61be
000000f0: 9434 42f9 f357 a03e 1552 f91d 182b 5fbe
00000100: 4b92 43bf c2a4 923e 24db 274d 54eb 38be
00000110: ec94 0e8c 6300 9bbe 9099 439b ebb5 e53f
00000120: 2948 9881 e181 e7bf 949b 3303 416c 7dbf
00000130: 6c85 7ca5 be77 f93f 83f6 8faf 64eb 9abe
00000140: 78f9 9520 adee 66be a4df b59e ae8b 92be
00000150: ea5d 2bed fa1b 61be 9434 42f9 f357 a03e
00000160: 1552 f91d 182b 5fbe 4b92 43bf c2a4 923e
00000170: 24db 274d 54eb 38be ec94 0e8c 6300 9bbe
00000180: 9099 439b ebb5 e53f 2948 9881 e181 e7bf
00000190: 949b 3303 416c 7dbf 6c85 7ca5 be77 f93f
000001a0: ec27 2840 fdb8 e0be 6237 3719 d23c acbe
000001b0: 23e4 db6b 6013 d7be 9a4b e6f5 5c71 a4be
000001c0: 72f8 ce45 7a50 e43e 8f9c 5c2a 7c16 a4be
000001d0: 58d9 419a 2b34 d73e 485e fd0f 0ea0 83be
000001e0: 6d54 747f bfc4 e0be ccfb 8108 e9b5 e53f
000001f0: 537f 4bfe d681 e7bf 4e6f 0850 2b67 7dbf
00000200: 8c4a 8e54 c877 f93f ec27 2840 fdb8 e0be
00000210: 6237 3719 d23c acbe 23e4 db6b 6013 d7be
00000220: 9a4b e6f5 5c71 a4be 72f8 ce45 7a50 e43e
00000230: 8f9c 5c2a 7c16 a4be 58d9 419a 2b34 d73e
00000240: 485e fd0f 0ea0 83be 6d54 747f bfc4 e0be
00000250: ccfb 8108 e9b5 e53f 537f 4bfe d681 e7bf
00000260: 4e6f 0850 2b67 7dbf 8c4a 8e54 c877 f93f
00000270: ec27 2840 fdb8 e0be 6237 3719 d23c acbe
00000280: 23e4 db6b 6013 d7be 9a4b e6f5 5c71 a4be
00000290: 72f8 ce45 7a50 e43e 8f9c 5c2a 7c16 a4be
000002a0: 58d9 419a 2b34 d73e 485e fd0f 0ea0 83be
000002b0: 6d54 747f bfc4 e0be ccfb 8108 e9b5 e53f
000002c0: 537f 4bfe d681 e7bf 4e6f 0850 2b67 7dbf
000002d0: 8c4a 8e54 c877 f93f 1687 2fae 2fe2 3bbf
000002e0: ef3d 3a1d a584 05bf 483c bb05 cb99 33bf
000002f0: 1d45 5f17 548d f2be 2586 e562 8b04 413f
00000300: 728e 7243 882a 08bf bacb d216 00c0 333f
00000310: 6b97 7f9a 72c8 fcbe b760 fcdc 6ed9 3bbf
00000320: 003b a95f 67b5 e53f aef2 5423 847f e7bf
00000330: 7ead ef28 ce54 7cbf 461a 432a e179 f93f
00000340: a51c f943 eaae 4ebf 9c2c 13a2 e51a 17bf
00000350: 34c6 870c 17aa 45bf 16fc 6130 42fa ffbe
00000360: 483b 3a54 37be 523f cef5 b0bd 8aa5 1cbf
00000370: ed8f d5ad e5d4 453f 081c 3f19 99bc 12bf
00000380: 9cb8 6d98 f29b 4ebf bc92 de6e cfb4 e53f
00000390: da64 807f a37c e7bf 148d ca56 1908 7bbf
000003a0: d88c 5ea1 737c f93f a51c f943 eaae 4ebf
000003b0: 9c2c 13a2 e51a 17bf 34c6 870c 17aa 45bf
000003c0: 16fc 6130 42fa ffbe 483b 3a54 37be 523f
000003d0: cef5 b0bd 8aa5 1cbf ed8f d5ad e5d4 453f
000003e0: 081c 3f19 99bc 12bf 9cb8 6d98 f29b 4ebf
000003f0: bc92 de6e cfb4 e53f da64 807f a37c e7bf
00000400: 148d ca56 1908 7bbf d88c 5ea1 737c f93f
00000410: f279 fbe0 78e5 56bf 03c1 8051 155f 20bf
00000420: 61cc 6815 cf3e 50bf 70b7 e432 6b89 fcbe
00000430: a2eb b7e4 96fd 5b3f 226c 5283 eb27 27bf
00000440: b66d 02aa b25c 503f e959 96ff 78c8 20bf
00000450: ca9d 2e8e 6dcd 56bf 7078 381e 53b4 e53f
00000460: b264 cb6c fb79 e7bf 82fd 60f2 b2df 79bf
00000470: 20d0 d3af c77e f93f f279 fbe0 78e5 56bf
00000480: 03c1 8051 155f 20bf 61cc 6815 cf3e 50bf
00000490: 70b7 e432 6b89 fcbe a2eb b7e4 96fd 5b3f
000004a0: 226c 5283 eb27 27bf b66d 02aa b25c 503f
000004b0: e959 96ff 78c8 20bf ca9d 2e8e 6dcd 56bf
000004c0: 7078 381e 53b4 e53f b264 cb6c fb79 e7bf
000004d0: 82fd 60f2 b2df 79bf 20d0 d3af c77e f93f
000004e0: 9343 53b2 7e27 5dbf e482 442c 7289 23bf
000004f0: f5e0 21d1 75c5 54bf 14f8 255c 9e68 e6be
00000500: 7ab0 eaa5 f8d2 613f 4472 fa38 df81 2fbf
00000510: 6629 3352 b3e5 543f 7e36 1923 2bcf 28bf
00000520: e4c0 1166 3ffc 5cbf 8d66 ac6a f8b3 e53f
00000530: a865 6d86 b977 e7bf a22e 341b dbec 78bf
00000540: fe9c 999c b680 f93f 494a fbd7 d955 61bf
00000550: c6cb 4023 54f4 25bf ee8e 83cc 1cc6 58bf
00000560: b012 dfe6 0992 e33e d41c b5a6 7b32 653f
00000570: f55f bda3 5899 33bf 8585 da4e d5e5 583f
00000580: 0abf c24c 9b48 30bf bb36 9a6e 7f36 61bf
00000590: 5f22 a67c adb3 e53f 17e5 5268 b675 e7bf
000005a0: 86f6 47ad 7e17 78bf 263c ed3b 6b82 f93f
000005b0: 494a fbd7 d955 61bf c6cb 4023 54f4 25bf
000005c0: ee8e 83cc 1cc6 58bf b012 dfe6 0992 e33e
000005d0: d41c b5a6 7b32 653f f55f bda3 5899 33bf
000005e0: 8585 da4e d5e5 583f 0abf c24c 9b48 30bf
000005f0: bb36 9a6e 7f36 61bf 5f22 a67c adb3 e53f
00000600: 17e5 5268 b675 e7bf 86f6 47ad 7e17 78bf
00000610: 263c ed3b 6b82 f93f b5cf 668d 62b3 63bf
00000620: 3732 fe75 995b 27bf c001 bc46 b539 5cbf
00000630: 0da6 10c5 7ebb 023f d0a8 8784 b015 683f
00000640: fdeb 738f ea24 37bf 2868 193e 9d53 5c3f
00000650: 343f 99d9 5c2a 34bf 1ebd a3c8 bb89 63bf
00000660: a7b7 1049 76b3 e53f 98ea b57e f373 e7bf
00000670: 8bdd 276b 6561 77bf 6c7a 0f30 e283 f93f
00000680: a4bd c7fb 37ce 65bf 655a 70c7 f459 28bf
00000690: 0724 9b26 e64e 5fbf adc7 8ecb f39b 103f
000006a0: deb3 3a51 cca6 6a3f 776b a6a8 b271 3abf
000006b0: 9dfa 95b4 e560 5f3f 57bb 36ee 89e5 37bf
000006c0: 1af7 fa98 5b9a 65bf f4d2 593e 49b3 e53f
000006d0: ec1b cdd9 5d72 e7bf 596f d069 e0bf 76bf
000006e0: f138 5937 3085 f93f a4bd c7fb 37ce 65bf
000006f0: 655a 70c7 f459 28bf 0724 9b26 e64e 5fbf
00000700: adc7 8ecb f39b 103f deb3 3a51 cca6 6a3f
00000710: 776b a6a8 b271 3abf 9dfa 95b4 e560 5f3f
00000720: 57bb 36ee 89e5 37bf 1af7 fa98 5b9a 65bf
00000730: f4d2 593e 49b3 e53f ec1b cdd9 5d72 e7bf
00000740: 596f d069 e0bf 76bf f138 5937 3085 f93f
00000750: e2fd 1e23 c382 67bf 58b6 cf96 a192 28bf
00000760: e0c3 8155 bce8 60bf fed8 bad3 4469 183f
00000770: 122c e0aa 8bb9 6c3f 69b9 8998 f746 3dbf
00000780: 4785 4c35 a2eb 603f 2673 6999 9e55 3bbf
00000790: faa4 a10a 6645 67bf caed 03b3 2cb3 e53f
000007a0: 5d89 25b2 0e71 e7bf 8f98 f8a4 6b3d 76bf
000007b0: ed38 803c 3f86 f93f e2fd 1e23 c382 67bf
000007c0: 58b6 cf96 a192 28bf e0c3 8155 bce8 60bf
000007d0: fed8 bad3 4469 183f 122c e0aa 8bb9 6c3f
000007e0: 69b9 8998 f746 3dbf 4785 4c35 a2eb 603f
000007f0: 2673 6999 9e55 3bbf faa4 a10a 6645 67bf
0.0 0.0 0.0 0.0 0.0 0.0 0.0 0.0
0.0 0.678457138 -0.734604865 -0.00718357448 1.59173406 -3.911610521958507e-07 -4.165299124048219e-08 -2.694825154691491e-07
-3.1075972035663486e-08 4.7496923827586e-07 -2.830677006500346e-08 2.709060386645128e-07 -5.658408804127469e-09 -3.923527331403871e-07 0.6784570741247413 -0.7346046066476073
-0.007183323538124685 1.5917345368257194 -4.0113188465294344e-07 -4.2714791768742915e-08 -2.76351470338948e-07 -3.186855015095988e-08 4.870762375805789e-07 -2.9027775626184123e-08
2.778112382486162e-07 -5.801966201308789e-09 -4.023539866233249e-07 0.6784570724965295 -0.7346046000623164 -0.00718331714163058 1.591734548980038 -4.0113188465294344e-07
-4.2714791768742915e-08 -2.76351470338948e-07 -3.186855015095988e-08 4.870762375805789e-07 -2.9027775626184123e-08 2.778112382486162e-07 -5.801966201308789e-09 -4.023539866233249e-07
0.6784570724965295 -0.7346046000623164 -0.00718331714163058 1.591734548980038 -7.973963879432493e-06 -8.415454879008323e-07 -5.501673226986978e-06 -6.092436526820519e-07
9.686644426906198e-06 -5.986640487552178e-07 5.532214718431627e-06 -1.462192429312203e-07 -7.995866310875875e-06 0.6784558454672776 -0.734599587125539 -0.007178467931705358
1.5917437842332758 -7.973963879432493e-06 -8.415454879008323e-07 -5.501673226986978e-06 -6.092436526820519e-07 9.686644426906198e-06 -5.986640487552178e-07 5.532214718431627e-06
-1.462192429312203e-07 -7.995866310875875e-06 0.6784558454672776 -0.734599587125539 -0.007178467931705358 1.5917437842332758 -7.973963879432493e-06 -8.415454879008323e-07
-5.501673226986978e-06 -6.092436526820519e-07 9.686644426906198e-06 -5.986640487552178e-07 5.532214718431627e-06 -1.462192429312203e-07 -7.995866310875875e-06 0.6784558454672776
-0.734599587125539 -0.007178467931705358 1.5917437842332758 -0.00042546905586792036 -4.104260338266471e-05 -0.00029908377267146404 -1.769262731682763e-05 0.0005193405720939666
-4.609325736140432e-05 0.0003013611047421556 -2.744960661962092e-05 -0.0004249473249600221 0.6783940189723978 -0.7343159380030408 -0.006916814148080317 1.5922557497848557
-0.0009363788485154024 -8.81388337063298e-05 -0.0006611454528508477 -3.0496189559855382e-05 0.0011439838716886409 -0.00010927829082248779 0.0006662484626471767 -7.14748805982075e-05
-0.0009341177509279044 0.6783215680521475 -0.73396468069691 -0.0065995206647671174 1.5928837111940108 -0.0009363788485154024 -8.81388337063298e-05 -0.0006611454528508477
-3.0496189559855382e-05 0.0011439838716886409 -0.00010927829082248779 0.0006662484626471767 -7.14748805982075e-05 -0.0009341177509279044 0.6783215680521475 -0.73396468069691
-0.0065995206647671174 1.5928837111940108 -0.0013974838693041583 -0.0001249040149118378 -0.0009915373135640714 -2.7214805578149937e-05 0.0017084096497217223 -0.000176665782110814
0.0009986634031865344 -0.00012804486304381017 -0.0013917512776319024 0.678262290024362 -0.7336403965847664 -0.0063168516263084635 1.5934521549470517 -0.0013974838693041583
-0.0001249040149118378 -0.0009915373135640714 -2.7214805578149937e-05 0.0017084096497217223 -0.000176665782110814 0.0009986634031865344 -0.00012804486304381017 -0.0013917512776319024
0.678262290024362 -0.7336403965847664 -0.0063168516263084635 1.5934521549470517 -0.0017794358512228422 -0.00014905470573813647 -0.0012677813106432543 -1.068528479630449e-05
0.0021757942589229447 -0.00024038171658426384 0.0012754679853964278 -0.0001892795713040358 -0.001769124901581925 0.6782190402474996 -0.7333648324521862 -0.006085258373115162
1.5939241521062395 -0.002116132236417632 -0.0001674988467371392 -0.0015120774497114314 9.33192424302487e-06 0.0025875487387200056 -0.00029905714085520725 0.001519640263190376
-0.00024846831798706946 -0.002101181879715278 0.6781833109426535 -0.7331192052435281 -0.005881781417426906 1.594340547646206 -0.002116132236417632 -0.0001674988467371392
-0.0015120774497114314 9.33192424302487e-06 0.0025875487387200056 -0.00029905714085520725 0.001519640263190376 -0.00024846831798706946 -0.002101181879715278 0.6781833109426535
-0.7331192052435281 -0.005881781417426906 1.594340547646206 -0.002404873356875082 -0.00017820595075725292 -0.0017227430607250488 3.5729223448587815e-05 0.002940029870150608
-0.0003531525284896085 0.0017289195606253836 -0.00030770079465457516 -0.002385012402661992 0.6781569888168989 -0.732904193383848 -0.005708118597332566 1.5946981313096797
-0.002661809294515387 -0.00018578637147533269 -0.0019109008375599605 6.335902698031857e-05 0.003253363663893157 -0.00040350543772554127 0.0019151919571808514 -0.00036463372654343046
-0.0026370800986502798 0.678135511187604 -0.7327107671670752 -0.0055540815492597035 1.5950166856815111 -0.002661809294515387 -0.00018578637147533269 -0.0019109008375599605
6.335902698031857e-05 0.003253363663893157 -0.00040350543772554127 0.0019151919571808514 -0.00036463372654343046 -0.0026370800986502798 0.678135511187604 -0.7327107671670752
-0.0055540815492597035 1.5950166856815111 -0.0028699694894098607 -0.00018747541926649141 -0.0020641020201357246 9.312136256309567e-05 0.0035064437752274713 -0.0004467348558482494
0.00206548386849251 -0.00041709062626242783 -0.0028407090185750246 0.6781219002145289 -0.7325509528566659 -0.005429668890007857 1.5952751506152325 -0.0028699694894098607
-0.00018747541926649141 -0.0020641020201357246 9.312136256309567e-05 0.0035064437752274713 -0.0004467348558482494 0.00206548386849251 -0.00041709062626242783 -0.0028407090185750246
