ws_icra2022/src/my_pkg/ur5_eye2hand/z_fixed_keyboard_adaptive/0913_z_0-2_step_z4e-3_k5e-2/log_theta_k.npy (npy, 10112 bytes, 1 tensors)

array f8 [312, 4, 1]
-2397.2294159999997 -71.218816 53.65788800000001 -2398.427544 -2397.229494705617 -71.2187858262056 53.657879627351285 -2398.427386716506
-2397.229573168155 -71.21875574758865 53.65787128056115 -2398.427229929133 -2397.120057938059 -71.20548687293044 53.66952638114733 -2398.3580354128553
-2396.8557824058207 -71.17611457585558 53.6976517652422 -2398.2048647830616 -2396.4850987300592 -71.13543568806865 53.73707933485206 -2397.9928521710895
-2395.994328452887 -71.0797476701769 53.789296211196735 -2397.7025231322496 -2395.4129265210777 -71.01536096440057 53.85115609593707 -2397.366843553234
-2394.696916571823 -70.94561938871824 53.927213580481244 -2397.0038401170623 -2394.1425459388884 -70.8851247018628 53.98612411215197 -2396.688843391487
-2393.5430070594957 -70.8183937939362 54.049834474938166 -2396.3413745709313 -2392.986934370292 -70.75722832497742 54.10892587665102 -2396.0228850730628
-2392.3447630070827 -70.69076448554455 54.177045945575735 -2395.677418804174 -2391.826283029493 -70.62920201327712 54.232113016931265 -2395.3570338427767
-2391.2688956067354 -70.56815659801671 54.29131239647978 -2395.0393397624166 -2390.6028241001604 -70.5018527217051 54.361874341363894 -2394.69516051054
-2390.0580520942003 -70.44078127881356 54.419586121374756 -2394.378142491463 -2389.4449490863517 -70.37527141763871 54.48460029995739 -2394.0377520217016
-2388.9424154101894 -70.31819906313991 54.53777361982013 -2393.7418482672933 -2388.3932514942067 -70.25921804045758 54.595880906847334 -2393.4360486169403
-2387.804002829739 -70.19943725545332 54.65815438268554 -2393.126476245789 -2387.307417041458 -70.1408127559469 54.71063498205364 -2392.822891652203
-2386.753758661513 -70.08031705756773 54.76913754509937 -2392.509668691449 -2386.2785187314944 -70.02879155088407 54.81929415890649 -2392.2432077018334
-2385.8224002611887 -69.97800249927957 54.86743270224084 -2391.980555244377 -2385.3555182209743 -69.92593748449274 54.916612939561944 -2391.7118194426607
-2384.913525858427 -69.87577812837525 54.96310799794658 -2391.4532721077903 -2384.465372810414 -69.82479067449336 55.01025112506424 -2391.1904563275775
-2383.99560136562 -69.77369225548301 55.05963711705048 -2390.9272352211306 -2383.5758586946304 -69.72718781820332 55.10376369906288 -2390.6876788968343
-2383.153384282512 -69.67951822081932 55.14806178402223 -2390.442760106721 -2382.755963053848 -69.63577616234973 55.1897796921145 -2390.217768271545
-2382.358917114239 -69.59151847430127 55.23145820554647 -2389.9901242419073 -2381.9459103681916 -69.54603960076925 55.2746803607498 -2389.7569100087135
-2381.5695348036365 -69.50475485747863 55.314068974184416 -2389.5452031434947 -2381.201125727959 -69.46278981676903 55.35255251643049 -2389.3304060262203
-2380.8560248287 -69.4244818137542 55.388558165088874 -2389.134562084592 -2380.5076910211833 -69.38597413107317 55.42490111498037 -2388.937697310505
-2380.1726192058272 -69.34816483310185 55.459821325393506 -2388.744618930197 -2379.844017464513 -69.31110740334961 55.49400749191798 -2388.5557102484863
-2379.5271480273072 -69.27625672244604 55.526973085172294 -2388.378050971245 -2379.2222195047966 -69.2424848523257 55.55863729173729 -2388.2062119655798
-2378.920042251844 -69.20757736658543 55.59001580260258 -2388.028594687694 -2378.624581845006 -69.17472390767885 55.62069682672209 -2387.8614287685114
-2378.3287259394506 -69.14260871259292 55.651321001964774 -2387.6985401262837 -2378.08361578729 -69.11370040945476 55.67661898154563 -2387.5523415247694
-2377.8251914009857 -69.08513416973764 55.70329113196574 -2387.4078728481677 -2377.565904903213 -69.05705530607582 55.73013708559454 -2387.2654188830124
-2377.3212674051615 -69.03022399428349 55.75529335329231 -2387.1302237158457 -2377.0876115114315 -69.00437048333673 55.77932037391934 -2386.9999554024157
-2376.854893406065 -68.97950085509216 55.803225783795725 -2386.874776426201 -2376.64515937315 -68.95666559281187 55.82477020988998 -2386.7598372431253
-2376.427478327421 -68.93344793255667 55.84708801791136 -2386.6431977955117 -2376.235735729762 -68.91244178919307 55.866717018863504 -2386.5378265788763
-2376.0406093183406 -68.89090938156396 55.88669242632299 -2386.4298155104143 -2375.8485465365598 -68.87013912453469 55.906345454955044 -2386.3256739158637
-2375.675764036121 -68.85089438072109 55.92402560827133 -2386.2291812097483 -2375.496551093802 -68.8314378883729 55.94230928969795 -2386.1319165878112
-2375.335760256298 -68.81427040788327 55.958704796842554 -2386.0461405068095 -2375.174589777788 -68.79593848014513 55.9751390151906 -2385.9545463489167
-2375.015661451534 -68.77900561505123 55.99130785342754 -2385.8701343791363 -2374.877638655733 -68.76395837595557 56.00532004025874 -2385.795281587685
-2374.7427052127423 -68.74920721035745 56.019018593472225 -2385.721901619762 -2374.6064228484474 -68.7343019953266 56.03286376420722 -2385.647703485964
00000000: 5b92 0376 75ba a2c0 dcf5 d214 01ce 51c0
00000010: 2737 8aac 35d4 4a40 3413 0ce7 dabc a2c0
00000020: 767e 5480 75ba a2c0 6918 4496 00ce 51c0
00000030: d716 4e66 35d4 4a40 4784 6ed2 dabc a2c0
00000040: 8842 9d8a 75ba a2c0 236d 1b18 00ce 51c0
00000050: 707e 4920 35d4 4a40 ff9a e1bd dabc a2c0
00000060: 2deb 3b78 3dba a2c0 96bf 69b2 26cd 51c0
00000070: 236b 5b0a b3d5 4a40 0cea 6a50 b7bc a2c0
00000080: fc8a 1c29 b6b9 a2c0 83e9 1176 45cb 51c0
00000090: 20db 2da7 4cd9 4a40 b46e 09e4 68bc a2c0
000000a0: df59 dc5e f8b8 a2c0 d5bd 72fa aac8 51c0
000000b0: 9fdf 9a9d 58de 4a40 2fa9 1e57 fcbb a2c0
000000c0: 4475 9e18 fdb7 a2c0 e3d5 f895 1ac5 51c0
000000d0: 2df9 82a8 07e5 4a40 64ab 1cb1 67bb a2c0
000000e0: 5cdf 1a6b d3b6 a2c0 12ef 8dac fbc0 51c0
000000f0: 9eeb d5ae f2ec 4a40 c70f ebd2 bbba a2c0
00000100: 0ab8 3fd2 64b5 a2c0 8940 2f07 85bc 51c0
00000110: 7949 42ef aef6 4a40 64f2 54f7 01ba a2c0
00000120: 6803 c8fb 48b4 a2c0 7ad8 13e2 a5b8 51c0
00000130: b0be 9d50 39fe 4a40 01bd 14b0 60b9 a2c0
00000140: 1074 0505 16b3 a2c0 240d 5d90 60b4 51c0
00000150: 5009 e0f9 6006 4b40 acd3 a5c8 aeb8 a2c0
00000160: 6837 764f f9b1 a2c0 81d8 ca6d 76b0 51c0
00000170: bff3 7a48 f10d 4b40 bea0 97b7 0bb8 a2c0
00000180: 95e0 c684 b0b0 a2c0 bca9 3e7c 35ac 51c0
00000190: 8f11 0971 a916 4b40 3f33 a3d6 5ab7 a2c0
000001a0: d3b9 910e a7af a2c0 9166 85d8 44a8 51c0
000001b0: 0c59 1ce1 b51d 4b40 95cc 23cd b6b6 a2c0
000001c0: ef59 afac 89ae a2c0 42df 7dad 5ca4 51c0
000001d0: 68e6 7fb9 4925 4b40 0662 5724 14b6 a2c0
000001e0: dc46 5ca5 34ad a2c0 73c8 e05a 1ea0 51c0
000001f0: b1b5 fee5 512e 4b40 7b14 14ec 63b5 a2c0
00000200: 1c0c 01b9 1dac a2c0 5f4c aec2 359c 51c0
00000210: 7d94 7eff b435 4b40 2084 e49b c1b4 a2c0
00000220: 88dc 5dd0 e3aa a2c0 7078 6872 0498 51c0
00000230: 72f9 f361 073e 4b40 22a5 3b54 13b4 a2c0
00000240: 05cc 4584 e2a9 a2c0 7173 9a5f 5d94 51c0
00000250: b6e3 16c4 d544 4b40 3d3d 89d3 7bb3 a2c0
00000260: 7185 4258 c9a8 a2c0 1b93 4307 9790 51c0
00000270: 2d9c 57d3 454c 4b40 73aa c341 dfb2 a2c0
00000280: 3e47 42a6 9ba7 a2c0 aa71 7a94 c38c 51c0
00000290: 3ead 1e67 3e54 4b40 c596 7ec1 40b2 a2c0
000002a0: 9736 c465 9da6 a2c0 b369 8113 0389 51c0
000002b0: 2fa8 4b16 f65a 4b40 bafc 0d52 a5b1 a2c0
000002c0: 8dc0 a7ec 81a5 a2c0 1ee4 27ea 2385 51c0
000002d0: ec29 5d19 7362 4b40 2373 4bf3 04b1 a2c0
000002e0: 2fd6 019a 8ea4 a2c0 af5c 84b8 d781 51c0
000002f0: 5227 89a1 de68 4b40 054b b885 7cb0 a2c0
00000300: 0ea4 a511 a5a3 a2c0 f873 cb97 977e 51c0
00000310: 7bcd e708 086f 4b40 0a45 560b f6af a2c0
00000320: 6ff8 7b06 b6a2 a2c0 5b82 4b8f 427b 51c0
00000330: 2641 a392 5375 4b40 c515 9973 6caf a2c0
00000340: fd4b a9b9 d3a1 a2c0 1ffb b4bf 0c78 51c0
00000350: 2ad9 741f 477b 4b40 4c1e 4813 e8ae a2c0
00000360: 5a52 5845 eea0 a2c0 aa3f d35e c974 51c0
00000370: f572 abe8 4f81 4b40 86e4 7d83 61ae a2c0
00000380: 6252 76bf fd9f a2c0 f49d 852c 8471 51c0
00000390: 05ae 6530 a287 4b40 e92c 93be daad a2c0
000003a0: 1c69 f3d6 269f a2c0 e74e c63e 8a6e 51c0
000003b0: 58fe fe20 488d 4b40 1bc8 7217 60ad a2c0
000003c0: 387a 6288 4e9e a2c0 20dd fd39 7d6b 51c0
000003d0: da14 44b0 f392 4b40 aee4 73b1 e2ac a2c0
000003e0: 86e2 960d 839d a2c0 9537 808e b068 51c0
000003f0: d289 71b3 4a98 4b40 c9a8 527f 6fac a2c0
00000400: 43e7 fbc3 b79c a2c0 a486 4d70 db65 51c0
00000410: 419b 276c a09d 4b40 f08b 90f1 faab a2c0
00000420: a920 5d4e e49b a2c0 fde7 1450 f262 51c0
00000430: 0e23 dfb9 28a3 4b40 e16a b589 83ab a2c0
00000440: 1bd7 109a 239b a2c0 8b57 51e7 4d60 51c0
00000450: b967 8269 33a8 4b40 f9cd dd24 17ab a2c0
00000460: f08f f3f9 669a a2c0 78fc 2d59 9e5d 51c0
00000470: 8218 dc70 20ad 4b40 098a fa2a a9aa a2c0
00000480: a9e7 e248 b699 a2c0 8cf4 c4b5 2a5b 51c0
00000490: 43d3 2146 bcb1 4b40 3551 52e5 44aa a2c0
000004a0: e9d8 13f0 0399 a2c0 ec83 d7cc b358 51c0
000004b0: f46f e428 63b6 4b40 55a4 dc19 e0a9 a2c0
000004c0: 6167 8b61 5898 a2c0 8bf2 2655 4856 51c0
000004d0: c448 d96c dbba 4b40 5b42 b13e 7da9 a2c0
000004e0: ac9e 0e23 b097 a2c0 86bb 062f e953 51c0
000004f0: 24e2 32a3 3bbf 4b40 9abe 0d86 1ca9 a2c0
00000500: dfa2 58e6 0d97 a2c0 2d0d ad30 ae51 51c0
00000510: f757 a3da 73c3 4b40 709b e58f c1a8 a2c0
00000520: 4543 c1c6 7196 a2c0 eaa0 2fdf 844f 51c0
00000530: 392b 416d 81c7 4b40 6b60 9d94 69a8 a2c0
00000540: 372d c70f d795 a2c0 f337 94f2 484d 51c0
00000550: 9026 48a3 85cb 4b40 f880 f6a3 0ea8 a2c0
00000560: f40b 31c9 3f95 a2c0 d753 2fad 2e4b 51c0
00000570: 4dc0 5dfe 72cf 4b40 2e09 310d b9a7 a2c0
00000580: 932e c44e a894 a2c0 852d 4b80 2049 51c0
00000590: 7e51 917c 5ed3 4b40 aa2a 0da7 65a7 a2c0
000005a0: ae3f b0cf 2a94 a2c0 9a09 15de 4647 51c0
000005b0: b0cb 6673 9bd6 4b40 3722 82cc 1aa7 a2c0
000005c0: 59c0 7c7f a693 a2c0 e6b2 96d6 7245 51c0
000005d0: 0aae 9d71 05da 4b40 9dbf b5d4 d0a6 a2c0
000005e0: e497 49be 2193 a2c0 2c6a 4ccb a643 51c0
000005f0: d71c cc21 75dd 4b40 8fdc fbe4 87a6 a2c0
00000600: e14c 297d a492 a2c0 22c0 9e30 ef41 51c0
00000610: 69a3 dd73 ade0 4b40 71d1 aeac 42a6 a2c0
00000620: b480 6adb 2c92 a2c0 efbf 229b 4740 51c0
00000630: 878b 1fc5 c0e3 4b40 ab8d 27fa ffa5 a2c0
00000640: 3ba9 96b4 b591 a2c0 97c1 5a24 b03e 51c0
00000650: 725a 3c1a d0e6 4b40 b11b b2e2 bfa5 a2c0
00000660: c650 5452 4a91 a2c0 7895 5202 3a3d 51c0
00000670: a418 fb11 92e9 4b40 031b 6309 85a5 a2c0
00000680: 0b78 70de da90 a2c0 62b6 659c bd3b 51c0
00000690: a2e1 5261 6dec 4b40 2ab1 3851 49a5 a2c0
000006a0: a783 5ab2 7890 a2c0 a105 3f72 653a 51c0
000006b0: e373 5195 f0ee 4b40 635e 015e 13a5 a2c0
000006c0: 5f9c beca 1490 a2c0 1361 c8a8 0439 51c0
000006d0: 8555 2e23 7ff1 4b40 1651 c710 dca4 a2c0
000006e0: 510f b174 b28f a2c0 2eb6 025c b037 51c0
000006f0: 80f4 bb20 03f4 4b40 9743 bbbe a6a4 a2c0
00000700: e865 befd 598f a2c0 0663 b40d 7536 51c0
00000710: 8f18 9c78 46f6 4b40 7451 3d57 75a4 a2c0
00000720: 58e9 f13b fe8e a2c0 e2cd 4247 3635 51c0
00000730: 1ffc 3e97 9df8 4b40 e62c 928a 43a4 a2c0
00000740: 31b0 c4e8 ab8e a2c0 64fd a001 1d34 51c0
00000750: 827a bad6 b6fa 4b40 897f ba9f 17a4 a2c0
00000760: a1d3 d463 598e a2c0 7b76 f3a7 f032 51c0
00000770: 0da6 f15a d1fc 4b40 3a8e 4cba e8a3 a2c0
00000780: 4b1c c704 088e a2c0 e802 5e3a db31 51c0
00000790: a05e fd2c e3fe 4b40 08db 4082 bda3 a2c0
000007a0: 2898 da59 c18d a2c0 010f acb1 e430 51c0
000007b0: 5c76 bb53 ae00 4c40 70f4 252f 97a3 a2c0
000007c0: 988e db43 7c8d a2c0 699a cc02 f32f 51c0
000007d0: 547d 8633 6f02 4c40 9dcf 169d 71a3 a2c0
000007e0: 423b 0e7d 368d a2c0 2ed4 cbcd fe2e 51c0
000007f0: 2a3f 3ce1 3404 4c40 7193 ca9f 4ba3 a2c0
