ws_icra2022/src/my_pkg/ur5_eye2hand/keyboard_adaptive_simplified/log_theta_z.npy (npy, 19296 bytes, 1 tensors)

array f8 [599, 4, 1]
000000 93 db bc 92 60 81 a4 3f 42 c3 cd 6f b9 f6 ef bf
       0.04004957 -0.99886772
000010 5f f7 0c 97 0b 4b 9a 3f 60 46 ca 79 73 36 ec 3f
       0.0256769 0.88164686
000020 eb 02 7a 28 b2 85 a4 3f 4f 7f dd ec d0 f7 ef bf
       0.04008251899813849 -0.9990009905122664
000030 eb b7 54 aa 1b 29 9a 3f 4b 64 db 9f 6f 34 ec 3f
       0.025547439833807955 0.8814008829314245
000040 eb 02 7a 28 b2 85 a4 3f 4f 7f dd ec d0 f7 ef bf
       0.04008251899813849 -0.9990009905122664
000050 eb b7 54 aa 1b 29 9a 3f 4b 64 db 9f 6f 34 ec 3f
       0.025547439833807955 0.8814008829314245
000060 c4 63 19 14 31 86 a4 3f 48 d7 3c 09 f1 f7 ef bf
       0.04008630152083684 -0.9990163021491094
000070 36 9b 21 cd 35 25 9a 3f f5 68 9c 5c 34 34 ec 3f
       0.025532570500583072 0.8813726242836127
000080 c4 63 19 14 31 86 a4 3f 48 d7 3c 09 f1 f7 ef bf
       0.04008630152083684 -0.9990163021491094
000090 36 9b 21 cd 35 25 9a 3f f5 68 9c 5c 34 34 ec 3f
       0.025532570500583072 0.8813726242836127
0000a0 3c 24 b1 f5 64 f0 a3 3f 5d 0d 2a 6b 57 d1 ef bf
       0.03894343852204726 -0.9943043797542647
0000b0 19 25 ba 4b 18 d2 9e 3f f3 13 42 97 7b 7b ec 3f
       0.030098323461548924 0.8900735811481567
0000c0 3c 24 b1 f5 64 f0 a3 3f 5d 0d 2a 6b 57 d1 ef bf
       0.03894343852204726 -0.9943043797542647
0000d0 19 25 ba 4b 18 d2 9e 3f f3 13 42 97 7b 7b ec 3f
       0.030098323461548924 0.8900735811481567
0000e0 2d 45 d8 b3 7e 76 a1 3f 63 a0 d5 d6 5b 26 ef bf
       0.034107169583999265 -0.9734324642167959
0000f0 e6 1b 64 3b aa b6 a9 3f 92 2c c7 ef ad b7 ed 3f
       0.05022174811352169 0.9286718066372421
000100 2d 45 d8 b3 7e 76 a1 3f 63 a0 d5 d6 5b 26 ef bf
       0.034107169583999265 -0.9734324642167959
000110 e6 1b 64 3b aa b6 a9 3f 92 2c c7 ef ad b7 ed 3f
       0.05022174811352169 0.9286718066372421
000120 a4 78 1b f1 dd 23 9e 3f 7d d6 ff ad 3a 78 ee bf
       0.029433696595213235 -0.9521764181542519
000130 c4 24 d8 3a 4d 13 b2 3f d6 41 e9 8d 36 fa ee 3f
       0.07060702025059401 0.9680435916616783
000140 f4 3d a8 c6 4c ca 99 3f 14 35 a2 64 db d4 ed bf
       0.025185775399277646 -0.9322335210323751
000150 c8 47 e5 ae 98 f4 b6 3f d3 f3 40 af 89 14 f0 3f
       0.08966974515831716 1.0050141187523323
000160 f4 3d a8 c6 4c ca 99 3f 14 35 a2 64 db d4 ed bf
       0.025185775399277646 -0.9322335210323751
000170 c8 47 e5 ae 98 f4 b6 3f d3 f3 40 af 89 14 f0 3f
       0.08966974515831716 1.0050141187523323
000180 13 97 a9 1f ee 5c 96 3f a2 38 7c 9b 80 4b ed bf
       0.021838875467799456 -0.9154665982075765
000190 ee 27 1e 47 54 08 bb 3f 3d 18 78 c4 0e 94 f0 3f
       0.10559584366106353 1.0361468958449358
0001a0 13 97 a9 1f ee 5c 96 3f a2 38 7c 9b 80 4b ed bf
       0.021838875467799456 -0.9154665982075765
0001b0 ee 27 1e 47 54 08 bb 3f 3d 18 78 c4 0e 94 f0 3f
       0.10559584366106353 1.0361468958449358
0001c0 23 02 3e 9c df 57 93 3f 16 08 2b e7 f6 c6 ec bf
       0.01888989821554977 -0.8992876544000434
0001d0 66 54 6f 35 b4 ee be 3f 88 c0 56 fa 4e 0f f1 3f
       0.12082983307421244 1.0662374285566631
0001e0 35 6d b5 a8 eb da 90 3f 75 fa a6 c2 ad 54 ec bf
       0.016460115596925468 -0.8853367616464555
0001f0 6f 10 d8 fa d8 23 c1 3f 16 72 be 41 a7 79 f1 3f
       0.13390648124925827 1.0922005241510582
000200 35 6d b5 a8 eb da 90 3f 75 fa a6 c2 ad 54 ec bf
       0.016460115596925468 -0.8853367616464555
000210 6f 10 d8 fa d8 23 c1 3f 16 72 be 41 a7 79 f1 3f
       0.13390648124925827 1.0922005241510582
000220 cc f1 d4 a8 ac 0a 8e 3f e6 bd f3 74 e5 f8 eb bf
       0.014668797399843302 -0.8741328510495208
000230 e1 4c 1e 81 6a 79 c2 3f fa 15 1a fd 25 cf f1 3f
       0.14433032326323939 1.1130733382027516
000240 cc f1 d4 a8 ac 0a 8e 3f e6 bd f3 74 e5 f8 eb bf
       0.014668797399843302 -0.8741328510495208
000250 e1 4c 1e 81 6a 79 c2 3f fa 15 1a fd 25 cf f1 3f
       0.14433032326323939 1.1130733382027516
000260 d3 ed 6c 6a 73 39 8b 3f f2 4e b3 c7 44 ab eb bf
       0.01329317253622878 -0.8646568203352827
000270 15 04 f9 03 e1 97 c3 3f aa f4 f6 cf 83 17 f2 3f
       0.15307247823696515 1.1307409404392197
000280 d3 ed 6c 6a 73 39 8b 3f f2 4e b3 c7 44 ab eb bf
       0.01329317253622878 -0.8646568203352827
000290 15 04 f9 03 e1 97 c3 3f aa f4 f6 cf 83 17 f2 3f
       0.15307247823696515 1.1307409404392197
0002a0 d3 ed 6c 6a 73 39 8b 3f f2 4e b3 c7 44 ab eb bf
       0.01329317253622878 -0.8646568203352827
0002b0 15 04 f9 03 e1 97 c3 3f aa f4 f6 cf 83 17 f2 3f
       0.15307247823696515 1.1307409404392197
0002c0 a4 75 03 36 fe 3d 88 3f f4 05 29 7d 27 4a eb bf
       0.01183699228607333 -0.852802032903297
0002d0 46 d3 0e 0a cd f9 c4 3f 2c c9 65 02 26 72 f2 3f
       0.16387331954106282 1.1528682798057828
0002e0 a4 75 03 36 fe 3d 88 3f f4 05 29 7d 27 4a eb bf
       0.01183699228607333 -0.852802032903297
0002f0 46 d3 0e 0a cd f9 c4 3f 2c c9 65 02 26 72 f2 3f
       0.16387331954106282 1.1528682798057828
000300 a7 e8 04 3f 46 b6 86 3f 51 0e 7a a4 e9 12 eb bf
       0.011089848325913044 -0.8460586750447395
000310 e7 e9 86 0f a9 c1 c5 3f 1d 92 e2 35 b7 a5 f2 3f
       0.16997254617838495 1.1654579262623266
000320 a7 e8 04 3f 46 b6 86 3f 51 0e 7a a4 e9 12 eb bf
       0.011089848325913044 -0.8460586750447395
000330 e7 e9 86 0f a9 c1 c5 3f 1d 92 e2 35 b7 a5 f2 3f
       0.16997254617838495 1.1654579262623266
000340 75 06 4b 64 cc 03 86 3f bb ab 9c 6d f6 f6 ea bf
       0.010749432383252636 -0.8426468029841695
000350 e6 62 f3 11 16 26 c6 3f 62 e8 e3 79 ce bf f2 3f
       0.17303729893207914 1.1718277703608
000360 e4 38 86 1a d3 87 85 3f 01 e8 e9 72 9e e2 ea bf
       0.010512971159894531 -0.8401634449394352
000370 c2 d6 e9 4e f7 6e c6 3f 32 0b 2b ba cb d2 f2 3f
       0.17526141503519993 1.1764638206665947
000380 e4 38 86 1a d3 87 85 3f 01 e8 e9 72 9e e2 ea bf
       0.010512971159894531 -0.8401634449394352
000390 c2 d6 e9 4e f7 6e c6 3f 32 0b 2b ba cb d2 f2 3f
       0.17526141503519993 1.1764638206665947
0003a0 b2 1e d2 80 a3 2e 85 3f bd 1b 26 33 c9 d2 ea bf
       0.01034286248092484 -0.8382307051659762
0003b0 15 56 19 39 6d a7 c6 3f 48 52 75 6d 92 e1 f2 3f
       0.1769844559482158 1.180071284839089
0003c0 b2 1e d2 80 a3 2e 85 3f bd 1b 26 33 c9 d2 ea bf
       0.01034286248092484 -0.8382307051659762
0003d0 15 56 19 39 6d a7 c6 3f 48 52 75 6d 92 e1 f2 3f
       0.1769844559482158 1.180071284839089
0003e0 88 c3 2e 89 f8 f5 84 3f d5 f9 0f 46 d3 c7 ea bf
       0.0102347771515683 -0.8368927353292813
0003f0 da f0 04 f5 55 ce c6 3f f7 33 f3 8e cc eb f2 3f
       0.17817186797936452 1.1825681289658385
000400 3f 4d 4a 1e 3a cc 84 3f ff 5e 7a 62 73 bf ea bf
       0.010155157136330415 -0.8358704493902848
000410 dd 9d 31 35 01 ec c6 3f 86 70 a7 a8 9c f3 f2 3f
       0.17907729241708994 1.1844755733536956
000420 3f 4d 4a 1e 3a cc 84 3f ff 5e 7a 62 73 bf ea bf
       0.010155157136330415 -0.8358704493902848
000430 dd 9d 31 35 01 ec c6 3f 86 70 a7 a8 9c f3 f2 3f
       0.17907729241708994 1.1844755733536956
000440 b6 4b 7c 02 f5 b2 84 3f 68 18 6e 25 12 ba ea bf
       0.010106958521225323 -0.8352137309127672
000450 fb 63 ca ff 02 ff c6 3f cc 01 a8 49 a1 f8 f2 3f
       0.17965733995222863 1.185700690955957
000460 b6 4b 7c 02 f5 b2 84 3f 68 18 6e 25 12 ba ea bf
       0.010106958521225323 -0.8352137309127672
000470 fb 63 ca ff 02 ff c6 3f cc 01 a8 49 a1 f8 f2 3f
       0.17965733995222863 1.185700690955957
000480 ba 6d 5b d0 9e a1 84 3f 41 ee d9 a3 2c b6 ea bf
       0.010073891385608092 -0.8347380829067746
000490 3f a5 0d ad be 0c c7 3f 55 b1 75 a7 43 fc f2 3f
       0.18007644128673836 1.1865879575153333
0004a0 ba 6d 5b d0 9e a1 84 3f 41 ee d9 a3 2c b6 ea bf
       0.010073891385608092 -0.8347380829067746
0004b0 3f a5 0d ad be 0c c7 3f 55 b1 75 a7 43 fc f2 3f
       0.18007644128673836 1.1865879575153333
0004c0 bf 4a b0 f0 b7 94 84 3f 07 4b c7 23 1c b3 ea bf
       0.010049283058866874 -0.8343640040205579
0004d0 1c 76 84 74 84 17 c7 3f 28 2f 5b 2e 1f ff f2 3f
       0.18040519418075085 1.1872855959690671
0004e0 37 f5 0b 34 5c 8c 84 3f 11 df 36 44 13 b1 ea bf
       0.010033340776767303 -0.8341156322776176
0004f0 f2 92 18 b2 a9 1e c7 3f 68 9a 0e da 04 01 f3 3f
       0.18062325664609308 1.1877487676480545
000500 37 f5 0b 34 5c 8c 84 3f 11 df 36 44 13 b1 ea bf
       0.010033340776767303 -0.8341156322776176
000510 f2 92 18 b2 a9 1e c7 3f 68 9a 0e da 04 01 f3 3f
       0.18062325664609308 1.1877487676480545
000520 07 8a ee f2 be 85 84 3f 94 1c 8c 2d 67 af ea bf
       0.010020725048723212 -0.8339115037532729
000530 63 44 ee a6 86 24 c7 3f 09 3a b5 f3 93 02 f3 3f
       0.1808021845904789 1.1881293792572498
000540 07 8a ee f2 be 85 84 3f 94 1c 8c 2d 67 af ea bf
       0.010020725048723212 -0.8339115037532729
000550 63 44 ee a6 86 24 c7 3f 09 3a b5 f3 93 02 f3 3f
       0.1808021845904789 1.1881293792572498
000560 a0 cf 9a 13 71 81 84 3f a3 aa 02 bc 45 ae ea bf
       0.01001251545981302 -0.8337734863356058
000570 c3 0d b4 c0 7b 28 c7 3f 81 54 b6 bd a1 03 f3 3f
       0.18092295560209778 1.1883866701730599
000580 f1 27 4d 54 53 7e 84 3f 14 24 b1 15 71 ad ea bf
       0.010006571779417302 -0.833672087065795
000590 a8 e3 4e 74 63 2b c7 3f 1d 44 de ed 67 04 f3 3f
       0.18101161173924862 1.1885756770827876
0005a0 f1 27 4d 54 53 7e 84 3f 14 24 b1 15 71 ad ea bf
       0.010006571779417302 -0.833672087065795
0005b0 a8 e3 4e 74 63 2b c7 3f 1d 44 de ed 67 04 f3 3f
       0.18101161173924862 1.1885756770827876
0005c0 96 38 21 1d 73 7c 84 3f a9 ec 0b ce ed ac ea bf
       0.010002993895025274 -0.8336094879481567
0005d0 76 98 9d 2d 2e 2d c7 3f 36 06 43 46 e2 04 f3 3f
       0.1810662958843669 1.18869235464116
0005e0 96 38 21 1d 73 7c 84 3f a9 ec 0b ce ed ac ea bf
       0.010002993895025274 -0.8336094879481567
0005f0 76 98 9d 2d 2e 2d c7 3f 36 06 43 46 e2 04 f3 3f
       0.1810662958843669 1.18869235464116
000600 e0 79 5c 31 c5 7a 84 3f d2 f7 31 8a 75 ac ea bf
       0.009999790734181724 -0.8335521411061058
000610 7e cf 73 fc d1 2e c7 3f b1 42 2b 57 52 05 f3 3f
       0.18111634089256862 1.1887992291487246
000620 e0 79 5c 31 c5 7a 84 3f d2 f7 31 8a 75 ac ea bf
       0.009999790734181724 -0.8335521411061058
000630 7e cf 73 fc d1 2e c7 3f b1 42 2b 57 52 05 f3 3f
       0.18111634089256862 1.1887992291487246
000640 d1 dc 00 1e 72 79 84 3f 4d 68 8f 57 14 ac ea bf
       0.009997264423971338 -0.8335057935867184
000650 44 95 28 01 25 30 c7 3f 75 ce e5 e7 ac 05 f3 3f
       0.18115675503319484 1.1888855989936051
000660 d1 dc 00 1e 72 79 84 3f 4d 68 8f 57 14 ac ea bf
       0.009997264423971338 -0.8335057935867184
000670 44 95 28 01 25 30 c7 3f 75 ce e5 e7 ac 05 f3 3f
       0.18115675503319484 1.1888855989936051
000680 d1 dc 00 1e 72 79 84 3f 4d 68 8f 57 14 ac ea bf
       0.009997264423971338 -0.8335057935867184
000690 44 95 28 01 25 30 c7 3f 75 ce e5 e7 ac 05 f3 3f
       0.18115675503319484 1.1888855989936051
0006a0 35 05 95 18 6c 78 84 3f 0a 76 01 72 c7 ab ea bf
       0.00999531221407555 -0.8334691263841603
0006b0 14 f2 58 f2 30 31 c7 3f c5 67 30 8b f4 05 f3 3f
       0.1811886962258461 1.1889539181779452
0006c0 35 05 95 18 6c 78 84 3f 0a 76 01 72 c7 ab ea bf
       0.00999531221407555 -0.8334691263841603
0006d0 14 f2 58 f2 30 31 c7 3f c5 67 30 8b f4 05 f3 3f
       0.1811886962258461 1.1889539181779452
0006e0 ea 59 73 de ee 77 84 3f 34 a0 99 20 a2 ab ea bf
       0.009994379199651033 -0.8334513317795484
0006f0 d1 84 10 ec b2 31 c7 3f 6b bc 0c 4f 17 06 f3 3f
       0.1812041905077764 1.1889870727425442
000700 d2 76 e0 b2 b3 77 84 3f d9 b8 40 6a 90 ab ea bf
       0.009993938347231977 -0.833442885899582
000710 cf a2 70 98 f0 31 c7 3f d1 79 0b cf 27 06 f3 3f
       0.1812115425430165 1.1890028083504272
000720 d2 76 e0 b2 b3 77 84 3f d9 b8 40 6a 90 ab ea bf
       0.009993938347231977 -0.833442885899582
000730 cf a2 70 98 f0 31 c7 3f d1 79 0b cf 27 06 f3 3f
       0.1812115425430165 1.1890028083504272
000740 ba 02 bc 3a 8b 77 84 3f 7b 45 03 31 84 ab ea bf
       0.009993636827404163 -0.8334370572357978
000750 98 59 73 25 1b 32 c7 3f b0 81 02 32 33 06 f3 3f
       0.18121661499635588 1.1890136674411274
000760 ba 02 bc 3a 8b 77 84 3f 7b 45 03 31 84 ab ea bf
       0.009993636827404163 -0.8334370572357978
000770 98 59 73 25 1b 32 c7 3f b0 81 02 32 33 06 f3 3f
       0.18121661499635588 1.1890136674411274
000780 48 3f 5f 4f 71 77 84 3f cf 8d 39 4e 7c ab ea bf
       0.009993443712943098 -0.8334332969501989
000790 6c 00 9e 96 36 32 c7 3f 87 77 6e 8a 3a 06 f3 3f
       0.18121988634448216 1.1890206725579178
0007a0 f3 b3 6a 05 4c 77 84 3f 85 a6 fd e6 70 ab ea bf
       0.009993165889079924 -0.8334278594531531
0007b0 ae 5e 90 44 5e 32 c7 3f 45 e8 ac 29 45 06 f3 3f
       0.18122461650704252 1.1890308025308667
0007c0 f3 b3 6a 05 4c 77 84 3f 85 a6 fd e6 70 ab ea bf
       0.009993165889079924 -0.8334278594531531
0007d0 ae 5e 90 44 5e 32 c7 3f 45 e8 ac 29 45 06 f3 3f
       0.18122461650704252 1.1890308025308667
0007e0 21 2e ea 8f 3d 77 84 3f 7e 1a 4b 75 6c ab ea bf
       0.00999305816119206 -0.8334257403265182
0007f0 7d 32 71 ba 6d 32 c7 3f 2c 77 62 4d 49 06 f3 3f
       0.18122645953771502 1.1890347502553125
