ws_icra2022/src/my_pkg/ur5_eye2hand/keyboard_adaptive/log_theta_z.npy (npy, 62424 bytes, 1 tensors)

array f8 [599, 13, 1]
00000000: 0000 0000 0000 0000 0000 0000 0000 0000
00000010: 0000 0000 0000 0000 0000 0000 0000 0000
00000020: 0000 0000 0000 0000 0000 0000 0000 0000
00000030: 0000 0000 0000 0000 0000 0000 0000 0000
00000040: 0000 0000 0000 0000 0a54 6ebe ebb5 e53f
00000050: 330a d50f e281 e7bf 3414 5c17 866c 7dbf
00000060: cdcc cccc cccc ec3f 0000 0000 0000 0000
00000070: 0000 0000 0000 0000 0000 0000 0000 0000
00000080: 0000 0000 0000 0000 0000 0000 0000 0000
00000090: 0000 0000 0000 0000 0000 0000 0000 0000
000000a0: 0000 0000 0000 0000 0000 0000 0000 0000
000000b0: 0a54 6ebe ebb5 e53f 330a d50f e281 e7bf
000000c0: 3414 5c17 866c 7dbf cdcc cccc cccc ec3f
000000d0: 80dc a72c 4752 b13e b9fa 7704 1643 ba3e
000000e0: 94dc 88a7 4a5a b83e ade4 16d1 e651 ba3e
000000f0: a954 097d 0dae bbbe 4f28 8034 4b42 a63e
00000100: a90a 00b6 464a b8be ddda 6ed0 dd87 a6be
00000110: a96a 5eab ee6c bd3e 3d8e 9466 eeb5 e53f
00000120: fcdc 0dd9 e381 e7bf 7346 7520 866d 7dbf
00000130: 49da b4d3 c7cc ec3f 80dc a72c 4752 b13e
00000140: b9fa 7704 1643 ba3e 94dc 88a7 4a5a b83e
00000150: ade4 16d1 e651 ba3e a954 097d 0dae bbbe
00000160: 4f28 8034 4b42 a63e a90a 00b6 464a b8be
00000170: ddda 6ed0 dd87 a6be a96a 5eab ee6c bd3e
00000180: 3d8e 9466 eeb5 e53f fcdc 0dd9 e381 e7bf
00000190: 7346 7520 866d 7dbf 49da b4d3 c7cc ec3f
000001a0: 5097 c049 744b 8a3e c006 e4ec 15f9 933e
000001b0: 50db 8de3 da7f 923e 44e1 1160 5e0f 943e
000001c0: cc4b ee04 08ff 94be 781e abdb 08d3 803e
000001d0: 3049 e017 bc67 92be a41d 4d7c b93b 81be
000001e0: 3ced ec20 1f62 963e c234 e73f ecb5 e53f
000001f0: 86ee 7066 e281 e7bf 5d49 97d7 b66c 7dbf
00000200: 97b4 f0da cbcc ec3f 5097 c049 744b 8a3e
00000210: c006 e4ec 15f9 933e 50db 8de3 da7f 923e
00000220: 44e1 1160 5e0f 943e cc4b ee04 08ff 94be
00000230: 781e abdb 08d3 803e 3049 e017 bc67 92be
00000240: a41d 4d7c b93b 81be 3ced ec20 1f62 963e
00000250: c234 e73f ecb5 e53f 86ee 7066 e281 e7bf
00000260: 5d49 97d7 b66c 7dbf 97b4 f0da cbcc ec3f
00000270: febb e670 8ad1 06bf 701d f372 3e45 11bf
00000280: 1a8b 36e4 1308 10bf affd 3012 1745 11bf
00000290: be74 5a1f 263f 123f 249b b2ca 0877 fdbe
000002a0: 6bd4 7d6d 3e08 103f f5b9 f313 9775 fd3e
000002b0: a0e1 a4aa fd57 13bf b214 c113 7cb5 e53f
000002c0: 4e62 bfa2 9681 e7bf fc8c 707d 8242 7dbf
000002d0: a9a9 c03f 9ecd ec3f febb e670 8ad1 06bf
000002e0: 701d f372 3e45 11bf 1a8b 36e4 1308 10bf
000002f0: affd 3012 1745 11bf be74 5a1f 263f 123f
00000300: 249b b2ca 0877 fdbe 6bd4 7d6d 3e08 103f
00000310: f5b9 f313 9775 fd3e a0e1 a4aa fd57 13bf
00000320: b214 c113 7cb5 e53f 4e62 bfa2 9681 e7bf
00000330: fc8c 707d 8242 7dbf a9a9 c03f 9ecd ec3f
00000340: 94c1 4511 5ae5 15bf fba0 5cf8 7c8f 20bf
00000350: 8b2f 144a acc2 1ebf 490c d2de f58a 20bf
00000360: 6c65 c83a 0c84 213f 14a4 dade 7d56 0cbf
00000370: 3cba 8d64 65cc 1e3f d818 a950 152c 0c3f
00000380: 9bd8 ad7a 868b 22bf 2f48 2dbc 15b5 e53f
00000390: 3022 6630 5181 e7bf ec9e 59f7 071c 7dbf
000003a0: 683d 599b 5ece ec3f 94c1 4511 5ae5 15bf
000003b0: fba0 5cf8 7c8f 20bf 8b2f 144a acc2 1ebf
000003c0: 490c d2de f58a 20bf 6c65 c83a 0c84 213f
000003d0: 14a4 dade 7d56 0cbf 3cba 8d64 65cc 1e3f
000003e0: d818 a950 152c 0c3f 9bd8 ad7a 868b 22bf
000003f0: 2f48 2dbc 15b5 e53f 3022 6630 5181 e7bf
00000400: ec9e 59f7 071c 7dbf 683d 599b 5ece ec3f
00000410: f3e2 aec5 0779 21bf 24ae aac3 3369 2abf
00000420: 4487 f5b5 f18a 28bf ebea 80a7 ce58 2abf
00000430: 7cf9 b78e 7ff8 2b3f fc0b efdb 69af 16bf
00000440: ec3d c9e2 7f9c 283f 9ebb 9623 ba62 163f
00000450: 98c4 0c9a 0591 2dbf 4821 73b9 96b4 e53f
00000460: a869 fd94 fa80 e7bf d4e8 9e6f 51ec 7cbf
00000470: ae4b f3d5 4dcf ec3f 20db 670a d18b 27bf
00000480: 3ef5 b4bb f4c8 31bf 6f79 4814 d888 30bf
00000490: 36d6 73aa 8fb9 31bf c494 37cd 92da 323f
000004a0: e835 da4c d4a2 1ebf 8881 9667 4d99 303f
000004b0: 446f 7579 e812 1e3f 9c1e ab71 eee7 33bf
000004c0: e51d 09bb 20b4 e53f f2e6 18e0 a980 e7bf
000004d0: c547 987c 00c0 7cbf 2dc2 f862 2cd0 ec3f
000004e0: 20db 670a d18b 27bf 3ef5 b4bb f4c8 31bf
000004f0: 6f79 4814 d888 30bf 36d6 73aa 8fb9 31bf
00000500: c494 37cd 92da 323f e835 da4c d4a2 1ebf
00000510: 8881 9667 4d99 303f 446f 7579 e812 1e3f
00000520: 9c1e ab71 eee7 33bf e51d 09bb 20b4 e53f
00000530: f2e6 18e0 a980 e7bf c547 987c 00c0 7cbf
00000540: 2dc2 f862 2cd0 ec3f 8058 641c 2575 2dbf
00000550: c01f 2785 783c 36bf 17b5 2489 9dae 34bf
00000560: 7a9b f53a 8823 36bf 641e ed92 9c98 373f
00000570: c970 8e5f be34 23bf ba62 0993 39c9 343f
00000580: 4f02 efd4 43c0 223f b4d0 6573 0be2 38bf
00000590: 06e6 e733 aeb3 e53f 8ab7 ba2e 5b80 e7bf
000005a0: 1a7f 1722 0495 7cbf e12e c0d5 04d1 ec3f
000005b0: 8058 641c 2575 2dbf c01f 2785 783c 36bf
000005c0: 17b5 2489 9dae 34bf 7a9b f53a 8823 36bf
000005d0: 641e ed92 9c98 373f c970 8e5f be34 23bf
000005e0: ba62 0993 39c9 343f 4f02 efd4 43c0 223f
000005f0: b4d0 6573 0be2 38bf 06e6 e733 aeb3 e53f
00000600: 8ab7 ba2e 5b80 e7bf 1a7f 1722 0495 7cbf
00000610: e12e c0d5 04d1 ec3f cc46 c5a7 d98b 31bf
00000620: 2da1 c329 8e78 3abf 0805 1509 f4a1 38bf
00000630: 7ffd 24fe 3854 3abf 51b5 6a92 8f1e 3c3f
00000640: 7da5 46d0 28ed 26bf c201 75e0 a3c8 383f
00000650: b980 54d4 9843 263f f711 1c69 f29d 3dbf
00000660: f6d7 e961 41b3 e53f 989b 6e0d 1080 e7bf
00000670: 7637 1df5 306c 7cbf 0d31 ddec d2d1 ec3f
00000680: c986 4da1 357d 34bf 644b 34fc 1ae4 3ebf
00000690: 5be9 0795 04c2 3cbf 8029 d4cf a6b2 3ebf
000006a0: 8404 8f32 396c 403f 78c4 354d 32d2 2abf
000006b0: 166d 7448 97f6 3c3f e25a 4ae3 8aeb 293f
000006c0: 6d81 4c3c 5147 41bf 7b52 56e1 cfb2 e53f
000006d0: 2bfb af84 c17f e7bf e93a d2a4 9d41 7cbf
000006e0: e59e c219 aad2 ec3f c986 4da1 357d 34bf
000006f0: 644b 34fc 1ae4 3ebf 5be9 0795 04c2 3cbf
00000700: 8029 d4cf a6b2 3ebf 8404 8f32 396c 403f
00000710: 78c4 354d 32d2 2abf 166d 7448 97f6 3c3f
00000720: e25a 4ae3 8aeb 293f 6d81 4c3c 5147 41bf
00000730: 7b52 56e1 cfb2 e53f 2bfb af84 c17f e7bf
00000740: e93a d2a4 9d41 7cbf e59e c219 aad2 ec3f
00000750: fdd3 db5b d44e 37bf f39d 6a6b ff8e 41bf
00000760: cc8e 3168 6a5a 40bf 1c6e 9bb3 ad6e 41bf
00000770: f83c a14a 15b0 423f 4dd8 10e3 af91 2ebf
00000780: e48e 183a b57c 403f 7a09 08e8 6d64 2d3f
00000790: 4ef5 7dad b0a3 43bf 9e48 5184 63b2 e53f
000007a0: 2207 ac28 767f e7bf e679 b594 fd18 7cbf
000007b0: 2cb4 38fd 77d3 ec3f 2857 fb0c 2bb1 39bf
000007c0: 4802 273b 3858 43bf eb9b c31d d105 42bf
000007d0: 482f 840a 0831 43bf 7c67 5e94 b39a 443f
000007e0: 4754 57d3 6ddf 30bf a9f8 7e4e 572f 423f
000007f0: 4e52 b49e e128 303f 70df 0f58 6da2 45bf
0.0 0.0 0.0 0.0 0.0 0.0 0.0 0.0
0.0 0.678457138 -0.734604865 -0.00718357448 0.9 0.0 0.0 0.0
0.0 0.0 0.0 0.0 0.0 0.0 0.678457138 -0.734604865
-0.00718357448 0.9 1.0324358067340296e-06 1.5653404420443077e-06 1.4515341303486755e-06 1.5687899729123942e-06 -1.6498502085811426e-06 6.633687030810177e-07
-1.4478052534633529e-06 -6.714680303919122e-07 1.7538974765643012e-06 0.678458404876842 -0.7346057166422777 -0.007184528286715885 0.8999976286784853 1.0324358067340296e-06
1.5653404420443077e-06 1.4515341303486755e-06 1.5687899729123942e-06 -1.6498502085811426e-06 6.633687030810177e-07 -1.4478052534633529e-06 -6.714680303919122e-07 1.7538974765643012e-06
0.678458404876842 -0.7346057166422777 -0.007184528286715885 0.8999976286784853 1.9591110323005483e-07 2.976207554989756e-07 2.7566304399518033e-07 2.989177972433086e-07
-3.1286800077876015e-07 1.2535120482423497e-07 -2.7425905802057993e-07 -1.2839808341046745e-07 3.33536974861821e-07 0.678457379160726 -0.7346050263217456 -0.007183756091267615
0.8999995495011203 1.9591110323005483e-07 2.976207554989756e-07 2.7566304399518033e-07 2.989177972433086e-07 -3.1286800077876015e-07 1.2535120482423497e-07 -2.7425905802057993e-07
-1.2839808341046745e-07 3.33536974861821e-07 0.678457379160726 -0.7346050263217456 -0.007183756091267615 0.8999995495011203 -4.352287043062757e-05 -6.588166864950561e-05
-6.115552337475038e-05 -6.587937655044036e-05 6.960554295650214e-05 -2.8099992658649157e-05 6.115799931001731e-05 2.8094612614043867e-05 -7.379041440891973e-05 0.678403891165223
-0.7345688990272465 -0.007143506743008784 0.9000998730819464 -4.352287043062757e-05 -6.588166864950561e-05 -6.115552337475038e-05 -6.587937655044036e-05 6.960554295650214e-05
-2.8099992658649157e-05 6.115799931001731e-05 2.8094612614043867e-05 -7.379041440891973e-05 0.678403891165223 -0.7345688990272465 -0.007143506743008784 0.9000998730819464
-8.352625110830673e-05 -0.00012634659304323185 -0.00011734177180161406 -0.00012621165607038163 0.00013363503730160918 -5.405017496446659e-05 0.00011748665668929401 5.373420761549543e-05
-0.000141487279815504 0.67835509064958 -0.734535784272401 -0.007106810682308878 0.9001915964271747 -8.352625110830673e-05 -0.00012634659304323185 -0.00011734177180161406
-0.00012621165607038163 0.00013363503730160918 -5.405017496446659e-05 0.00011748665668929401 5.373420761549543e-05 -0.000141487279815504 0.67835509064958 -0.734535784272401
-0.007106810682308878 0.9001915964271747 -0.0001333066928433029 -0.0002014995278235436 -0.00018724632807747877 -0.00020101091991072488 0.00021339947794269873 -8.65372048642204e-05
0.00018776951891873118 8.53944883576333e-05 -0.00022557443028284742 0.6782945272507641 -0.7344944868048531 -0.007061308011481599 0.9003056696623071 -0.00017964293256486023
-0.0002713773244130308 -0.000252297166555857 -0.0002704597231536239 0.0002876861956038863 -0.00011686726358047623 0.00025327815782285506 0.00011472267066408882 -0.000303741182204645
0.6782382634200387 -0.7344560028934366 -0.007019044781843624 0.9004117901841419 -0.00017964293256486023 -0.0002713773244130308 -0.000252297166555857 -0.0002704597231536239
0.0002876861956038863 -0.00011686726358047623 0.00025327815782285506 0.00011472267066408882 -0.000303741182204645 0.6782382634200387 -0.7344560028934366 -0.007019044781843624
0.9004117901841419 -0.00022474363340369355 -0.0003392976988405537 -0.0003155836685831566 -0.0003378112405329408 0.00036004850965241073 -0.00014653037922308088 0.0003171697199256075
0.0001430590441185036 -0.0003796842533099296 0.6781836522852138 -0.734418479221618 -0.006978050370406464 0.9005150008028658 -0.00022474363340369355 -0.0003392976988405537
-0.0003155836685831566 -0.0003378112405329408 0.00036004850965241073 -0.00014653037922308088 0.0003171697199256075 0.0001430590441185036 -0.0003796842533099296 0.6781836522852138
-0.734418479221618 -0.006978050370406464 0.9005150008028658 -0.0002677351365224345 -0.00040391417293374443 -0.00037586410424601856 -0.00040174857544524734 0.0004290676610406346
-0.00017491458141919914 0.0003781700219924988 0.00016986122697293884 -0.00045191925265466955 0.6781317627307988 -0.7343826544136958 -0.006939116706986206 0.9006132723093586
-0.00031263884857511394 -0.0004713598138589763 -0.0004388104617018184 -0.00046841213755102057 0.0005011824879305325 -0.00020462860139106357 0.000441944059689185 0.0001977545777165002
-0.0005273005159303464 0.6780776406399832 -0.7343452064086241 -0.006898513599607561 0.9007158759240751 -0.00031263884857511394 -0.0004713598138589763 -0.0004388104617018184
-0.00046841213755102057 0.0005011824879305325 -0.00020462860139106357 0.000441944059689185 0.0001977545777165002 -0.0005273005159303464 0.6780776406399832 -0.7343452064086241
-0.006898513599607561 0.9007158759240751 -0.0003556507543714392 -0.0005358454862588999 -0.0004990596356830523 -0.0005319927360817908 0.0005703071558488529 -0.00023322364862260678
0.0005031475922731812 0.00022424546843076068 -0.0005993473705384973 0.6780259689642383 -0.7343092722296414 -0.00685977034603844 0.9008140512211233 -0.00039202977221229835
-0.0005903505864851078 -0.0005500098300473799 -0.0005856789839824095 0.0006287934163424626 -0.00025745803153870813 0.0005549598981742415 0.0002465773420266313 -0.0006602319627963937
