ws_icra2022/src/my_pkg/ur5_eye2hand/z_fixed_keyboard_adaptive/log_theta_k.npy (npy, 9952 bytes, 1 tensors)

array f8 [307, 4, 1]
00000000: e6e1 a9ec 9842 a2c0 392c 68b5 1bd8 4dc0
00000010: 5f8f d321 8108 4f40 ecc5 ab07 ef44 a2c0
00000020: bfcb a9ec 9842 a2c0 4fa3 26b5 1bd8 4dc0
00000030: b3b2 d721 8108 4f40 0e02 ab07 ef44 a2c0
00000040: 692c aaec 9842 a2c0 58ca e5b4 1bd8 4dc0
00000050: 45a4 c521 8108 4f40 3e40 aa07 ef44 a2c0
00000060: eec1 05e6 9842 a2c0 a927 80d9 1ad8 4dc0
00000070: ac2f 675f 8208 4f40 ea87 1a05 ef44 a2c0
00000080: fea7 42db 9842 a2c0 672f 6121 19d8 4dc0
00000090: 7c13 db61 8408 4f40 f09b f7ff ee44 a2c0
000000a0: 2828 30cc 9842 a2c0 9e29 625a 16d8 4dc0
000000b0: 43d0 5732 8708 4f40 1769 abf7 ee44 a2c0
000000c0: 144e d0b8 9842 a2c0 fd2f 7471 12d8 4dc0
000000d0: 66c5 1ad0 8a08 4f40 b337 feeb ee44 a2c0
000000e0: bb9a 25a2 9842 a2c0 b06b 9988 0dd8 4dc0
000000f0: 334a 2f0b 8f08 4f40 ddb9 54dd ee44 a2c0
00000100: fe0f 9289 9842 a2c0 6a2d b3c1 08d8 4dc0
00000110: 841e 5ba1 9308 4f40 4c1c 11cf ee44 a2c0
00000120: d676 0773 9842 a2c0 f9ba f164 04d8 4dc0
00000130: b015 4ed6 9708 4f40 8b71 0ac2 ee44 a2c0
00000140: d927 3b58 9842 a2c0 64cc d681 ffd7 4dc0
00000150: c942 90d6 9c08 4f40 81c7 72b3 ee44 a2c0
00000160: d057 5c42 9842 a2c0 82bf 5e30 fbd7 4dc0
00000170: 6345 29ea a008 4f40 1fe5 91a6 ee44 a2c0
00000180: a75a bf2a 9842 a2c0 95a5 81bf f6d7 4dc0
00000190: aaab ec50 a508 4f40 8561 5399 ee44 a2c0
000001a0: 4613 7912 9842 a2c0 f881 abf3 f1d7 4dc0
000001b0: de13 10d8 a908 4f40 71f6 028b ee44 a2c0
000001c0: 7887 d1fc 9742 a2c0 e76b 94b5 edd7 4dc0
000001d0: 8cd8 cddf ad08 4f40 29bf 607e ee44 a2c0
000001e0: e7ea 18e8 9742 a2c0 11cb 76b4 e9d7 4dc0
000001f0: 4d6d 13bb b108 4f40 891a 7472 ee44 a2c0
00000200: ce7c e4d0 9742 a2c0 a6ee 0f40 e5d7 4dc0
00000210: fb6b 690d b608 4f40 36eb 2d65 ee44 a2c0
00000220: b235 60bc 9742 a2c0 6b4f 1a1f e1d7 4dc0
00000230: c25d 96df b908 4f40 6660 e058 ee44 a2c0
00000240: 5506 eaa5 9742 a2c0 de95 7390 dcd7 4dc0
00000250: abda 370c be08 4f40 0e5b 534b ee44 a2c0
00000260: 1605 2c92 9742 a2c0 5fe0 2179 d8d7 4dc0
00000270: 848d 3cb7 c108 4f40 fdef 293f ee44 a2c0
00000280: 0226 2b7d 9742 a2c0 c4f5 5367 d4d7 4dc0
00000290: 8613 3e9e c508 4f40 d4e9 1033 ee44 a2c0
000002a0: 7af5 5b69 9742 a2c0 69d6 0484 d0d7 4dc0
000002b0: 349e 994a c908 4f40 dced 8727 ee44 a2c0
000002c0: 1296 9655 9742 a2c0 0cc1 f1b5 ccd7 4dc0
000002d0: ab25 23f5 cc08 4f40 16f2 3d1c ee44 a2c0
000002e0: d2f4 8d40 9742 a2c0 41e4 ae88 c8d7 4dc0
000002f0: e2c3 7ddb d008 4f40 65f3 d90f ee44 a2c0
00000300: ac3a 012e 9742 a2c0 892a 67a7 c4d7 4dc0
00000310: 1c5a 264b d408 4f40 4403 5a04 ee44 a2c0
00000320: f1c4 721a 9742 a2c0 8f21 45d5 c0d7 4dc0
00000330: 740e 8dea d708 4f40 0cf8 06f9 ed44 a2c0
00000340: e963 f405 9742 a2c0 0910 cd0f bdd7 4dc0
00000350: 4ebd 15b6 db08 4f40 4d5f daed ed44 a2c0
00000360: fad7 3df3 9642 a2c0 7454 dc5d b9d7 4dc0
00000370: f9fb 342d df08 4f40 21a3 e7e2 ed44 a2c0
00000380: e816 a4df 9642 a2c0 cf87 0fa8 b5d7 4dc0
00000390: cfda 96cc e208 4f40 31f6 eed7 ed44 a2c0
000003a0: 452a 80ce 9642 a2c0 02b6 9c3f b2d7 4dc0
000003b0: 7596 5ef8 e508 4f40 0b78 d8cd ed44 a2c0
000003c0: edd1 11bd 9642 a2c0 dcfb e1b1 aed7 4dc0
000003d0: aff2 ea31 e908 4f40 6f9f 53c3 ed44 a2c0
000003e0: ffb6 c4aa 9642 a2c0 35bf e63a abd7 4dc0
000003f0: 72d8 5393 ec08 4f40 6933 16b9 ed44 a2c0
00000400: 0c5f 169a 9642 a2c0 fa27 a216 a8d7 4dc0
00000410: 350c 84a6 ef08 4f40 d814 d2af ed44 a2c0
00000420: 3c85 de89 9642 a2c0 4e34 ade7 a4d7 4dc0
00000430: 0f81 dca3 f208 4f40 9d6f 6ea6 ed44 a2c0
00000440: 8802 9378 9642 a2c0 4353 859b a1d7 4dc0
00000450: f463 99d3 f508 4f40 93f5 b59c ed44 a2c0
00000460: 7f4b b168 9642 a2c0 c6cf 707c 9ed7 4dc0
00000470: 3cc0 adc0 f808 4f40 4b5c 8293 ed44 a2c0
00000480: 7bf1 e558 9642 a2c0 6e9f b46a 9bd7 4dc0
00000490: fcf3 28a9 fb08 4f40 6a96 778a ed44 a2c0
000004a0: d2da fe48 9642 a2c0 669f 605f 98d7 4dc0
000004b0: 3e8f bf96 fe08 4f40 86b0 7f81 ed44 a2c0
000004c0: 9bcc b439 9642 a2c0 6f0b 815a 95d7 4dc0
000004d0: a044 6c67 0109 4f40 aace 9a78 ed44 a2c0
000004e0: 1a0b 5b2a 9642 a2c0 aa1c d256 92d7 4dc0
000004f0: 583e f738 0409 4f40 1ec9 bf6f ed44 a2c0
00000500: c583 931b 9642 a2c0 902f 605c 8fd7 4dc0
00000510: 58ed a8ef 0609 4f40 65e7 ff66 ed44 a2c0
00000520: 5ea1 8b0c 9642 a2c0 99bf 0279 8cd7 4dc0
00000530: 378d 48b1 0909 4f40 708d 865e ed44 a2c0
00000540: 2561 86ff 9542 a2c0 d385 55ef 89d7 4dc0
00000550: 079d 8814 0c09 4f40 6f5a 1457 ed44 a2c0
00000560: 0f14 55f1 9542 a2c0 2ac2 df2d 87d7 4dc0
00000570: 9654 01ae 0e09 4f40 f0f8 004f ed44 a2c0
00000580: 86f4 20e4 9542 a2c0 a543 b294 84d7 4dc0
00000590: c4dd 1a19 1109 4f40 fea3 6347 ed44 a2c0
000005a0: 3ca4 afd7 9542 a2c0 1465 e9ff 81d7 4dc0
000005b0: d85c 7b5f 1309 4f40 f2a3 d63f ed44 a2c0
000005c0: 1b8a 84cb 9542 a2c0 5458 b4aa 7fd7 4dc0
000005d0: fb9b 0599 1509 4f40 b99f 0339 ed44 a2c0
000005e0: a067 60be 9542 a2c0 936d 693d 7dd7 4dc0
000005f0: e1da 7ffe 1709 4f40 ebdb ee31 ed44 a2c0
00000600: b67d f6b2 9542 a2c0 5b2f 1cf3 7ad7 4dc0
00000610: 4a97 5513 1a09 4f40 3230 402b ed44 a2c0
00000620: 7e2f d7a6 9542 a2c0 9207 d191 78d7 4dc0
00000630: 1976 c948 1c09 4f40 5be1 4f24 ed44 a2c0
00000640: 2e05 ca9b 9542 a2c0 b301 1557 76d7 4dc0
00000650: e6dd 494c 1e09 4f40 62fc cf1d ed44 a2c0
00000660: 280f b190 9542 a2c0 65d8 5a20 74d7 4dc0
00000670: cdfe e550 2009 4f40 c218 5f17 ed44 a2c0
00000680: 79cc 4386 9542 a2c0 a837 f817 72d7 4dc0
00000690: ee14 9335 2209 4f40 e441 7711 ed44 a2c0
000006a0: 3844 ba7b 9542 a2c0 507e 3b0a 70d7 4dc0
000006b0: 1258 621f 2409 4f40 94de 7f0b ed44 a2c0
000006c0: 61f3 1371 9542 a2c0 6ccd 2507 6ed7 4dc0
000006d0: 4e01 ca0d 2609 4f40 5356 a905 ed44 a2c0
000006e0: b577 3667 9542 a2c0 0690 7913 6cd7 4dc0
000006f0: 801f c6d7 2709 4f40 e785 ffff ec44 a2c0
00000700: 2aa4 695d 9542 a2c0 2970 7422 6ad7 4dc0
00000710: 2630 649e 2909 4f40 5681 5efa ec44 a2c0
00000720: 1fe5 be53 9542 a2c0 8add 5841 68d7 4dc0
00000730: 92b4 c65d 2b09 4f40 01e9 eef4 ec44 a2c0
00000740: 7d7a 834a 9542 a2c0 27d1 ad7a 66d7 4dc0
00000750: 93ea 0809 2d09 4f40 80ca cbef ec44 a2c0
00000760: c433 0441 9542 a2c0 c1ff 08b5 64d7 4dc0
00000770: 7c93 ebbf 2e09 4f40 558c adea ec44 a2c0
00000780: 76cd 3738 9542 a2c0 46be 5a01 63d7 4dc0
00000790: 5ef3 8356 3009 4f40 0630 c3e5 ec44 a2c0
000007a0: 7525 652f 9542 a2c0 bafc 5941 61d7 4dc0
000007b0: 5682 f9ed 3109 4f40 5414 b6e0 ec44 a2c0
000007c0: 1ac7 2f27 9542 a2c0 45cc 7eb0 5fd7 4dc0
000007d0: a6ad 7568 3309 4f40 90e2 32dc ec44 a2c0
000007e0: 02cd df1e 9542 a2c0 54c0 381d 5ed7 4dc0
000007f0: debb bce7 3409 4f40 5db9 a8d7 ec44 a2c0
-2337.2986806 -59.6883456 62.0664408 -2338.4668554 -2337.298680597421 -59.68834556948297 62.06644080192691 -2338.466855377198
-2337.298680608674 -59.68834553928599 62.06644079351876 -2338.4668553546353 -2337.29862993233 -59.68831938512387 62.066478658088585 -2338.4668358126555
-2337.2985478239125 -59.68826691861505 62.06653998562885 -2338.4667966249326 -2337.2984328316707 -59.68818216126532 62.06662587440271 -2338.4667333188804
-2337.2982850165663 -59.68806284115997 62.066736233779736 -2338.466644233989 -2337.298112082613 -59.68791301242106 62.06686534699511 -2338.466532371224
-2337.2979245800516 -59.68776723145386 62.06700531911068 -2338.4664235446016 -2337.2977526028217 -59.68763410380593 62.06713370144587 -2338.4663241637804
-2337.2975481496946 -59.68748496044353 62.06728632015217 -2338.466212832311 -2337.2973812920754 -59.687353178275785 62.06741072669208 -2338.466114577502
-2337.297201137367 -59.68721765356455 62.06754504734211 -2338.466013532309 -2337.2970159374263 -59.68707128404998 62.06768322739639 -2338.465904324134
-2337.296850726878 -59.68694181201118 62.067806220541655 -2338.465807936988 -2337.296692637133 -59.68681960869265 62.06792391251165 -2338.465716961135
-2337.296515598521 -59.686683662204175 62.068055798030365 -2338.4656156873343 -2337.296359068446 -59.686557662817755 62.06817240564443 -2338.465521823661
-2337.2961876995782 -59.68641858714885 62.06829979636435 -2338.4654184387828 -2337.296037078496 -59.68629373697399 62.068411736075205 -2338.465325651689
-2337.295876835241 -59.686169544216256 62.06853082686489 -2338.4652333531794 -2337.2957257020144 -59.686050894128876 62.0686429262245 -2338.4651453473907
-2337.295574861354 -59.68593477539443 62.0687548085801 -2338.465059219171 -2337.2954143868783 -59.685807309528634 62.06887382164838 -2338.464964686357
-2337.295272863781 -59.68568890130434 62.06897868511825 -2338.4648769501673 -2337.2951236596496 -59.685572298770346 62.06908923995516 -2338.4647905519287
-2337.2949673053704 -59.6854572058947 62.0692050558233 -2338.4647052995047 -2337.2948245359557 -59.685344441016156 62.06931080901263 -2338.4646217714912
-2337.294674995228 -59.68523121603322 62.06942136159852 -2338.4645380664374 -2337.2945442248915 -59.68512721206572 62.069518133340274 -2338.4644611021554
-2337.2944112366445 -59.68501876386992 62.06961654636449 -2338.464380849087 -2337.294271609629 -59.68491302744807 62.06971971124666 -2338.4643027246243
-2337.294144343474 -59.684817151239216 62.069813551403435 -2338.464232029957 -2337.294020608677 -59.68472000081293 62.069904787700686 -2338.464160395741
-2337.29388865858 -59.68461936960241 62.07000203122871 -2338.464086233356 -2337.293767490831 -59.684524111827656 62.07009132846767 -2338.4640160310423
-2337.2936469895626 -59.6844304449031 62.070180077549566 -2338.463947045432 -2337.29352566167 -59.684337541750935 62.070269435439045 -2338.4638786223395
-2337.2934090137255 -59.68424540806779 62.070355346551196 -2338.4638107659603 -2337.293291897874 -59.68415341624616 62.070441361164455 -2338.4637432034497
-2337.2931791399337 -59.68406252571651 62.070524175151775 -2338.4636764497723 -2337.293064464043 -59.68397438654137 62.07060829203186 -2338.4636117980626
-2337.292965125426 -59.68389693904796 62.07068115873886 -2338.4635549888985 -2337.2928568446146 -59.683812841660554 62.070760489129654 -2338.463493376148
-2337.2927561090937 -59.68373354629811 62.07083429157095 -2338.463435281533 -2337.29266117935 -59.6836547746299 62.0709037163121 -2338.463377673638
-2337.292568342074 -59.6835835819808 62.07097161077396 -2338.4633256084894 -2337.2924680830474 -59.68350951812604 62.07104474299354 -2338.4632715838866
-2337.2923810032325 -59.683439625513266 62.071108261864154 -2338.463220601924 -2337.2922885175203 -59.683366992058964 62.071175669069085 -2338.4631676638214
-2337.2922042018245 -59.68329895520892 62.07123712164666 -2338.4631180759034 -2337.292119534588 -59.6832313960629 62.07129870634308 -2338.463068935177
-2337.2920399844265 -59.68316936130515 62.071356484238876 -2338.463023878854 -2337.291959591701 -59.68310668854667 62.07141487409548 -2338.4629783591463
-2337.291878341159 -59.683045285661905 62.07147381175547 -2338.4629338186146 -2337.291803075898 -59.682985720020994 62.07152840780236 -2338.462890610786
-2337.2917283070465 -59.68292647061782 62.071582602424584 -2338.462847665108 -2337.2916545538606 -59.68286911810999 62.071635934852694 -2338.4628061923436
-2337.291584118559 -59.682814917441924 62.07168686805121 -2338.4627669987385 -2337.29151166088 -59.68276083888441 62.07173918726673 -2338.462727950459
-2337.2914445341403 -59.682708901699286 62.07178765719321 -2338.462690448391 -2337.291377220938 -59.68265549558551 62.07183623011649 -2338.462651910764
-2337.2913145952743 -59.68260770980172 62.071881349048724 -2338.4626174832883 -2337.29125117662 -59.68255963584002 62.07192703929444 -2338.4625828481935
