ws_icra2022/src/my_pkg/ur5_eye2hand/keyboard_adaptive/0915_yxj/log_theta_k.npy (npy, 17288 bytes, 1 tensors)

array f8 [143, 15, 1]
-2636.9523575999997 -78.1524096 -52.035993600000005 76.38946560000001 -50.2363872 -2398.427544 0.0420520485 -1.048811106
0.029528434999999995 36.188791452 -872.4909760656 18.948011586 20.963947416499998 -495.338502348 16.836086561 -2636.9523467902577
-78.15246240523484 -52.035729282307614 76.3894719932637 -50.23641843088318 -2398.42738767317 0.0420520485 -1.048811106 0.029528434999999995
36.188791560097414 -872.4909765936524 18.948014229176923 20.963947480432633 -495.33850266030885 16.836088124268297 -2636.95233599041 -78.15251516533749
-52.035465116342614 76.38947839059391 -50.23644968352738 -2398.4272311934724 0.0420520485 -1.048811106 0.029528434999999995 36.18879166809589
-872.4909771212534 18.94801687083657 20.963947544405936 -495.3385029728353 16.836089689065275 -2636.0276897250537 -78.12412128724482 -51.58390937696638
76.9371960654684 -50.21963046360268 -2398.159750461744 0.0420520485 -1.048811106 0.029528434999999995 36.19803813074945 -872.4906931824725
18.952532428230334 20.96942472115468 -495.33833478063605 16.83876449638256 -2635.0306036352063 -78.07113597651535 -50.992494383087376 77.52911301114453
-50.188175904551024 -2397.8086588555443 0.0420520485 -1.048811106 0.029528434999999995 36.20800899164793 -872.4901633293651 18.958446578169124
20.97534389061144 -495.3380202350455 16.842275412444558 -2633.618368121546 -78.17293359901848 -49.961242884027165 78.3674820750926 -50.24860773526522
-2397.196459724734 0.0420520485 -1.048811106 0.029528434999999995 36.22213134678453 -872.4911813055902 18.968759093159726 20.98372758125092
-495.33862455335264 16.84839740375266 -2631.694498835693 -78.47178051029823 -48.59658277290594 79.50801144003978 -50.425773450443835 -2396.3874468976405
0.0420520485 -1.048811106 0.029528434999999995 36.24137003964306 -872.494169774703 18.982405694270938 20.995132874900392 -495.3403962105044
16.856487532023593 -2629.676573698441 -78.59754597411971 -47.297757529743 80.70430003003119 -50.50033111693364 -2395.6174630215764 0.0420520485
-1.048811106 0.029528434999999995 36.26154929101558 -872.4954274293412 18.995393946702567 21.007095760800308 -495.3411417871693 16.864187370784236
-2627.693245663241 -78.80723741056042 -45.96585482454147 81.86484290327479 -50.62303189956888 -2394.8381011787837 0.0420520485 -1.048811106
0.029528434999999995 36.28138257136758 -872.4975243437057 19.008712973754584 21.018701189532745 -495.34236879499565 16.87198098921216 -2625.7422629450725
-78.99163961208919 -44.67104918042251 83.00645893915342 -50.730934705860356 -2394.08044665273 0.0420520485 -1.048811106 0.029528434999999995
36.300892398549266 -872.4993683657209 19.021661030195773 21.03011734989153 -495.34344782305857 16.879557534472696 -2623.9431766174375 -79.17594909459173
-43.45158830303867 84.05660062261539 -50.838517686876976 -2393.368637175319 0.0420520485 -1.048811106 0.029528434999999995 36.31888326182562
-872.501211460546 19.033855638969612 21.040618766726148 -495.34452365286876 16.88667562924681 -2622.1743896168846 -79.39251391385018 -42.1738900423934
85.08905633633765 -50.96492837678181 -2392.6228340519333 0.0420520485 -1.048811106 0.029528434999999995 36.33657113183115 -872.5033771087385
19.046632621576066 21.050943323863372 -495.3457877597678 16.894133660480666 -2620.350849365996 -79.60068476054789 -40.88945725147288 86.1534719786075
-51.086439434945554 -2391.873099927099 0.0420520485 -1.048811106 0.029528434999999995 36.354806534340035 -872.5054588172055 19.059476949485273
21.06158748028607 -495.34700287034946 16.90163100172901 -2618.595140113861 -79.7788664281557 -39.668619638809226 87.1645179105923 -51.18904745502065
-2391.1700661529153 0.0420520485 -1.048811106 0.029528434999999995 36.372363626861386 -872.5072406338816 19.07168532561191 21.07169793960592
-495.3480289505502 16.908661339470846 -2617.111126502327 -79.93214964279196 -38.641802651820484 88.00565940517924 -51.27592864751925 -2390.5880644998374
0.0420520485 -1.048811106 0.029528434999999995 36.387203762976725 -872.508773466028 19.081953495481798 21.080109354551787 -495.3488977624752
16.914481356001627 -2615.808191021208 -79.9992648629335 -37.86488919506457 88.74416550068992 -51.31396967095773 -2390.1477086020873 0.0420520485
-1.048811106 0.029528434999999995 36.40023311778791 -872.5094446182294 19.08972263004936 21.087494415506892 -495.34927817270955 16.918884914979127
-2614.39536645545 -80.09279687469925 -36.9291231607128 89.53793435691696 -51.36651886906717 -2389.621966091102 0.0420520485 -1.048811106
0.029528434999999995 36.414361363445494 -872.510379938347 19.099080290392877 21.095432104069165 -495.3498036646906 16.92414234008898 -2613.2832997741816
00000000: 3154 6a9b e799 a4c0 2ce6 3114 c189 53c0
00000010: c36e 3370 9b04 4ac0 b1ba 1f01 ed18 5340
00000020: b598 8eef 411e 49c0 3413 0ce7 dabc a2c0
00000030: c119 139a d887 a53f b639 7f27 eec7 f0bf
00000040: 791c 82ba b33c 9e3f 5b0d 7c51 2a18 4240
00000050: f706 dc84 ed43 8bc0 5e19 26e3 b0f2 3240
00000060: 62ee 0442 c5f6 3440 7824 7081 6af5 7ec0
00000070: bf1e d4c4 09d6 3040 379d ff99 e799 a4c0
00000080: 9a16 adf1 c189 53c0 a882 f1c6 9204 4ac0
00000090: a271 f01b ed18 5340 4e68 8af5 421e 49c0
000000a0: f59d 8ed2 dabc a2c0 c119 139a d887 a53f
000000b0: b639 7f27 eec7 f0bf 791c 82ba b33c 9e3f
000000c0: 8a30 6452 2a18 4240 b5e6 2285 ed43 8bc0
000000d0: 2175 7e0f b1f2 3240 0f85 1743 c5f6 3440
000000e0: 2bfa c381 6af5 7ec0 6b4e 0edf 09d6 3040
000000f0: 3b3b 9598 e799 a4c0 30d1 f7ce c289 53c0
00000100: 916b f51e 8a04 4ac0 5f86 c536 ed18 5340
00000110: 28f3 b4fb 431e 49c0 9707 0cbe dabc a2c0
00000120: c119 139a d887 a53f b639 7f27 eec7 f0bf
00000130: 791c 82ba b33c 9e3f 541d 4c53 2a18 4240
00000140: f1b6 6985 ed43 8bc0 a14c d03b b1f2 3240
00000150: 7348 2a44 c5f6 3440 d2de 1782 6af5 7ec0
00000160: e40e 4ff9 09d6 3040 15ff 582d 0e98 a4c0
00000170: 0d5d 699a f187 53c0 fdf2 de8a bdca 49c0
00000180: 1bc8 3405 fb3b 5340 7d30 ddd9 1c1c 49c0
00000190: 6c01 d0ca 51bc a2c0 c119 139a d887 a53f
000001a0: b639 7f27 eec7 f0bf 791c 82ba b33c 9e3f
000001b0: 0677 3f50 5919 4240 b718 8cf0 ec43 8bc0
000001c0: f6a0 4b2a d9f3 3240 144b f137 2cf8 3440
000001d0: e61e bbd1 69f5 7ec0 4e02 2145 b9d6 3040
000001e0: b398 47ab 0f96 a4c0 f52c e97d 8d84 53c0
000001f0: 7869 520e 0a7f 49c0 3fb0 d1fc dc61 5340
00000200: 8ff8 e525 1618 49c0 5e94 8808 9ebb a2c0
00000210: c119 139a d887 a53f b639 7f27 eec7 f0bf
00000220: 791c 82ba b33c 9e3f 6e33 e409 a01a 4240
00000230: 936a c0da eb43 8bc0 1233 44c1 5cf5 3240
00000240: 9087 2023 b0f9 3440 82ee e787 68f5 7ec0
00000250: 9eac 865c 9fd7 3040 dc15 bf9a 3c93 a4c0
00000260: 7e0a 1658 118b 53c0 6734 bf01 0afb 48c0
00000270: e498 89d3 8497 5340 953f d660 d21f 49c0
00000280: 6d79 5e96 64ba a2c0 c119 139a d887 a53f
00000290: b639 7f27 eec7 f0bf 791c 82ba b33c 9e3f
000002a0: 91ed cacc 6e1c 4240 55df 76f0 ed43 8bc0
000002b0: dad2 8e98 00f8 3240 59a5 1d92 d5fb 3440
000002c0: 5b64 9401 6bf5 7ec0 0521 7f92 30d9 3040
000002d0: d3f4 5995 638f a4c0 c0a7 e1a6 319e 53c0
000002e0: 777e 05d3 5c4c 48c0 be3d 6a42 83e0 5340
000002f0: a794 92be 7f36 49c0 9b94 705f c6b8 a2c0
00000300: c119 139a d887 a53f b639 7f27 eec7 f0bf
00000310: 791c 82ba b33c 9e3f 2640 a536 e51e 4240
00000320: 2b68 480f f443 8bc0 404c 88f0 7efb 3240
00000330: 24df 3007 c1fe 3440 c8fc 4b43 72f5 7ec0
00000340: 1c79 53c4 42db 3040 4728 de67 5a8b a4c0
00000350: d72c 7831 3ea6 53c0 2531 32eb 1ca6 47c0
00000360: 92e3 6e40 132d 5440 5833 9cd9 0a40 49c0
00000370: 52f8 1c24 3cb7 a2c0 c119 139a d887 a53f
00000380: b639 7f27 eec7 f0bf 791c 82ba b33c 9e3f
00000390: 199a 7972 7a21 4240 7ff4 a7a2 f643 8bc0
000003a0: 51b9 3f23 d2fe 3240 db93 1c07 d101 3540
000003b0: 0f33 1751 75f5 7ec0 7022 2f62 3bdd 3040
000003c0: 6e77 18f1 6287 a4c0 be9d 19c7 a9b3 53c0
000003d0: 730b 8221 a1fb 46c0 8c6f 0c96 5977 5440
000003e0: ad81 6082 bf4f 49c0 3b03 991b adb5 a2c0
000003f0: c119 139a d887 a53f b639 7f27 eec7 f0bf
00000400: 791c 82ba b33c 9e3f 15d8 1658 0424 4240
00000410: 7009 0bee fa43 8bc0 ac53 7103 3b02 3340
00000420: 7f70 e599 c904 3540 d69a b357 7af5 7ec0
00000430: 6466 6725 3adf 3040 3d84 e309 7c83 a4c0
00000440: d6d5 fd05 77bf 53c0 0df6 85f0 e455 46c0
00000450: 921b c1d2 69c0 5440 3f97 b844 8f5d 49c0
00000460: 19bd 4d30 29b4 a2c0 c119 139a d887 a53f
00000470: b639 7f27 eec7 f0bf 791c 82ba b33c 9e3f
00000480: 2ab1 61a4 8326 4240 6d7b d7b4 fe43 8bc0
00000490: dc49 c893 8b05 3340 89d3 48c5 b507 3540
000004a0: b4fe 24c3 7ef5 7ec0 b882 bdae 2ae1 3040
000004b0: 7eac 0be8 e27f a4c0 11c2 fdbf 42cb 53c0
000004c0: 5367 40a5 cdb9 45c0 3fc4 3758 9f03 5540
000004d0: 8920 2d8c 546b 49c0 2b08 03be bcb2 a2c0
000004e0: c119 139a d887 a53f b639 7f27 eec7 f0bf
000004f0: 791c 82ba b33c 9e3f 3464 ae2a d128 4240
00000500: 677b 277b 0244 8bc0 e028 5ec3 aa08 3340
00000510: 52b1 d2fd 650a 3540 51dc 3b2b 83f5 7ec0
00000520: 78c6 8d2c fde2 3040 908a 9849 597c a4c0
00000530: 89cd adf2 1ed9 53c0 0197 6607 4216 45c0
00000540: 9804 5919 b345 5540 50a1 e6c5 827b 49c0
00000550: c7d7 1ae4 3eb1 a2c0 c119 139a d887 a53f
00000560: b639 7f27 eec7 f0bf 791c 82ba b33c 9e3f
00000570: 0aff 49c3 142b 4240 b2dc 93ea 0644 8bc0
00000580: 9098 901d f00b 3340 56f1 259f 0a0d 3540
00000590: f5f8 be58 88f5 7ec0 6904 8ef1 e5e4 3040
000005a0: 8d31 87a2 b378 a4c0 9070 7e9e 71e6 53c0
000005b0: 0e22 37bc d971 44c0 2f3e 227c d289 5540
000005c0: 8316 8972 108b 49c0 0f22 f406 bfaf a2c0
000005d0: c119 139a d887 a53f b639 7f27 eec7 f0bf
000005e0: 791c 82ba b33c 9e3f e3b2 ee4c 6a2d 4240
000005f0: fb0a fe2d 0b44 8bc0 b4e7 a0e1 390f 3340
00000600: f6ab 7532 c40f 3540 4ebc e152 8df5 7ec0
00000610: 5f7c 114a d1e6 3040 247b 34b6 3075 a4c0
00000620: 6338 93f2 d8f1 53c0 1113 0d54 95d5 43c0
00000630: 6966 2176 87ca 5540 555a feb4 3298 49c0
00000640: db29 e912 57ae a2c0 c119 139a d887 a53f
00000650: b639 7f27 eec7 f0bf 791c 82ba b33c 9e3f
00000660: 78cb 7f9c a92f 4240 ca6d 2dd4 0e44 8bc0
00000670: 341b 31f8 5912 3340 4acc d1cb 5a12 3540
00000680: ca0a ce86 91f5 7ec0 b62a 9007 9ee8 3040
00000690: 6daa 92e5 3872 a4c0 40b1 f956 a8fb 53c0
000006a0: 0c07 dc96 2652 43c0 380a 44b9 5c00 5640
000006b0: f68f 42a1 51a3 49c0 7b45 ca16 2dad a2c0
000006c0: c119 139a d887 a53f b639 7f27 eec7 f0bf
000006d0: 791c 82ba b33c 9e3f c46f 95e4 8f31 4240
000006e0: 4dad d2f7 1144 8bc0 20e3 7ee7 fa14 3340
000006f0: 52e7 f10b 8214 3540 a8f7 d115 95f5 7ec0
00000700: 27d4 3c73 1bea 3040 05aa 36cb 9d6f a4c0
00000710: d895 9cf4 f3ff 53c0 a9bb 6bb0 b4ee 42c0
00000720: 9411 5668 a02f 5640 8459 7e28 30a8 49c0
00000730: 9b3e 76a0 4bac a2c0 c119 139a d887 a53f
00000740: b639 7f27 eec7 f0bf 791c 82ba b33c 9e3f
00000750: 6dd6 bbd6 3a33 4240 5933 b357 1344 8bc0
00000760: eac5 f10f f816 3340 4b2f b508 6616 3540
00000770: e88f b5a4 96f5 7ec0 839f b20a 3ceb 3040
00000780: 30d8 786d ca6c a4c0 4680 4d62 f005 54c0
00000790: db9b fa81 ed76 42c0 9a96 3984 6d62 5640
000007a0: 5501 1e17 eaae 49c0 02e9 5672 3eab a2c0
000007b0: c119 139a d887 a53f b639 7f27 eec7 f0bf
000007c0: 791c 82ba b33c 9e3f b85c 0ccb 0935 4240
000007d0: e1bd 1342 1544 8bc0 64ea 6e53 5d19 3340
000007e0: 2df7 053d 6e18 3540 e03d bacb 98f5 7ec0
000007f0: f587 a797 94ec 3040 2602 ab0c 916a a4c0
