ws_icra2022/src/my_pkg/ur5_eye2hand/hololens2_adaptive_circle/log_theta_z.npy (npy, 207608 bytes, 1 tensors)

array f8 [1995, 13, 1]
0	0x0000000000000000	0.0
1	0x0000000000000000	0.0
2	0x0000000000000000	0.0
3	0x0000000000000000	0.0
4	0x0000000000000000	0.0
5	0x0000000000000000	0.0
6	0x0000000000000000	0.0
7	0x0000000000000000	0.0
8	0x0000000000000000	0.0
9	0x3fe5b5ebbe6e540a	0.678457138
10	0xbfe781e20fd50a33	-0.734604865
11	0xbf7d6c86175c1434	-0.00718357448
12	0x3ff977be223a119f	1.59173406
13	0x3ea64590ed14c5d2	6.637496544945938e-07
14	0xbe8a9d5f0afbfa0e	-1.982952020293124e-07
15	0x3e949cfbc9fdf18c	3.071608691768963e-07
16	0xbe7a4a3cc236c1e1	-9.793784321618834e-08
17	0xbea7d13779aa3c66	-7.09809444403547e-07
18	0xbe908c8a5d3dadd6	-2.465991120112443e-07
19	0xbe97a3888cc70ee0	-3.5224560404285186e-07
20	0xbe87a9a5d6180919	-1.7630075448144603e-07
21	0x3ea5b8c5255ad121	6.473588409412542e-07
22	0x3fe5b5ebde88aa4f	0.6784571977962716
23	0xbfe781e335d08b31	-0.7346054125849603
24	0xbf7d6cdbe8d4c759	-0.00718389417788664
25	0x3ff977bd56cfbd44	1.5917333022187714
26	0x3ea64590ed14c5d2	6.637496544945938e-07
27	0xbe8a9d5f0afbfa0e	-1.982952020293124e-07
28	0x3e949cfbc9fdf18c	3.071608691768963e-07
29	0xbe7a4a3cc236c1e1	-9.793784321618834e-08
30	0xbea7d13779aa3c66	-7.09809444403547e-07
31	0xbe908c8a5d3dadd6	-2.465991120112443e-07
32	0xbe97a3888cc70ee0	-3.5224560404285186e-07
33	0xbe87a9a5d6180919	-1.7630075448144603e-07
34	0x3ea5b8c5255ad121	6.473588409412542e-07
35	0x3fe5b5ebde88aa4f	0.6784571977962716
36	0xbfe781e335d08b31	-0.7346054125849603
37	0xbf7d6cdbe8d4c759	-0.00718389417788664
38	0x3ff977bd56cfbd44	1.5917333022187714
39	0xbe4c82a22adfac40	-1.3276136936294427e-08
40	0x3e312bb07ca64040	3.99785622175766e-09
41	0xbe3a908625e6f3c0	-6.185040561686961e-09
42	0x3e216157f7ae19a0	2.0233272257646936e-09
43	0x3e4e9497584aa840	1.4240124421072969e-08
44	0x3e34e06c2b708900	4.860723982197258e-09
45	0x3e3e6a187a74f500	7.081412712562676e-09
46	0x3e2d6e727ccc7ec0	3.4262699122240076e-09
47	0xbe4be2bb51dd3a80	-1.2985277349613464e-08
48	0x3fe5b5ebbdd14777	0.6784571368573172
49	0xbfe781e209edc5fc	-0.7346048540040893
50	0xbf7d6c845f2f0c87	-0.007183568074597641
51	0x3ff977be264d5d2a	1.5917340751819418
52	0xbe4c82a22adfac40	-1.3276136936294427e-08
53	0x3e312bb07ca64040	3.99785622175766e-09
54	0xbe3a908625e6f3c0	-6.185040561686961e-09
55	0x3e216157f7ae19a0	2.0233272257646936e-09
56	0x3e4e9497584aa840	1.4240124421072969e-08
57	0x3e34e06c2b708900	4.860723982197258e-09
58	0x3e3e6a187a74f500	7.081412712562676e-09
59	0x3e2d6e727ccc7ec0	3.4262699122240076e-09
60	0xbe4be2bb51dd3a80	-1.2985277349613464e-08
61	0x3fe5b5ebbdd14777	0.6784571368573172
62	0xbfe781e209edc5fc	-0.7346048540040893
63	0xbf7d6c845f2f0c87	-0.007183568074597641
64	0x3ff977be264d5d2a	1.5917340751819418
65	0xbea61930ffa19286	-6.585837575399403e-07
66	0x3e8a881352fb1072	1.9767541336289426e-07
67	0xbe94921c5139f6b3	-3.0652798097678565e-07
68	0x3e7a93bd962ff580	9.900745605303291e-08
69	0x3ea7aef337808880	7.058202831126487e-07
70	0x3e90454c937a631e	2.4245231909076895e-07
71	0x3e978ee848dd7aad	3.5104501071816786e-07
72	0x3e870e7d9a17d52f	1.7178508664143907e-07
73	0xbea5972cf5bacd46	-6.434479291245316e-07
74	0x3fe5b5eb9f4902e5	0.6784570799864836
75	0xbfe781e0eb6cde4f	-0.7346043203496694
76	0xbf7d6c30cab0a48b	-0.007183256714634055
77	0x3ff977beec50cfb7	1.591734812839588
78	0xbee463ce258109c7	-9.722644947034253e-06
79	0x3ec896f51d3aedcc	2.9313180024117784e-06
80	0xbed319b12eca5a78	-4.5538806544761164e-06
81	0x3eb8fe4c68b0c582	1.4897199516302128e-06
82	0x3ee5e76ddfca832f	1.0444650791642522e-05
83	0x3ecdb7b849580bf4	3.5426206277402087e-06
84	0x3ed5d6ccb94ba299	5.206837972983888e-06
85	0x3ec4d928c39ef093	2.485308439907345e-06
86	0xbee3f55e8acfa0d2	-9.516941952683955e-06
87	0x3fe5b5e9fd229aae	0.6784563011213629
88	0xbfe781d1279e5e1a	-0.7345968030740011
89	0xbf7d6798c83580d6	-0.007178875737139564
90	0x3ff977c9cdb6b2d1	1.591745189255722
91	0xbee463ce258109c7	-9.722644947034253e-06
92	0x3ec896f51d3aedcc	2.9313180024117784e-06
93	0xbed319b12eca5a78	-4.5538806544761164e-06
94	0x3eb8fe4c68b0c582	1.4897199516302128e-06
95	0x3ee5e76ddfca832f	1.0444650791642522e-05
96	0x3ecdb7b849580bf4	3.5426206277402087e-06
97	0x3ed5d6ccb94ba299	5.206837972983888e-06
98	0x3ec4d928c39ef093	2.485308439907345e-06
99	0xbee3f55e8acfa0d2	-9.516941952683955e-06
100	0x3fe5b5e9fd229aae	0.6784563011213629
101	0xbfe781d1279e5e1a	-0.7345968030740011
102	0xbf7d6798c83580d6	-0.007178875737139564
103	0x3ff977c9cdb6b2d1	1.591745189255722
104	0xbef8177c63898055	-2.297567536613283e-05
105	0x3edd34cbf6782cc6	6.963309580064464e-06
106	0xbee6c3b4a8a4aac2	-1.0854947750068236e-05
107	0x3ece41d379fe969a	3.6069313437855435e-06
108	0x3ef9f6ba74a098b4	2.476099260930653e-05
109	0x3ee14d637bb9ac9b	8.250379202231954e-06
110	0x3ee9f757f9397484	1.2381642398635055e-05
111	0x3ed7f165d1a499de	5.708446474883613e-06
112	0xbef7a3f1b429dd8c	-2.2545248848674463e-05
113	0x3fe5b5e7b970a6a8	0.6784552213550414
114	0xbfe781b9f71b1bd8	-0.7345857454573617
115	0xbf7d60db7c5d253b	-0.007172448507682556
116	0x3ff977d9c2e72110	1.5917604077713499
117	0xbef8177c63898055	-2.297567536613283e-05
118	0x3edd34cbf6782cc6	6.963309580064464e-06
119	0xbee6c3b4a8a4aac2	-1.0854947750068236e-05
120	0x3ece41d379fe969a	3.6069313437855435e-06
121	0x3ef9f6ba74a098b4	2.476099260930653e-05
122	0x3ee14d637bb9ac9b	8.250379202231954e-06
123	0x3ee9f757f9397484	1.2381642398635055e-05
124	0x3ed7f165d1a499de	5.708446474883613e-06
125	0xbef7a3f1b429dd8c	-2.2545248848674463e-05
126	0x3fe5b5e7b970a6a8	0.6784552213550414
127	0xbfe781b9f71b1bd8	-0.7345857454573617
128	0xbf7d60db7c5d253b	-0.007172448507682556
129	0x3ff977d9c2e72110	1.5917604077713499
130	0xbf015c67d497b6d3	-3.311340203625075e-05
131	0x3ee51e76c0860b27	1.0070323711591063e-05
132	0xbef0812904527072	-1.5739948385204814e-05
133	0x3ed62be18ff054e8	5.286076201667748e-06
134	0x3f02c076c40c86db	3.576624340541147e-05
135	0x3ee8ac7cde1291fe	1.1765375292968092e-05
136	0x3ef2caf0dea6b7d3	1.7922151451514448e-05
137	0x3ee0e6321626976b	8.058167343015951e-06
138	0xbf0110a1a2c8a63d	-3.2548840270440746e-05
139	0x3fe5b5e6147b9aac	0.6784544372611285
140	0xbfe781a8209fb1cb	-0.7345772397216533
141	0xbf7d5baf9f2900df	-0.0071675167296804945
142	0x3ff977e600b5d432	1.591772082113732
143	0xbf015c67d497b6d3	-3.311340203625075e-05
144	0x3ee51e76c0860b27	1.0070323711591063e-05
145	0xbef0812904527072	-1.5739948385204814e-05
146	0x3ed62be18ff054e8	5.286076201667748e-06
147	0x3f02c076c40c86db	3.576624340541147e-05
148	0x3ee8ac7cde1291fe	1.1765375292968092e-05
149	0x3ef2caf0dea6b7d3	1.7922151451514448e-05
150	0x3ee0e6321626976b	8.058167343015951e-06
151	0xbf0110a1a2c8a63d	-3.2548840270440746e-05
152	0x3fe5b5e6147b9aac	0.6784544372611285
153	0xbfe781a8209fb1cb	-0.7345772397216533
154	0xbf7d5baf9f2900df	-0.0071675167296804945
155	0x3ff977e600b5d432	1.591772082113732
156	0xbf03fb47a72541ae	-3.8111805127474945e-05
157	0x3ee8596240ab6bb4	1.1610582097023671e-05
158	0xbef30fa2c7945221	-1.8178060121236864e-05
159	0x3ed9c042ac528b22	6.1395209673155975e-06
160	0x3f059bfa13a13d04	4.1216439470854e-05
161	0x3eec39a87e4cc1e9	1.3458837153730026e-05
162	0x3ef5ae66f831db7a	2.0676859560055345e-05
163	0x3ee3381baf85e48e	9.164415573736128e-06
164	0xbf03a8d225e4830d	-3.749743767600929e-05
165	0x3fe5b5e54e8b2a4b	0.6784540685706103
166	0xbfe7819f49fcd551	-0.7345730252333543
167	0xbf7d5920e1cc9fda	-0.007165077634262185
168	0x3ff977ec0dc45bde	1.5917778527998432
169	0xbf03fb47a72541ae	-3.8111805127474945e-05
170	0x3ee8596240ab6bb4	1.1610582097023671e-05
171	0xbef30fa2c7945221	-1.8178060121236864e-05
172	0x3ed9c042ac528b22	6.1395209673155975e-06
173	0x3f059bfa13a13d04	4.1216439470854e-05
174	0x3eec39a87e4cc1e9	1.3458837153730026e-05
175	0x3ef5ae66f831db7a	2.0676859560055345e-05
176	0x3ee3381baf85e48e	9.164415573736128e-06
177	0xbf03a8d225e4830d	-3.749743767600929e-05
178	0x3fe5b5e54e8b2a4b	0.6784540685706103
179	0xbfe7819f49fcd551	-0.7345730252333543
180	0xbf7d5920e1cc9fda	-0.007165077634262185
181	0x3ff977ec0dc45bde	1.5917778527998432
182	0xbf05ad2a7cc43f7f	-4.1344508277529016e-05
183	0x3eea71d6b04e48c9	1.2609807080985948e-05
184	0xbef4ba7150bc9ae4	-1.9768039279411962e-05
185	0x3edc1cf6a6c48c37	6.7026945596320006e-06
186	0x3f07768226d54a44	4.475197497790355e-05
187	0x3eee7bce3d069c8c	1.453572068117598e-05
188	0x3ef78f4afcf457c7	2.2468317010547274e-05
189	0x3ee4ab70903c5d1c	9.856074491261658e-06
190	0xbf055758d31aa77d	-4.070510693783469e-05
191	0x3fe5b5e4d2beb3ab	0.6784538379775901
192	0xbfe781998dc02fba	-0.7345702904290115
193	0xbf7d577871b7f33a	-0.007163496480185933
194	0x3ff977eff9547537	1.5917815913629292
195	0xbf05ad2a7cc43f7f	-4.1344508277529016e-05
196	0x3eea71d6b04e48c9	1.2609807080985948e-05
197	0xbef4ba7150bc9ae4	-1.9768039279411962e-05
198	0x3edc1cf6a6c48c37	6.7026945596320006e-06
199	0x3f07768226d54a44	4.475197497790355e-05
200	0x3eee7bce3d069c8c	1.453572068117598e-05
201	0x3ef78f4afcf457c7	2.2468317010547274e-05
202	0x3ee4ab70903c5d1c	9.856074491261658e-06
203	0xbf055758d31aa77d	-4.070510693783469e-05
204	0x3fe5b5e4d2beb3ab	0.6784538379775901
205	0xbfe781998dc02fba	-0.7345702904290115
206	0xbf7d577871b7f33a	-0.007163496480185933
207	0x3ff977eff9547537	1.5917815913629292
208	0xbf05ad2a7cc43f7f	-4.1344508277529016e-05
209	0x3eea71d6b04e48c9	1.2609807080985948e-05
210	0xbef4ba7150bc9ae4	-1.9768039279411962e-05
211	0x3edc1cf6a6c48c37	6.7026945596320006e-06
212	0x3f07768226d54a44	4.475197497790355e-05
213	0x3eee7bce3d069c8c	1.453572068117598e-05
214	0x3ef78f4afcf457c7	2.2468317010547274e-05
215	0x3ee4ab70903c5d1c	9.856074491261658e-06
216	0xbf055758d31aa77d	-4.070510693783469e-05
217	0x3fe5b5e4d2beb3ab	0.6784538379775901
218	0xbfe781998dc02fba	-0.7345702904290115
219	0xbf7d577871b7f33a	-0.007163496480185933
220	0x3ff977eff9547537	1.5917815913629292
221	0xbf06f0555e0a5ca0	-4.375229378188986e-05
222	0x3eec02d0e8933c0f	1.3356685729352625e-05
223	0xbef5fbabe58ef21e	-2.0964709935832497e-05
224	0x3eddea95324408bf	7.132611049566982e-06
225	0x3f08d947090320a4	4.739521057356533e-05
226	0x3ef0108b695e1a06	1.532042241294588e-05
227	0x3ef8f7f051cfe821	2.38118274076064e-05
228	0x3ee5b3f54adb4f69	1.0348778541148262e-05
229	0xbf0698e555ca9cc8	-4.310083270314121e-05
230	0x3fe5b5e47a700d91	0.6784536734925714
231	0xbfe7819543a6082b	-0.7345682450543384
232	0xbf7d563b4aa66386	-0.00716231499463838
233	0x3ff977f2e66af30d	1.5917843819326578
234	0xbf06f0555e0a5ca0	-4.375229378188986e-05
235	0x3eec02d0e8933c0f	1.3356685729352625e-05
236	0xbef5fbabe58ef21e	-2.0964709935832497e-05
237	0x3eddea95324408bf	7.132611049566982e-06
238	0x3f08d947090320a4	4.739521057356533e-05
239	0x3ef0108b695e1a06	1.532042241294588e-05
240	0x3ef8f7f051cfe821	2.38118274076064e-05
241	0x3ee5b3f54adb4f69	1.0348778541148262e-05
242	0xbf0698e555ca9cc8	-4.310083270314121e-05
243	0x3fe5b5e47a700d91	0.6784536734925714
244	0xbfe7819543a6082b	-0.7345682450543384
245	0xbf7d563b4aa66386	-0.00716231499463838
246	0x3ff977f2e66af30d	1.5917843819326578
247	0xbf07891939097b39	-4.489048217658779e-05
248	0x3eecc086722a325b	1.3710046521419794e-05
249	0xbef6944474cd9b0b	-2.1533174094835602e-05
250	0x3edec70de966882a	7.337941175940659e-06
251	0x3f0981463a9d75b1	4.86468846492104e-05
252	0x3ef0730ad86379b4	1.5687355266241854e-05
253	0x3ef9a2f342437c40	2.4448894820557976e-05
254	0x3ee62e4f00b6946d	1.0576673978255323e-05
255	0xbf0731155a8d1b43	-4.4234718478855624e-05
