ws_icra2022/src/my_pkg/ur5_eye2hand/hololens2_adaptive_circle/log_theta_z.npy (npy, 182856 bytes, 1 tensors)

array f8 [1757, 13, 1]
0.0 0.0 0.0 0.0 0.0 0.0 0.0 0.0
0.0 0.678457138 -0.734604865 -0.00718357448 1.59173406 -3.5560907909687826e-08 1.062695821100199e-08 -1.6453210452808348e-08
5.2512290568855684e-09 3.8027479242332345e-08 1.3211887157033435e-08 1.8869683845123233e-08 9.444423118416593e-09 -3.468366257951279e-08 0.6784571347989935 -0.734604835663252
-0.0071835573496112385 1.591734100598258 1.1207835833349296e-08 -3.3505991163058947e-09 5.18924372673248e-09 -1.6552402812533662e-09 -1.1986901183964616e-08 -4.164699242733503e-09
-5.951045657311807e-09 -2.976243723143906e-09 1.0931485619648944e-08 0.6784571390084827 -0.7346048742472393 -0.007183579880214345 1.5917340472027215 1.1207835833349296e-08
-3.3505991163058947e-09 5.18924372673248e-09 -1.6552402812533662e-09 -1.1986901183964616e-08 -4.164699242733503e-09 -5.951045657311807e-09 -2.976243723143906e-09 1.0931485619648944e-08
0.6784571390084827 -0.7346048742472393 -0.007183579880214345 1.5917340472027215 7.252608875611224e-08 -2.163551501410084e-08 3.369395329304137e-08 -1.0740723459702447e-08
-7.766805900865758e-08 -2.6752843490787084e-08 -3.85748193854257e-08 -1.9052067676127555e-08 7.079835484060026e-08 0.6784571445048888 -0.7346049249035328 -0.007183609473944714
1.5917339771542758 7.252608875611224e-08 -2.163551501410084e-08 3.369395329304137e-08 -1.0740723459702447e-08 -7.766805900865758e-08 -2.6752843490787084e-08 -3.85748193854257e-08
-1.9052067676127555e-08 7.079835484060026e-08 0.6784571445048888 -0.7346049249035328 -0.007183609473944714 1.5917339771542758 -5.640003039673956e-06 1.6712511138708242e-06
-2.6682205927542433e-06 8.509681278662532e-07 6.079568121097404e-06 2.0091982545223017e-06 3.0312240678294647e-06 1.4028388844354725e-06 -5.528644234196158e-06 0.6784566439190844
-0.7346001819958242 -0.0071808282385339 1.5917405192637517 -5.640003039673956e-06 1.6712511138708242e-06 -2.6682205927542433e-06 8.509681278662532e-07 6.079568121097404e-06
2.0091982545223017e-06 3.0312240678294647e-06 1.4028388844354725e-06 -5.528644234196158e-06 0.6784566439190844 -0.7346001819958242 -0.0071808282385339 1.5917405192637517
-5.640003039673956e-06 1.6712511138708242e-06 -2.6682205927542433e-06 8.509681278662532e-07 6.079568121097404e-06 2.0091982545223017e-06 3.0312240678294647e-06 1.4028388844354725e-06
-5.528644234196158e-06 0.6784566439190844 -0.7346001819958242 -0.0071808282385339 1.5917405192637517 -2.244596234835131e-05 6.565719727631169e-06 -1.0951422842298328e-05
3.501675204100569e-06 2.4461859274351883e-05 7.493052260223014e-06 1.2280062617287372e-05 5.0281774546594034e-06 -2.2151623405817716e-05 0.6784552530121319 -0.7345860527175144
-0.007172491986707344 1.5917598843749263 -2.244596234835131e-05 6.565719727631169e-06 -1.0951422842298328e-05 3.501675204100569e-06 2.4461859274351883e-05 7.493052260223014e-06
1.2280062617287372e-05 5.0281774546594034e-06 -2.2151623405817716e-05 0.6784552530121319 -0.7345860527175144 -0.007172491986707344 1.5917598843749263 -3.074866879453554e-05
8.948084827581953e-06 -1.5154840253008994e-05 4.848269234672281e-06 3.3628960329527424e-05 1.0028847695715858e-05 1.692022057957246e-05 6.63064758055074e-06 -3.0408762093662696e-05
0.6784545919297231 -0.7345790148687137 -0.007168322944614803 1.5917694905872772 -3.074866879453554e-05 8.948084827581953e-06 -1.5154840253008994e-05 4.848269234672281e-06
3.3628960329527424e-05 1.0028847695715858e-05 1.692022057957246e-05 6.63064758055074e-06 -3.0408762093662696e-05 0.6784545919297231 -0.7345790148687137 -0.007168322944614803
1.5917694905872772 -3.441953148030864e-05 9.989330162004756e-06 -1.7046326012303395e-05 5.454761350618837e-06 3.770684172867312e-05 1.1096646220564199e-05 1.8992436190305437e-05
7.281673332665331e-06 -3.4071988951856204e-05 0.6784543071055724 -0.7345758857906015 -0.007166465922424828 1.5917737493597626 -3.441953148030864e-05 9.989330162004756e-06
-1.7046326012303395e-05 5.454761350618837e-06 3.770684172867312e-05 1.1096646220564199e-05 1.8992436190305437e-05 7.281673332665331e-06 -3.4071988951856204e-05 0.6784543071055724
-0.7345758857906015 -0.007166465922424828 1.5917737493597626 -3.732437906232368e-05 1.0805072247254087e-05 -1.8563694564443085e-05 5.9414945209794354e-06 4.094892494502923e-05
1.1907799218771572e-05 2.06449897578306e-05 7.760675645794572e-06 -3.697812133663925e-05 0.6784540862622402 -0.7345733990210142 -0.007164987374644635 1.5917771266340996
-3.732437906232368e-05 1.0805072247254087e-05 -1.8563694564443085e-05 5.9414945209794354e-06 4.094892494502923e-05 1.1907799218771572e-05 2.06449897578306e-05 7.760675645794572e-06
-3.697812133663925e-05 0.6784540862622402 -0.7345733990210142 -0.007164987374644635 1.5917771266340996 -3.8970403955009574e-05 1.126270400459949e-05 -1.9434527598243218e-05
6.220930388297327e-06 4.2793983989403896e-05 1.23492147421254e-05 2.158822493218792e-05 8.012678111795193e-06 -3.862856888455312e-05 0.678453963541866 -0.734571984206656
-0.007164144711526095 1.5917790442302369 -4.002171468423744e-05 1.1553773634958675e-05 -1.9993451139157197e-05 6.400332046299483e-06 4.397437061147153e-05 1.2626475938914153e-05
2.2192321033326913e-05 8.168681946431466e-06 -3.968360538053908e-05 0.6784538857566853 -0.7345710790940645 -0.007163605491364366 1.5917802699428065 -4.002171468423744e-05
1.1553773634958675e-05 -1.9993451139157197e-05 6.400332046299483e-06 4.397437061147153e-05 1.2626475938914153e-05 2.2192321033326913e-05 8.168681946431466e-06 -3.968360538053908e-05
00000000: 0000 0000 0000 0000 0000 0000 0000 0000
00000010: 0000 0000 0000 0000 0000 0000 0000 0000
00000020: 0000 0000 0000 0000 0000 0000 0000 0000
00000030: 0000 0000 0000 0000 0000 0000 0000 0000
00000040: 0000 0000 0000 0000 0a54 6ebe ebb5 e53f
00000050: 330a d50f e281 e7bf 3414 5c17 866c 7dbf
00000060: 9f11 3a22 be77 f93f 7bd8 3837 7417 63be
00000070: 152e 5068 3bd2 463e a975 dbc1 9faa 51be
00000080: 96cb 9493 c98d 363e 6ef3 b0fa 746a 643e
00000090: 4f43 9ed0 4f5f 4c3e 31b3 88f4 db42 543e
000000a0: dea0 7e63 2048 443e 6be5 bce3 e29e 62be
000000b0: a362 b6bc ebb5 e53f 2407 1500 e281 e7bf
000000c0: c317 2b7e 816c 7dbf baf5 1f2d be77 f93f
000000d0: 0cf9 42aa 9211 483e 382f d09d 0bc8 2cbe
000000e0: 0823 d341 a249 363e 7c1a e3e0 d26f 1cbe
000000f0: 7cb8 a45d debd 49be 4aad 529f 22e3 31be
00000100: 3c64 1370 3e8f 39be e4a3 eb43 d490 29be
00000110: d88c 81d4 a579 473e dfee f8be ebb5 e53f
00000120: 82f8 cb14 e281 e7bf 84a7 758a 876c 7dbf
00000130: 84a5 ca1e be77 f93f 0cf9 42aa 9211 483e
00000140: 382f d09d 0bc8 2cbe 0823 d341 a249 363e
00000150: 7c1a e3e0 d26f 1cbe 7cb8 a45d debd 49be
00000160: 4aad 529f 22e3 31be 3c64 1370 3e8f 39be
00000170: e4a3 eb43 d490 29be d88c 81d4 a579 473e
00000180: dfee f8be ebb5 e53f 82f8 cb14 e281 e7bf
00000190: 84a7 758a 876c 7dbf 84a5 ca1e be77 f93f
000001a0: 58f2 4b72 f477 733e 3201 6c05 203b 57be
000001b0: 3c88 fd96 dc16 623e 44cf 5d71 c610 47be
000001c0: a627 9cf1 4ed9 74be 92a3 e7ff c3b9 5cbe
000001d0: 9290 6bcc aeb5 64be 3c21 8c13 fe74 54be
000001e0: a983 7ad4 3901 733e 785a ecc1 ebb5 e53f
000001f0: 631e fe2f e281 e7bf 9410 207c 8f6c 7dbf
00000200: 3af4 fc0b be77 f93f 58f2 4b72 f477 733e
00000210: 3201 6c05 203b 57be 3c88 fd96 dc16 623e
00000220: 44cf 5d71 c610 47be a627 9cf1 4ed9 74be
00000230: 92a3 e7ff c3b9 5cbe 9290 6bcc aeb5 64be
00000240: 3c21 8c13 fe74 54be a983 7ad4 3901 733e
00000250: 785a ecc1 ebb5 e53f 631e fe2f e281 e7bf
00000260: 9410 207c 8f6c 7dbf 3af4 fc0b be77 f93f
00000270: 5a60 0f3b e8a7 d7be 1dbd 5a08 f809 bc3e
00000280: 9029 9ac8 f561 c6be 0901 f2b3 c28d ac3e
00000290: c3fd d2f5 e27f d93e 6c0a f36b b8da c03e
000002a0: 78d3 f20d 816d c93e 5f45 53aa 2589 b73e
000002b0: 9df5 c327 5630 d7be 445d 2cb5 eab5 e53f
000002c0: c9d8 a93d d881 e7bf cf48 15e7 a469 7dbf
000002d0: 404b 1fe8 c477 f93f 5a60 0f3b e8a7 d7be
000002e0: 1dbd 5a08 f809 bc3e 9029 9ac8 f561 c6be
000002f0: 0901 f2b3 c28d ac3e c3fd d2f5 e27f d93e
00000300: 6c0a f36b b8da c03e 78d3 f20d 816d c93e
00000310: 5f45 53aa 2589 b73e 9df5 c327 5630 d7be
00000320: 445d 2cb5 eab5 e53f c9d8 a93d d881 e7bf
00000330: cf48 15e7 a469 7dbf 404b 1fe8 c477 f93f
00000340: 5a60 0f3b e8a7 d7be 1dbd 5a08 f809 bc3e
00000350: 9029 9ac8 f561 c6be 0901 f2b3 c28d ac3e
00000360: c3fd d2f5 e27f d93e 6c0a f36b b8da c03e
00000370: 78d3 f20d 816d c93e 5f45 53aa 2589 b73e
00000380: 9df5 c327 5630 d7be 445d 2cb5 eab5 e53f
00000390: c9d8 a93d d881 e7bf cf48 15e7 a469 7dbf
000003a0: 404b 1fe8 c477 f93f d401 94c9 4a89 f7be
000003b0: 8a1d db4b e389 db3e c380 2f18 80f7 e6be
000003c0: eee0 424d ca5f cd3e bac2 582b 6ea6 f93e
000003d0: 3608 9c85 9a6d df3e 819a 66f4 cec0 e93e
000003e0: 95a0 fce4 f616 d53e 9c17 24f8 473a f7be
000003f0: 8291 6fca e7b5 e53f 639f 109c ba81 e7bf
00000400: 103d 3828 e760 7dbf ce99 6736 d977 f93f
00000410: d401 94c9 4a89 f7be 8a1d db4b e389 db3e
00000420: c380 2f18 80f7 e6be eee0 424d ca5f cd3e
00000430: bac2 582b 6ea6 f93e 3608 9c85 9a6d df3e
00000440: 819a 66f4 cec0 e93e 95a0 fce4 f616 d53e
00000450: 9c17 24f8 473a f7be 8291 6fca e7b5 e53f
00000460: 639f 109c ba81 e7bf 103d 3828 e760 7dbf
00000470: ce99 6736 d977 f93f c29a 0637 041f 00bf
00000480: f85a 0e6a f7c3 e23e 149f 6862 31c8 efbe
00000490: d0a5 7a19 ca55 d43e 5d75 4c47 9aa1 013f
000004a0: 46c3 f254 3208 e53e 6b30 59b4 fcbd f13e
000004b0: 3cf9 5387 9acf db3e 40d1 2138 cae2 ffbe
000004c0: 0e18 8567 e6b5 e53f 7a0c a6d9 ab81 e7bf
000004d0: 9a1e d409 885c 7dbf aa7c 0d49 e377 f93f
000004e0: c29a 0637 041f 00bf f85a 0e6a f7c3 e23e
000004f0: 149f 6862 31c8 efbe d0a5 7a19 ca55 d43e
00000500: 5d75 4c47 9aa1 013f 46c3 f254 3208 e53e
00000510: 6b30 59b4 fcbd f13e 3cf9 5387 9acf db3e
00000520: 40d1 2138 cae2 ffbe 0e18 8567 e6b5 e53f
00000530: 7a0c a6d9 ab81 e7bf 9a1e d409 885c 7dbf
00000540: aa7c 0d49 e377 f93f 167e ae18 b60b 02bf
00000550: 2a92 5615 fbf2 e43e aa0b 959a d6df f1be
00000560: fc2a 0862 01e1 d63e 0749 6b37 edc4 033f
00000570: 84fd 8f71 7745 e73e 7a84 e546 3eea f33e
00000580: 4580 ee1f a38a de3e f6ac 45a0 10dd 01bf
00000590: 2829 9bce e5b5 e53f e2d3 bc49 a581 e7bf
000005a0: d043 3c8c 955a 7dbf 8c1a 42c0 e777 f93f
000005b0: 167e ae18 b60b 02bf 2a92 5615 fbf2 e43e
000005c0: aa0b 959a d6df f1be fc2a 0862 01e1 d63e
000005d0: 0749 6b37 edc4 033f 84fd 8f71 7745 e73e
000005e0: 7a84 e546 3eea f33e 4580 ee1f a38a de3e
000005f0: f6ac 45a0 10dd 01bf 2829 9bce e5b5 e53f
00000600: e2d3 bc49 a581 e7bf d043 3c8c 955a 7dbf
00000610: 8c1a 42c0 e777 f93f 4275 3ae6 9791 03bf
00000620: bce3 64d2 eda8 e63e ab0b 7360 2777 f3be
00000630: cbd3 fa93 a1eb d83e f9d3 f958 1278 053f
00000640: b7ec 7876 f3f8 e83e 006f b4e4 d8a5 f53e
00000650: 6216 9523 7b46 e03e 5646 1093 1e63 03bf
00000660: 2faf 0a58 e5b5 e53f 6cd1 a912 a081 e7bf
00000670: e3a3 34a7 0859 7dbf 02a1 d64a eb77 f93f
00000680: 4275 3ae6 9791 03bf bce3 64d2 eda8 e63e
00000690: ab0b 7360 2777 f3be cbd3 fa93 a1eb d83e
000006a0: f9d3 f958 1278 053f b7ec 7876 f3f8 e83e
000006b0: 006f b4e4 d8a5 f53e 6216 9523 7b46 e03e
000006c0: 5646 1093 1e63 03bf 2faf 0a58 e5b5 e53f
000006d0: 6cd1 a912 a081 e7bf e3a3 34a7 0859 7dbf
000006e0: 02a1 d64a eb77 f93f 2121 4de2 846e 04bf
000006f0: cf98 6c40 9e9e e73e dd91 3191 ea60 f4be
00000700: d888 0a53 ac17 da3e 6e30 f617 b66f 063f
00000710: 8be8 7d26 efe5 e93e 2531 6085 0ba3 f63e
00000720: 870a 1d18 c6cd e03e 1c2a 3985 a340 04bf
00000730: e01f 2816 e5b5 e53f 9c36 171b 9d81 e7bf
00000740: 3b49 d673 2658 7dbf 03d5 964d ed77 f93f
00000750: 7c54 45a5 9ffb 04bf f33e 9a8e e23a e83e
00000760: 9828 1c80 f3f6 f4be 140c 6be0 4dd8 da3e
00000770: 6fd6 7dde 230e 073f 1dfe 9aa3 c97a ea3e
00000780: 712d 60b0 3445 f73e 1b1d 1419 8721 e13e
00000790: be41 624c 3ece 04bf 2269 65ec e4b5 e53f
000007a0: 687c 2935 9b81 e7bf cce1 e8b4 9557 7dbf
000007b0: 9328 9d96 ee77 f93f 7c54 45a5 9ffb 04bf
000007c0: f33e 9a8e e23a e83e 9828 1c80 f3f6 f4be
000007d0: 140c 6be0 4dd8 da3e 6fd6 7dde 230e 073f
000007e0: 1dfe 9aa3 c97a ea3e 712d 60b0 3445 f73e
000007f0: 1b1d 1419 8721 e13e be41 624c 3ece 04bf
