ws_icra2022/src/my_pkg/ur5_eye2hand/hololens2_adaptive_circle/log_theta_z.npy (npy, 197208 bytes, 1 tensors)

array f8 [1895, 13, 1]
000000 00 00 00 00 00 00 00 00 00 00 00 00 00 00 00 00
       0.0 0.0
000010 00 00 00 00 00 00 00 00 00 00 00 00 00 00 00 00
       0.0 0.0
000020 00 00 00 00 00 00 00 00 00 00 00 00 00 00 00 00
       0.0 0.0
000030 00 00 00 00 00 00 00 00 00 00 00 00 00 00 00 00
       0.0 0.0
000040 00 00 00 00 00 00 00 00 0a 54 6e be eb b5 e5 3f
       0.0 0.678457138
000050 33 0a d5 0f e2 81 e7 bf 34 14 5c 17 86 6c 7d bf
       -0.734604865 -0.00718357448
000060 9f 11 3a 22 be 77 f9 3f 00 00 00 00 00 00 00 00
       1.59173406 0.0
000070 00 00 00 00 00 00 00 00 00 00 00 00 00 00 00 00
       0.0 0.0
000080 00 00 00 00 00 00 00 00 00 00 00 00 00 00 00 00
       0.0 0.0
000090 00 00 00 00 00 00 00 00 00 00 00 00 00 00 00 00
       0.0 0.0
0000a0 00 00 00 00 00 00 00 00 00 00 00 00 00 00 00 00
       0.0 0.0
0000b0 0a 54 6e be eb b5 e5 3f 33 0a d5 0f e2 81 e7 bf
       0.678457138 -0.734604865
0000c0 34 14 5c 17 86 6c 7d bf 9f 11 3a 22 be 77 f9 3f
       -0.00718357448 1.59173406
0000d0 95 05 16 52 1f 51 66 3e 45 f9 b6 7a bb ac 4a be
       4.156843603620149e-08 -1.2421391768345254e-08
0000e0 eb 12 32 e7 fd a6 54 3e 0d cf ee 0d 1c 5d 3a be
       1.923396415446372e-08 -6.138279411605591e-09
0000f0 67 b8 17 58 89 dd 67 be c2 2b 6e 9d 98 94 50 be
       -4.445272861948818e-08 -1.5441750846354196e-08
000100 6e 67 3f c4 45 af 57 be ed 2b 06 e6 25 b4 47 be
       -2.20580569503066e-08 -1.1037896985980005e-08
000110 e7 f9 82 cc 42 c4 65 3e 06 cf 70 c0 eb b5 e5 3f
       4.054353436440402e-08 0.6784571417433376
000120 8b 5f 3e 22 e2 81 e7 bf f6 12 32 77 8b 6c 7d bf
       -0.7346048992940138 -0.0071835945010476545
000130 70 d8 7c 15 be 77 f9 3f 95 05 16 52 1f 51 66 3e
       1.591734012542954 4.156843603620149e-08
000140 45 f9 b6 7a bb ac 4a be eb 12 32 e7 fd a6 54 3e
       -1.2421391768345254e-08 1.923396415446372e-08
000150 0d cf ee 0d 1c 5d 3a be 67 b8 17 58 89 dd 67 be
       -6.138279411605591e-09 -4.445272861948818e-08
000160 c2 2b 6e 9d 98 94 50 be 6e 67 3f c4 45 af 57 be
       -1.5441750846354196e-08 -2.20580569503066e-08
000170 ed 2b 06 e6 25 b4 47 be e7 f9 82 cc 42 c4 65 3e
       -1.1037896985980005e-08 4.054353436440402e-08
000180 06 cf 70 c0 eb b5 e5 3f 8b 5f 3e 22 e2 81 e7 bf
       0.6784571417433376 -0.7346048992940138
000190 f6 12 32 77 8b 6c 7d bf 70 d8 7c 15 be 77 f9 3f
       -0.0071835945010476545 1.591734012542954
0001a0 97 7e 30 5e e6 7c 75 3e d3 50 4a 0c 51 ab 59 be
       8.00486286566108e-08 -2.3906310502880045e-08
0001b0 5a 7f 72 14 b9 ea 63 3e 82 58 b2 4d 0e 6c 49 be
       3.709809220345314e-08 -1.1838084670775046e-08
0001c0 94 1a f6 fa f1 fd 76 be fc fb ef 8a 70 d6 5f be
       -8.565177610749665e-08 -2.9651126606102736e-08
0001d0 46 66 02 d9 67 d3 66 be a8 2f 7b 25 e0 b8 56 be
       -4.251637186862534e-08 -2.1161670054125943e-08
0001e0 34 82 21 8f 34 f7 74 3e e9 49 4b c2 eb b5 e5 3f
       7.810311666986824e-08 0.6784571451956342
0001f0 db f9 4d 33 e2 81 e7 bf e4 6f 48 72 90 6c 7d bf
       -0.7346049310725066 -0.00718361305601076
000200 36 81 b0 09 be 77 f9 3f f8 be 8f c8 2e 4b bc be
       1.5917339685912117 -1.6864349012788711e-06
000210 ca 4d d1 5f ca de a0 3e fd 0b f9 fb 29 6c aa be
       5.027733888198206e-07 -7.874523290724496e-07
000220 58 b3 e6 60 7c e3 90 3e 60 cd b3 54 28 5b be 3e
       2.516599985302062e-07 1.8093636125454982e-06
000230 d9 85 09 98 c9 ad a4 3e 4f 3a 41 35 b1 30 ae 3e
       6.162779727198117e-07 8.997381919591802e-07
000240 24 2a ec d4 71 47 9d 3e 8e ea 09 10 99 a7 bb be
       4.3629230088494887e-07 -1.6483473360961485e-06
000250 a9 74 e8 6d eb b5 e5 3f cf c1 c5 22 df 81 e7 bf
       0.6784569880143368 -0.7346034697675864
000260 94 1b 6e 42 ab 6b 7d bf a6 93 c0 27 c0 77 f9 3f
       -0.0071827592681818105 1.5917359879324322
000270 f8 be 8f c8 2e 4b bc be ca 4d d1 5f ca de a0 3e
       -1.6864349012788711e-06 5.027733888198206e-07
000280 fd 0b f9 fb 29 6c aa be 58 b3 e6 60 7c e3 90 3e
       -7.874523290724496e-07 2.516599985302062e-07
000290 60 cd b3 54 28 5b be 3e d9 85 09 98 c9 ad a4 3e
       1.8093636125454982e-06 6.162779727198117e-07
0002a0 4f 3a 41 35 b1 30 ae 3e 24 2a ec d4 71 47 9d 3e
       8.997381919591802e-07 4.3629230088494887e-07
0002b0 8e ea 09 10 99 a7 bb be a9 74 e8 6d eb b5 e5 3f
       -1.6483473360961485e-06 0.6784569880143368
0002c0 cf c1 c5 22 df 81 e7 bf 94 1b 6e 42 ab 6b 7d bf
       -0.7346034697675864 -0.0071827592681818105
0002d0 a6 93 c0 27 c0 77 f9 3f 40 a7 43 63 7f 06 e3 be
       1.5917359879324322 -9.072008744632023e-06
0002e0 4e 3c 92 89 0a 9e c6 3e 44 04 43 be 26 0f d2 be
       2.696198020908246e-06 -4.305645209424595e-06
0002f0 56 c1 a4 3a 03 3a b7 3e cc f2 8c 42 5d 88 e4 3e
       1.3844139439938455e-06 9.79074145989727e-06
000300 54 8e a1 b7 c2 f6 ca 3e 0f 6b 3a 88 5f 80 d4 3e
       3.2143483937195896e-06 4.887928415487808e-06
000310 c5 79 26 86 a4 b7 c2 3e 53 bd 5f 3c f1 aa e2 be
       2.2312824949487404e-06 -8.901473744742322e-06
000320 ff e4 48 19 ea b5 e5 3f de dc d2 3d d2 81 e7 bf
       0.6784563535540257 -0.7345973212713053
000330 de 93 13 09 e4 67 7d bf f5 9c 50 09 c9 77 f9 3f
       -0.007179156077857988 1.5917444576132855
000340 40 a7 43 63 7f 06 e3 be 4e 3c 92 89 0a 9e c6 3e
       -9.072008744632023e-06 2.696198020908246e-06
000350 44 04 43 be 26 0f d2 be 56 c1 a4 3a 03 3a b7 3e
       -4.305645209424595e-06 1.3844139439938455e-06
000360 cc f2 8c 42 5d 88 e4 3e 54 8e a1 b7 c2 f6 ca 3e
       9.79074145989727e-06 3.2143483937195896e-06
000370 0f 6b 3a 88 5f 80 d4 3e c5 79 26 86 a4 b7 c2 3e
       4.887928415487808e-06 2.2312824949487404e-06
000380 53 bd 5f 3c f1 aa e2 be ff e4 48 19 ea b5 e5 3f
       -8.901473744742322e-06 0.6784563535540257
000390 de dc d2 3d d2 81 e7 bf de 93 13 09 e4 67 7d bf
       -0.7345973212713053 -0.007179156077857988
0003a0 f5 9c 50 09 c9 77 f9 3f ad 9c 5e 32 55 d4 f0 be
       1.5917444576132855 -1.6049790381747367e-05
0003b0 f0 df e2 83 47 f1 d3 3e 91 8e e8 0b 54 26 e0 be
       4.754661914123368e-06 -7.700786565818174e-06
0003c0 ed be af be d1 d4 c4 3e 4e 68 25 a1 ca 3b f2 3e
       2.4832875076193307e-06 1.738887846989444e-05
0003d0 3e 8b fa 90 d7 54 d7 3e e0 b6 06 97 86 40 e2 3e
       5.5626426413182225e-06 8.703257407950899e-06
0003e0 58 a2 4c 00 bb f0 cf 3e 49 65 d3 1f d3 8d f0 be
       3.8075868381735643e-06 -1.5787127257781562e-05
0003f0 ae 2a 6f e2 e8 b5 e5 3f 37 1e 0e fa c5 81 e7 bf
       0.6784557745498512 -0.7345914729966755
000400 d0 13 c5 1a 4a 64 7d bf 4b 97 65 74 d1 77 f9 3f
       -0.00717572161767506 1.591752485919147
000410 ad 9c 5e 32 55 d4 f0 be f0 df e2 83 47 f1 d3 3e
       -1.6049790381747367e-05 4.754661914123368e-06
000420 91 8e e8 0b 54 26 e0 be ed be af be d1 d4 c4 3e
       -7.700786565818174e-06 2.4832875076193307e-06
000430 4e 68 25 a1 ca 3b f2 3e 3e 8b fa 90 d7 54 d7 3e
       1.738887846989444e-05 5.5626426413182225e-06
000440 e0 b6 06 97 86 40 e2 3e 58 a2 4c 00 bb f0 cf 3e
       8.703257407950899e-06 3.8075868381735643e-06
000450 49 65 d3 1f d3 8d f0 be ae 2a 6f e2 e8 b5 e5 3f
       -1.5787127257781562e-05 0.6784557745498512
000460 37 1e 0e fa c5 81 e7 bf d0 13 c5 1a 4a 64 7d bf
       -0.7345914729966755 -0.00717572161767506
000470 4b 97 65 74 d1 77 f9 3f 18 77 9f b4 9d 26 f6 be
       1.591752485919147 -2.112469091019369e-05
000480 0c aa c5 1a 95 2d da 3e a1 e9 37 d9 69 6c e5 be
       6.241335011795371e-06 -1.0215516147650551e-05
000490 9e 87 6d 47 ee af cb 3e 83 7b 59 9e cf 10 f8 3e
       3.300574970153396e-06 2.2950809486106942e-05
0004a0 b4 e2 9d 7d 7b 34 de 3e 97 f4 92 c3 43 22 e8 3e
       7.201435403441401e-06 1.1507914779657672e-05
0004b0 29 aa 4a 97 84 74 d4 3e d7 13 9e a0 79 d3 f5 be
       4.876887363872966e-06 -2.081496680929662e-05
0004c0 88 a5 26 07 e8 b5 e5 3f dc 96 4e 01 bd 81 e7 bf
       0.6784553661029102 -0.7345871949698579
0004d0 cd d9 a3 43 a6 61 7d bf ec 07 43 98 d7 77 f9 3f
       -0.00717320391617311 1.5917583415725813
0004e0 7b 0c 97 74 b1 46 fa be 6d 0a 08 a0 55 fd de 3e
       -2.5058884863826403e-05 7.388493486806298e-06
0004f0 12 ce a0 55 11 8e e9 be 63 e5 23 47 cf 88 d0 3e
       -1.21855506912466e-05 3.9421112083490885e-06
000500 9b d0 a6 a0 81 9a fc 3e 04 21 d5 d7 57 b3 e1 3e
       2.7278461894389953e-05 8.440284313807496e-06
000510 62 80 d6 62 b4 b8 ec 3e a2 77 19 84 01 c9 d7 3e
       1.3695479618658523e-05 5.670828672058998e-06
000520 81 99 8d e3 0f ec f9 be b4 e6 24 60 e7 b5 e5 3f
       -2.47212576342192e-05 0.6784550550284707
000530 6e 0a e4 06 b6 81 e7 bf 3a 78 70 03 98 5f 7d bf
       -0.7345838675103786 -0.007171243479232864
000540 2f 16 d4 5c dc 77 f9 3f 7b 0c 97 74 b1 46 fa be
       1.5917628885375839 -2.5058884863826403e-05
000550 6d 0a 08 a0 55 fd de 3e 12 ce a0 55 11 8e e9 be
       7.388493486806298e-06 -1.21855506912466e-05
000560 63 e5 23 47 cf 88 d0 3e 9b d0 a6 a0 81 9a fc 3e
       3.9421112083490885e-06 2.7278461894389953e-05
000570 04 21 d5 d7 57 b3 e1 3e 62 80 d6 62 b4 b8 ec 3e
       8.440284313807496e-06 1.3695479618658523e-05
000580 a2 77 19 84 01 c9 d7 3e 81 99 8d e3 0f ec f9 be
       5.670828672058998e-06 -2.47212576342192e-05
000590 b4 e6 24 60 e7 b5 e5 3f 6e 0a e4 06 b6 81 e7 bf
       0.6784550550284707 -0.7345838675103786
0005a0 3a 78 70 03 98 5f 7d bf 2f 16 d4 5c dc 77 f9 3f
       -0.007171243479232864 1.5917628885375839
0005b0 7f 03 5e 9d 50 d4 fc be 8f 03 e6 aa bb f9 e0 3e
       -2.749381550115918e-05 8.094558634709637e-06
0005c0 a6 0e 64 19 43 24 ec be b1 e0 37 14 22 39 d2 3e
       -1.3418983865871283e-05 4.344743789179578e-06
0005d0 1e f9 25 72 67 6c ff 3e 8e 58 2c e8 19 43 e3 3e
       2.9967740496677634e-05 9.184891728558177e-06
0005e0 f0 c4 cd d9 75 94 ef 3e b8 da d1 b8 5e be d9 3e
       1.5058480863779843e-05 6.137760363170395e-06
0005f0 c8 f3 2d 31 98 76 fc be 64 67 d5 fa e6 b5 e5 3f
       -2.7144679801239196e-05 0.6784548663228915
000600 81 0e 3b b1 b1 81 e7 bf de 95 ba 8a 50 5e 7d bf
       -0.7345818006073871 -0.007170023552736519
000610 03 cf a4 51 df 77 f9 3f 7f 03 5e 9d 50 d4 fc be
       1.5917657078943541 -2.749381550115918e-05
000620 8f 03 e6 aa bb f9 e0 3e a6 0e 64 19 43 24 ec be
       8.094558634709637e-06 -1.3418983865871283e-05
000630 b1 e0 37 14 22 39 d2 3e 1e f9 25 72 67 6c ff 3e
       4.344743789179578e-06 2.9967740496677634e-05
000640 8e 58 2c e8 19 43 e3 3e f0 c4 cd d9 75 94 ef 3e
       9.184891728558177e-06 1.5058480863779843e-05
000650 b8 da d1 b8 5e be d9 3e c8 f3 2d 31 98 76 fc be
       6.137760363170395e-06 -2.7144679801239196e-05
000660 64 67 d5 fa e6 b5 e5 3f 81 0e 3b b1 b1 81 e7 bf
       0.6784548663228915 -0.7345818006073871
000670 de 95 ba 8a 50 5e 7d bf 03 cf a4 51 df 77 f9 3f
       -0.007170023552736519 1.5917657078943541
000680 86 9d 61 65 35 ef fd be 2b 81 d2 be da 9c e1 3e
       -2.8547676571481012e-05 8.39839591498854e-06
000690 ea 31 cf 1e 66 45 ed be e0 e3 40 d2 e8 f5 d2 3e
       -1.3957543126518754e-05 4.520555453573779e-06
0006a0 25 5c 5a 0c e7 52 00 3f 25 ca 8c 98 05 ec e3 3e
       3.1135250123153186e-05 9.499530976596574e-06
0006b0 ae bb df 3d 5e 69 f0 3e 54 31 92 cb 8c 8e da 3e
       1.565131594099725e-05 6.331643072187847e-06
0006c0 19 13 d4 d3 a2 90 fd be 37 c4 90 cf e6 b5 e5 3f
       -2.819536643007816e-05 0.6784547857297473
0006d0 f0 a3 a5 cf af 81 e7 bf f7 21 50 3b c2 5d 7d bf
       -0.7345809035879238 -0.0071694934058616966
0006e0 8f a3 a3 99 e0 77 f9 3f 86 9d 61 65 35 ef fd be
       1.59176692977255 -2.8547676571481012e-05
0006f0 2b 81 d2 be da 9c e1 3e ea 31 cf 1e 66 45 ed be
       8.39839591498854e-06 -1.3957543126518754e-05
000700 e0 e3 40 d2 e8 f5 d2 3e 25 5c 5a 0c e7 52 00 3f
       4.520555453573779e-06 3.1135250123153186e-05
000710 25 ca 8c 98 05 ec e3 3e ae bb df 3d 5e 69 f0 3e
       9.499530976596574e-06 1.565131594099725e-05
000720 54 31 92 cb 8c 8e da 3e 19 13 d4 d3 a2 90 fd be
       6.331643072187847e-06 -2.819536643007816e-05
000730 37 c4 90 cf e6 b5 e5 3f f0 a3 a5 cf af 81 e7 bf
       0.6784547857297473 -0.7345809035879238
000740 f7 21 50 3b c2 5d 7d bf 8f a3 a3 99 e0 77 f9 3f
       -0.0071694934058616966 1.59176692977255
000750 e6 10 57 e0 49 df fe be 40 e3 9f e5 af 26 e2 3e
       -2.944204427081454e-05 8.655129182232068e-06
000760 42 c8 7d 4f c3 3c ee be 6b df c7 7f ab 97 d3 3e
       -1.4418294526062054e-05 4.671206621946351e-06
000770 b5 f2 2d d5 41 d8 00 3f 0a 55 3d 9c 3f 78 e4 3e
       3.212881951861671e-05 9.76072340789582e-06
000780 5a eb 94 6d 0e f1 f0 3e 3b 71 18 68 57 38 db 3e
       1.615679398024191e-05 6.489773683362582e-06
000790 4d de 50 84 5e 80 fe be eb 55 64 ab e6 b5 e5 3f
       -2.9088442051709765e-05 0.6784547183512449
0007a0 e0 2c ed 35 ae 81 e7 bf b1 18 9d f4 48 5d 7d bf
       -0.7345801404238976 -0.007169041616924486
0007b0 d5 14 5c b0 e1 77 f9 3f e6 10 57 e0 49 df fe be
       1.5917679680872443 -2.944204427081454e-05
0007c0 40 e3 9f e5 af 26 e2 3e 42 c8 7d 4f c3 3c ee be
       8.655129182232068e-06 -1.4418294526062054e-05
0007d0 6b df c7 7f ab 97 d3 3e b5 f2 2d d5 41 d8 00 3f
       4.671206621946351e-06 3.212881951861671e-05
0007e0 0a 55 3d 9c 3f 78 e4 3e 5a eb 94 6d 0e f1 f0 3e
       9.76072340789582e-06 1.615679398024191e-05
0007f0 3b 71 18 68 57 38 db 3e 4d de 50 84 5e 80 fe be
       6.489773683362582e-06 -2.9088442051709765e-05
