ws_icra2022/src/my_pkg/ur5_eye2hand/hololens2_adaptive_circle/log_theta_k.npy (npy, 210968 bytes, 1 tensors)

array f8 [1757, 15, 1]
-1478.2073415558864 -1857.8679771009195 -13.868039803825834 -1.3380888482441866 23.819768641199822 -1915.3792066586122 0.7478873286435386 -0.7979391986963283
-0.007051737724201544 590.6033360288353 -571.7623543259679 -4.346010472233275 364.21276600986596 -478.99501282832523 -3.7298509765172487 -1478.2073415564857
-1857.8679771006364 -13.868039804558322 -1.3380888487018734 23.819768641416026 -1915.3792066591716 0.7478881460995085 -0.7979395848468877 -0.007050738676365126
590.603336028236 -571.7623543256848 -4.346010472965762 364.21276600940826 -478.99501282810905 -3.729850977076607 -1478.2073415570585 -1857.8679771004565
-13.868039805188069 -1.3380888491329117 23.819768641551313 -1915.3792066596454 0.7478889235851425 -0.7979398288745241 -0.007049883979681072 590.6033360276631
-571.7623543255049 -4.346010473595509 364.2127660089772 -478.99501282797377 -3.729850977550451 -1478.20734158691 -1857.8679769909443 -13.868039650019096
-1.338088871342039 23.81976872302724 -1915.3792065442012 0.7479292859772356 -0.7980879014829239 -0.007259689701709327 590.6033359978117 -571.7623542159928
-4.346010318426536 364.2127659867681 -478.9950127464978 -3.729850862106303 -1478.2073411900303 -1857.867976329639 -13.868039001902497 -1.3380885793278285
23.81976920959925 -1915.379206067333 0.7473945974232474 -0.7989788323867043 -0.008132852598920682 590.6033363946913 -571.7623535546877 -4.346009670309939
364.2127662787823 -478.99501225992583 -3.7298503852380924 -1478.2073403250888 -1857.8679755359915 -13.868037848021391 -1.3380879502972525 23.819769786781166
-1915.3792052281703 0.7462337693997354 -0.8000439776535043 -0.009681463067056138 590.6033372596328 -571.7623527610401 -4.3460085164288325 364.21276690781286
-478.9950116827439 -3.7298495460756023 -1478.2073392369907 -1857.867974451143 -13.868036522994437 -1.3380871827490004 23.819770552037077 -1915.3792042934917
0.744795948952596 -0.8014775039425163 -0.011432362824100942 590.603338347731 -571.7623516761917 -4.3460071914018785 364.21276767536114 -478.995010917488
-3.7298486113969704 -1478.2073378958567 -1857.867973071055 -13.86803507532533 -1.3380862497410557 23.81977151214467 -1915.379203286369 0.7430315731760931
-0.8032931268290762 -0.013336894442557905 590.603339688865 -571.7623502961037 -4.346005743732772 364.21276860836906 -478.99500995738043 -3.7298476042741373
-1478.2073367767848 -1857.8679718100109 -13.86803383118387 -1.3380854822639086 23.819772376988674 -1915.3792024331171 0.7415659564900816 -0.8049446806357949
-0.014966311240629387 590.6033408079369 -571.7623490350595 -4.346004499591311 364.2127693758462 -478.9950090925364 -3.7298467510222824 -1478.2073358313273
-1857.8679708541526 -13.86803283757648 -1.3380848345206338 23.819773031857633 -1915.3792017523858 0.7403565220687777 -0.8061674197819615 -0.016237339204841706
590.6033417533945 -571.7623480792012 -4.346003505983921 364.2127700235895 -478.9950084376674 -3.729846070291024 -1478.2073348622246 -1857.8679699226113
-13.868031766357515 -1.3380841826469247 23.81977365846537 -1915.379201031823 0.7391239068409347 -0.8073522600803614 -0.017599837416064062 590.6033427224972
-571.7623471476599 -4.346002434764955 364.2127706754632 -478.9950078110597 -3.729845349728157 -1478.2073343310851 -1857.8679693825932 -13.868031165068494
-1.338083824868164 23.819774022225005 -1915.3792006267909 0.7384583906934353 -0.8080289014491463 -0.018353250924450126 590.6033432536366 -571.7623466076416
-4.346001833475936 364.212771033242 -478.99500744730005 -3.729844944696134 -1478.2073338138575 -1857.867968807329 -13.868030632266683 -1.338083484923372
23.819774400314113 -1915.37920027661 0.7378151890559713 -0.8087442750607935 -0.019015820011879736 590.6033437708642 -571.7623460323773 -4.346001300674125
364.2127713731868 -478.99500706921094 -3.729844594515262 -1478.2073334935978 -1857.867968479535 -13.86803022802981 -1.3380832640412268 23.819774626392604
-1915.379199997809 0.7374143046754253 -0.809154590414941 -0.01952182252753634 590.603344091124 -571.7623457045833 -4.346000896437252 364.21277159406895
-478.99500684313244 -3.729844315714374 -1478.207333195099 -1857.8679681338256 -13.868029874471196 -1.3380830641865133 23.819774857856164 -1915.3791997610901
0.7370441115890409 -0.809583332914051 -0.01996029958539632 590.603344389623 -571.762345358874 -4.346000542878638 364.21277179392365 -478.9950066116689
-3.7298440789954563 -1478.2073329782434 -1857.8679678988049 -13.868029634045413 -1.3380829252714226 23.819775008407493 -1915.3791996070763 0.7367810173719631
-0.8098684652466326 -0.020251989550362313 590.6033446064787 -571.7623451238534 -4.346000302452856 364.21277193283873 -478.99500646111755 -3.729843924981665
-1478.2073327673668 -1857.867967676528 -13.868029390804812 -1.3380827954722103 23.819775145223737 -1915.3791994573564 0.7365281826883919 -0.8101349683407869
-0.020543627625613594 590.6033448173554 -571.7623449015766 -4.346000059212256 364.21277206263795 -478.9950063243013 -3.7298437752617297 -1478.207332629845
00000000: 8946 5851 d418 97c0 8138 fdce 7807 9dc0
00000010: ce1d 92b6 6fbc 2bc0 0f9e 25da cf68 f5bf
00000020: 563d 905b dcd1 3740 a914 c04e 84ed 9dc0
00000030: d8bc 3368 b1ee e73f 111c 53c9 b788 e9bf
00000040: 8b94 7c6e 48e2 7cbf c502 d7a1 d374 8240
00000050: f88f 394d 19de 81c0 0143 b991 5062 11c0
00000060: 32e1 547d 67c3 7640 1e4c 9292 ebef 7dc0
00000070: 11c3 d81b bcd6 0dc0 d550 5851 d418 97c0
00000080: a433 fdce 7807 9dc0 9068 98b6 6fbc 2bc0
00000090: c511 45da cf68 f5bf 0e2b 915b dcd1 3740
000000a0: 451e c04e 84ed 9dc0 db07 121f b3ee e73f
000000b0: 073d a398 b888 e9bf ba2c 7140 3ce1 7cbf
000000c0: 2dee d6a1 d374 8240 3e86 394d 19de 81c0
000000d0: 84d8 c591 5062 11c0 bec1 547d 67c3 7640
000000e0: 433d 9292 ebef 7dc0 3cfb eb1b bcd6 0dc0
000000f0: ac5a 5851 d418 97c0 8d30 fdce 7807 9dc0
00000100: 64d1 9db6 6fbc 2bc0 adb0 62da cf68 f5bf
00000110: cebf 915b dcd1 3740 6926 c04e 84ed 9dc0
00000120: b2d7 7ac0 b4ee e73f 3024 a61b b988 e9bf
00000130: e818 22d2 56e0 7cbf 7eda d6a1 d374 8240
00000140: 1080 394d 19de 81c0 2caa d091 5062 11c0
00000150: 1fa4 547d 67c3 7640 f733 9292 ebef 7dc0
00000160: 3643 fc1b bcd6 0dc0 845b 5a51 d418 97c0
00000170: 25d7 f5ce 7807 9dc0 36ed 68b1 6fbc 2bc0
00000180: c6e3 58e0 cf68 f5bf 89af ef5c dcd1 3740
00000190: 1867 b84e 84ed 9dc0 7fc5 df65 09ef e73f
000001a0: 4a7a 86a3 ef89 e9bf 8d33 911d 56bc 7dbf
000001b0: ced8 d2a1 d374 8240 41cd 2a4d 19de 81c0
000001c0: d0e1 6687 5062 11c0 ecad 4e7d 67c3 7640
000001d0: fb54 7c92 ebef 7dc0 bfa1 7d0c bcd6 0dc0
000001e0: 2db9 3f51 d418 97c0 0276 c9ce 7807 9dc0
000001f0: bda5 a99b 6fbc 2bc0 75d3 f591 cf68 f5bf
00000200: 1e7f 1965 dcd1 3740 8f66 984e 84ed 9dc0
00000210: 567a 2413 a8ea e73f 5782 690e 3c91 e9bf
00000220: 2d03 7cff f4a7 80bf 7c1d 08a2 d374 8240
00000230: fc0a d24c 19de 81c0 df52 e85b 5062 11c0
00000240: fc10 9d7d 67c3 7640 02b8 f991 ebef 7dc0
00000250: 9b90 7ccc bbd6 0dc0 98ad 0551 d418 97c0
00000260: 3f33 94ce 7807 9dc0 5ae2 f174 6fbc 2bc0
00000270: 892c 1be9 ce68 f5bf 5879 c86e dcd1 3740
00000280: db15 604e 84ed 9dc0 f2c3 57a4 25e1 e73f
00000290: 1746 ecd3 f599 e9bf 9fe5 00fa dfd3 83bf
000002a0: a634 7ca2 d374 8240 7685 674c 19de 81c0
000002b0: 19cc 780e 5062 11c0 a3eb 457e 67c3 7640
000002c0: 5ec8 5e91 ebef 7dc0 4829 db5b bbd6 0dc0
000002d0: 36a8 bc50 d418 97c0 b165 4bce 7807 9dc0
000002e0: 44fd 7b48 6fbc 2bc0 e3a8 111b ce68 f5bf
000002f0: 1e39 9f7b dcd1 3740 335c 214e 84ed 9dc0
00000300: dd3a 5e50 5ed5 e73f cf35 7d26 b4a5 e9bf
00000310: a86c 90c3 d969 87bf 6b3f 0ea3 d374 8240
00000320: 5aea d54b 19de 81c0 ed01 8db5 4f62 11c0
00000330: 27f5 137f 67c3 7640 625c 9190 ebef 7dc0
00000340: 17d9 67de bad6 0dc0 b4a7 6250 d418 97c0
00000350: f6c7 eecd 7807 9dc0 3c9b e817 6fbc 2bc0
00000360: 8bd7 9d20 cd68 f5bf 94da ba8b dcd1 3740
00000370: f6c5 dd4d 84ed 9dc0 ddf9 5526 eac6 e73f
00000380: 88a3 9ac9 93b4 e9bf b61b b0ab 5f50 8bbf
00000390: 6f40 c2a3 d374 8240 e4ae 1c4b 19de 81c0
000003a0: dd3d 6654 4f62 11c0 f868 0e80 67c3 7640
000003b0: 4ba2 8f8f ebef 7dc0 f75e 3b57 bad6 0dc0
000003c0: 328e 1750 d418 97c0 6327 9acd 7807 9dc0
000003d0: 3b83 29ee 6ebc 2bc0 c936 9952 cc68 f5bf
000003e0: 9e54 3d9a dcd1 3740 3583 a44d 84ed 9dc0
000003f0: a275 5e87 e8ba e73f da6f cd58 1bc2 e9bf
00000400: b0e4 8f4a a8a6 8ebf 7373 58a4 d374 8240
00000410: be6d 734a 19de 81c0 da0d e800 4f62 11c0
00000420: 996d dc80 67c3 7640 aa7a a78e ebef 7dc0
00000430: 47dc b5e4 b9d6 0dc0 5c1b d84f d418 97c0
00000440: de01 5acd 7807 9dc0 797d d2cc 6ebc 2bc0
00000450: 96a2 b8a4 cb68 f5bf a7f8 39a5 dcd1 3740
00000460: 55d4 764d 84ed 9dc0 6f4d 3529 00b1 e73f
00000470: 280e e29d 1fcc e9bf 5d77 6f63 85a0 90bf
00000480: 2059 d7a4 d374 8240 b322 f349 19de 81c0
00000490: 5602 3abe 4e62 11c0 2d4e 8a81 67c3 7640
000004a0: 69b0 f78d ebef 7dc0 ce1c 5889 b9d6 0dc0
000004b0: 4d12 974f d418 97c0 1c7e 1bcd 7807 9dc0
000004c0: 0eca e0a8 6ebc 2bc0 0537 bcf5 ca68 f5bf
000004d0: 253b bdaf dcd1 3740 2879 464d 84ed 9dc0
000004e0: a55a f22d e7a6 e73f e7b2 2c68 d4d5 e9bf
000004f0: dbb7 7718 b105 92bf 3e6b 59a5 d374 8240
00000500: 2f1b 7649 19de 81c0 809b 5676 4e62 11c0
00000510: 994a 3982 67c3 7640 417c 4f8d ebef 7dc0
00000520: cdc2 a128 b9d6 0dc0 656d 734f d418 97c0
00000530: ab40 f7cc 7807 9dc0 84c1 b394 6ebc 2bc0
00000540: 7fd8 b195 ca68 f5bf 1891 d7b5 dcd1 3740
00000550: c24a 2b4d 84ed 9dc0 e785 af7d 73a1 e73f
00000560: ed4c 3e6d 5fdb e9bf b3b1 fbd1 31cb 92bf
00000570: 0db5 a0a5 d374 8240 4ca0 2d49 19de 81c0
00000580: 6d8a fc4d 4e62 11c0 f854 9982 67c3 7640
00000590: e2d6 ed8c ebef 7dc0 73f7 44f2 b8d6 0dc0
000005a0: 7eb7 504f d418 97c0 b4a5 d0cc 7807 9dc0
000005b0: f105 d382 6ebc 2bc0 7904 713a ca68 f5bf
000005c0: 7772 2fbc dcd1 3740 b2ca 134d 84ed 9dc0
000005d0: 3999 6f99 2e9c e73f a7d3 86ac 3be1 e9bf
000005e0: 8007 3b14 e278 93bf db20 e6a5 d374 8240
000005f0: 5e6a e048 19de 81c0 4813 3b2a 4e62 11c0
00000600: cc95 f482 67c3 7640 cc58 888c ebef 7dc0
00000610: ecd7 44c3 b8d6 0dc0 7939 3b4f d418 97c0
00000620: 3fa6 bacc 7807 9dc0 a8a7 4275 6ebc 2bc0
00000630: ae1c 26ff c968 f5bf 6572 fabf dcd1 3740
00000640: ef14 014d 84ed 9dc0 7edf 45e2 e598 e73f
00000650: bdb1 e72a 98e4 e9bf 679f 4155 87fd 93bf
00000660: e61c 11a6 d374 8240 736b b448 19de 81c0
00000670: b656 1a0f 4e62 11c0 b4e0 2f83 67c3 7640
00000680: cda8 4b8c ebef 7dc0 6151 d99d b8d6 0dc0
00000690: 4d31 274f d418 97c0 0173 a3cc 7807 9dc0
000006a0: 0b9c 6569 6ebc 2bc0 6133 80c9 c968 f5bf
000006b0: 4593 dcc3 dcd1 3740 2232 f14c 84ed 9dc0
000006c0: 6e7f 5f88 dd95 e73f b914 484e 1be8 e9bf
000006d0: 9524 c007 7970 94bf 3f2d 39a6 d374 8240
000006e0: f804 8648 19de 81c0 7c3f 60f7 4d62 11c0
000006f0: 9d86 6583 67c3 7640 bf86 0d8c ebef 7dc0
00000700: c2b7 137e b8d6 0dc0 c0a3 184f d418 97c0
00000710: 61ad 93cc 7807 9dc0 285e 5461 6ebc 2bc0
00000720: 4207 36a4 c968 f5bf 3530 63c6 dcd1 3740
00000730: 32dc e64c 84ed 9dc0 58a3 bdc8 b593 e73f
00000740: d478 8945 71ea e9bf b9e2 3003 f0bc 94bf
00000750: 5a48 56a6 d374 8240 b979 6648 19de 81c0
00000760: b6c3 3de7 4d62 11c0 c9d0 8a83 67c3 7640
00000770: f01c e58b ebef 7dc0 1fd8 6769 b8d6 0dc0
00000780: eb7c 0a4f d418 97c0 b1c2 84cc 7807 9dc0
00000790: 6bf2 2a59 6ebc 2bc0 5e4b 5e81 c968 f5bf
000007a0: 42cf aec8 dcd1 3740 07d0 dc4c 84ed 9dc0
000007b0: 9d53 278d a391 e73f 61d4 4b2b a0ec e9bf
000007c0: e73f 2c83 6309 95bf 0596 72a6 d374 8240
000007d0: 5aa4 4848 19de 81c0 3dec ead6 4d62 11c0
000007e0: 85a8 ad83 67c3 7640 ff62 c08b ebef 7dc0
000007f0: a581 4f55 b8d6 0dc0 5042 014f d418 97c0
