ws_icra2022/src/my_pkg/ur5_eye2hand/keyboard_adaptive/0913_change/log_theta_z.npy (npy, 13960 bytes, 1 tensors)

array f8 [133, 13, 1]
00000000: 0000 0000 0000 0000 0000 0000 0000 0000
00000010: 0000 0000 0000 0000 0000 0000 0000 0000
00000020: 0000 0000 0000 0000 0000 0000 0000 0000
00000030: 0000 0000 0000 0000 0000 0000 0000 0000
00000040: 0000 0000 0000 0000 93db bc92 6081 a43f
00000050: 42c3 cd6f b9f6 efbf 5ff7 0c97 0b4b 9a3f
00000060: 6046 ca79 7336 ec3f 3564 fa26 4498 cabe
00000070: 75f3 e75c 03ac 96be a6e0 17be 0e52 c2be
00000080: 89fb 4e32 23e5 90be 0ffa 8244 6025 d03e
00000090: 5b69 18e9 60df 8ebe 24d6 4cb7 f16a c23e
000000a0: aa3f eb97 70ec 68be 1018 af8e f8ac cabe
000000b0: a41a a9d3 b280 a43f 7372 0c85 8df6 efbf
000000c0: 7961 5a48 6050 9a3f 3f93 ecef 9d39 ec3f
000000d0: 3564 fa26 4498 cabe 75f3 e75c 03ac 96be
000000e0: a6e0 17be 0e52 c2be 89fb 4e32 23e5 90be
000000f0: 0ffa 8244 6025 d03e 5b69 18e9 60df 8ebe
00000100: 24d6 4cb7 f16a c23e aa3f eb97 70ec 68be
00000110: 1018 af8e f8ac cabe a41a a9d3 b280 a43f
00000120: 7372 0c85 8df6 efbf 7961 5a48 6050 9a3f
00000130: 3f93 ecef 9d39 ec3f 7ca0 5bfd 71bc aa3e
00000140: 1c86 8ac5 9cbe 763e e070 8f18 566b a23e
00000150: 0855 279a 81f4 703e 1012 d1f3 713b b0be
00000160: 8c2b 4210 3ef4 6e3e ac8e e61b 3a84 a2be
00000170: 1012 1be3 e2e9 483e 6013 8666 31d1 aa3e
00000180: fd7d c227 8c81 a43f 0bcd f078 c4f6 efbf
00000190: c5d5 a194 b449 9a3f e0a5 33c8 a735 ec3f
000001a0: 7ca0 5bfd 71bc aa3e 1c86 8ac5 9cbe 763e
000001b0: e070 8f18 566b a23e 0855 279a 81f4 703e
000001c0: 1012 d1f3 713b b0be 8c2b 4210 3ef4 6e3e
000001d0: ac8e e61b 3a84 a2be 1012 1be3 e2e9 483e
000001e0: 6013 8666 31d1 aa3e fd7d c227 8c81 a43f
000001f0: 0bcd f078 c4f6 efbf c5d5 a194 b449 9a3f
00000200: e0a5 33c8 a735 ec3f 2f15 ec55 5e23 0bbf
00000210: e97e 624e c177 d6be 3a0f 65d9 7bb7 02bf
00000220: a7f3 90e4 1513 d0be e46f 6b49 2d7b 103f
00000230: 1237 22e7 df42 d0be 9a9b bb6a bed1 023f
00000240: 0a80 a22d 75fa b0be 04ea e38c 0f35 0bbf
00000250: 73d7 1e62 8776 a43f de22 1ed2 ecf3 efbf
00000260: 9a0e 5b5d d6a1 9a3f d763 d9df 256a ec3f
00000270: 1779 81cc a087 3dbf a7af ecb3 dfd8 07bf
00000280: 3d07 8760 7d60 34bf dec7 1a38 768d 00bf
00000290: f8b2 0df2 90ef 413f 5553 e98f 32fe 01bf
000002a0: 90ce 1f11 547d 343f 0300 27b9 178f e5be
000002b0: 487c ce9f 3398 3dbf 439c a7ec 7424 a43f
000002c0: 3885 8145 5fde efbf ea77 d8f2 143d 9d3f
000002d0: a096 b68a 78f8 ed3f 1779 81cc a087 3dbf
000002e0: a7af ecb3 dfd8 07bf 3d07 8760 7d60 34bf
000002f0: dec7 1a38 768d 00bf f8b2 0df2 90ef 413f
00000300: 5553 e98f 32fe 01bf 90ce 1f11 547d 343f
00000310: 0300 27b9 178f e5be 487c ce9f 3398 3dbf
00000320: 439c a7ec 7424 a43f 3885 8145 5fde efbf
00000330: ea77 d8f2 143d 9d3f a096 b68a 78f8 ed3f
00000340: acfe eb67 1e89 4fbf 99a9 b932 167c 18bf
00000350: fa3e e48b b0c9 45bf 2526 a794 c601 10bf
00000360: 0476 a2e5 d828 533f 0ae6 3cfe 84e4 13bf
00000370: f426 153d f6e8 453f 56d2 f767 4dfb fcbe
00000380: 10d2 be82 0f96 4fbf 812d 4177 3ac0 a33f
00000390: f37d 6243 c1c2 efbf 5efe f500 ef47 a03f
000003a0: 4780 8ad9 c2f7 ef3f ce06 6f27 a292 58bf
000003b0: 1866 8d3d f485 22bf 949f 0e46 2dfe 50bf
000003c0: 3a43 a44e e60d 17bf 42e6 5402 52dd 5d3f
000003d0: a29b c02e 63c4 1fbf efd4 cc22 a716 513f
000003e0: a909 bfc2 0ef5 09bf 0403 a4d0 0e9a 58bf
000003f0: be53 42cc 4f5a a33f 62b1 7570 c7a5 efbf
00000400: c0dc 6f13 e704 a23f cc03 2c88 5f08 f13f
00000410: ce06 6f27 a292 58bf 1866 8d3d f485 22bf
00000420: 949f 0e46 2dfe 50bf 3a43 a44e e60d 17bf
00000430: 42e6 5402 52dd 5d3f a29b c02e 63c4 1fbf
00000440: efd4 cc22 a716 513f a909 bfc2 0ef5 09bf
00000450: 0403 a4d0 0e9a 58bf be53 42cc 4f5a a33f
00000460: 62b1 7570 c7a5 efbf c0dc 6f13 e704 a23f
00000470: cc03 2c88 5f08 f13f 527f 0410 5624 60bf
00000480: 90c2 caf4 6566 27bf d03e 2787 5d5a 56bf
00000490: 86f1 4c71 4510 1bbf 48e1 92c4 6a9f 633f
000004a0: 42f0 5db7 dd88 25bf e5ac 9335 327a 563f
000004b0: 8000 e0dd b4f4 13bf 2019 679c fd26 60bf
000004c0: 0e79 b0c0 b507 a33f eda6 1a03 728c efbf
000004d0: 9769 9467 2e87 a33f ca8c 48b3 a4f3 f13f
000004e0: 527f 0410 5624 60bf 90c2 caf4 6566 27bf
000004f0: d03e 2787 5d5a 56bf 86f1 4c71 4510 1bbf
00000500: 48e1 92c4 6a9f 633f 42f0 5db7 dd88 25bf
00000510: e5ac 9335 327a 563f 8000 e0dd b4f4 13bf
00000520: 2019 679c fd26 60bf 0e79 b0c0 b507 a33f
00000530: eda6 1a03 728c efbf 9769 9467 2e87 a33f
00000540: ca8c 48b3 a4f3 f13f bd28 e1f5 1e11 64bf
00000550: 1568 a48f 7cb6 2bbf c032 0999 abd4 5bbf
00000560: a98c 6317 a5d9 1cbf 4ca6 7bec 7066 683f
00000570: 52c0 58a2 03c7 2bbf dce6 236f fcfa 5b3f
00000580: 429d 0b57 6f28 1dbf 119d 534b 2d11 64bf
00000590: b895 41be 82ba a23f 1a12 e23d b072 efbf
000005a0: 7abd 15ad f70c a53f faf9 fda9 53e3 f23f
000005b0: bd28 e1f5 1e11 64bf 1568 a48f 7cb6 2bbf
000005c0: c032 0999 abd4 5bbf a98c 6317 a5d9 1cbf
000005d0: 4ca6 7bec 7066 683f 52c0 58a2 03c7 2bbf
000005e0: dce6 236f fcfa 5b3f 429d 0b57 6f28 1dbf
000005f0: 119d 534b 2d11 64bf b895 41be 82ba a23f
00000600: 1a12 e23d b072 efbf 7abd 15ad f70c a53f
00000610: faf9 fda9 53e3 f23f 8953 ea4c c0a3 68bf
00000620: 64ae 44af cbfa 2fbf 33c7 883c e21e 61bf
00000630: 4c97 994d 6521 1cbf 9a1d 1e1a 00f8 6d3f
00000640: fe9a 77be 11da 31bf 0518 d548 db34 613f
00000650: bcd9 7379 ba44 25bf c918 4808 eb9e 68bf
00000660: 9ff2 53da cf68 a23f a125 33b9 b454 efbf
00000670: 41cf ee29 dcce a63f 5367 a7b4 dbfa f33f
00000680: 8953 ea4c c0a3 68bf 64ae 44af cbfa 2fbf
00000690: 33c7 883c e21e 61bf 4c97 994d 6521 1cbf
000006a0: 9a1d 1e1a 00f8 6d3f fe9a 77be 11da 31bf
000006b0: 0518 d548 db34 613f bcd9 7379 ba44 25bf
000006c0: c918 4808 eb9e 68bf 9ff2 53da cf68 a23f
000006d0: a125 33b9 b454 efbf 41cf ee29 dcce a63f
000006e0: 5367 a7b4 dbfa f33f b922 a7f7 9f1c 6bbf
000006f0: 02e2 080f f3e8 30bf a07d fe94 9edc 62bf
00000700: dd25 4bdd 6109 1abf 43b3 8b4f 6d7d 703f
00000710: 239d b7dc b12f 34bf fabc 2ae4 3ff3 623f
00000720: 44ad 8a40 71af 29bf a6a9 e989 0e14 6bbf
00000730: 6a3e 9366 8f41 a23f cebe 87e0 8144 efbf
00000740: 370e 2a08 bbbf a73f 7918 4201 2892 f43f
00000750: b922 a7f7 9f1c 6bbf 02e2 080f f3e8 30bf
00000760: a07d fe94 9edc 62bf dd25 4bdd 6109 1abf
00000770: 43b3 8b4f 6d7d 703f 239d b7dc b12f 34bf
00000780: fabc 2ae4 3ff3 623f 44ad 8a40 71af 29bf
00000790: a6a9 e989 0e14 6bbf 6a3e 9366 8f41 a23f
000007a0: cebe 87e0 8144 efbf 370e 2a08 bbbf a73f
000007b0: 7918 4201 2892 f43f ce66 818e 37d7 6cbf
000007c0: d1e1 2ae1 cc6a 31bf 723d 5fb9 c415 64bf
000007d0: e7d0 6b7f 9688 17bf 33cf 897f fc8a 713f
000007e0: 3f29 2931 aaf1 35bf 4425 9fcb 2d2c 643f
000007f0: 9677 6686 bc46 2dbf 7c76 6a40 5ccb 6cbf
0.0 0.0 0.0 0.0 0.0 0.0 0.0 0.0
0.0 0.04004957 -0.99886772 0.0256769 0.88164686 -3.170346012226528e-06 -3.378380285799475e-07 -2.1839782540188794e-06
-2.5175613621233383e-07 3.849506420460047e-06 -2.300185895511209e-07 2.1955669872407848e-06 -4.642380967633699e-08 -3.1799873929398424e-06 0.04004439195391754 -0.9988467787366758
0.0256972355042264 0.8820333181398395 -3.170346012226528e-06 -3.378380285799475e-07 -2.1839782540188794e-06 -2.5175613621233383e-07 3.849506420460047e-06 -2.300185895511209e-07
2.1955669872407848e-06 -4.642380967633699e-08 -3.1799873929398424e-06 0.04004439195391754 -0.9988467787366758 0.0256972355042264 0.8820333181398395 7.967982990882617e-07
8.473016189583157e-08 5.489373943140593e-07 6.316267912112954e-08 -9.675149634939894e-07 5.76564520858277e-08 -5.518350503674698e-07 1.1601307556445405e-08 7.992136490808355e-07
0.040050868848307865 -0.9988729822274832 0.02567178876093636 0.8815497312727381 7.967982990882617e-07 8.473016189583157e-08 5.489373943140593e-07 6.316267912112954e-08
-9.675149634939894e-07 5.76564520858277e-08 -5.518350503674698e-07 1.1601307556445405e-08 7.992136490808355e-07 0.040050868848307865 -0.9988729822274832 0.02567178876093636
0.8815497312727381 -5.1761928935115774e-05 -5.3567393704376655e-06 -3.569933612593145e-05 -3.8324720402189575e-06 6.287063511528596e-05 -3.876979109430363e-06 3.5894988597288266e-05
-1.011988550327083e-06 -5.18937464324028e-05 0.03996680329093651 -0.998526010881587 0.026007985542277547 0.8879575130514422 -0.00045058894875706204 -4.548485457286861e-05
-0.0003109270187701024 -3.15715506195161e-05 0.0005473573438457826 -3.431884578178913e-05 0.00031264593519540144 -1.0280111187976898e-05 -0.00045157680852442707 0.03934064282275831
-0.9958950383699294 0.028553321191900162 0.9365809163325203 -0.00045058894875706204 -4.548485457286861e-05 -0.0003109270187701024 -3.15715506195161e-05 0.0005473573438457826
-3.431884578178913e-05 0.00031264593519540144 -1.0280111187976898e-05 -0.00045157680852442707 0.03934064282275831 -0.9958950383699294 0.028553321191900162 0.9365809163325203
-0.0009623907534148288 -9.34017704651624e-05 -0.0006649124186725857 -6.106161632781682e-05 0.001169406712996036 -7.588445401731522e-05 0.0006686403595861077 -2.7639055131661122e-05
-0.0009639335380514109 0.03857596116776119 -0.9925237957103817 0.03179880987863436 0.9989942787979168 -0.001499803880264872 -0.00014132124376935238 -0.0010371629834739814
-8.79451578479463e-05 0.001822786414165015 -0.00012118201601705886 0.0010429985224623092 -4.950953766026955e-05 -0.0015015740087280247 0.03779839867016886 -0.9889867016295677
0.03519365417735676 1.0645442313400393 -0.001499803880264872 -0.00014132124376935238 -0.0010371629834739814 -8.79451578479463e-05 0.001822786414165015 -0.00012118201601705886
0.0010429985224623092 -4.950953766026955e-05 -0.0015015740087280247 0.03779839867016886 -0.9889867016295677 0.03519365417735676 1.0645442313400393 -0.0019704514417212904
-0.0001785277803683272 -0.001364318214303429 -0.00010323928684114443 0.0023953519163023886 -0.00016429621217273384 0.0013719072651905914 -7.612565920567423e-05 -0.0019717171992140875
0.037168197414063284 -0.9858942089678898 0.038140726226816905 1.1219832423455949 -0.0019704514417212904 -0.0001785277803683272 -0.001364318214303429 -0.00010323928684114443
0.0023953519163023886 -0.00016429621217273384 0.0013719072651905914 -7.612565920567423e-05 -0.0019717171992140875 0.037168197414063284 -0.9858942089678898 0.038140726226816905
1.1219832423455949 -0.002449570150052953 -0.000211432175839133 -0.0016986537704212629 -0.00011005468499862788 0.0029785352270337625 -0.00021192473757159158 0.0017077889611400365
-0.00011122874799306562 -0.0024495968487944293 0.03657921383345858 -0.9827500542310788 0.04111455905774171 1.1804997101131662 -0.002449570150052953 -0.000211432175839133
-0.0016986537704212629 -0.00011005468499862788 0.0029785352270337625 -0.00021192473757159158 0.0017077889611400365 -0.00011122874799306562 -0.0024495968487944293 0.03657921383345858
-0.9827500542310788 0.04111455905774171 1.1804997101131662 -0.0030077701442884947 -0.00024398552307879344 -0.002089921825494745 -0.00010730915837483846 0.0036582948677652107
-0.0002723973579733945 0.002100399293939683 -0.00016226555155869442 -0.0030054655528629387 0.03595590152869942 -0.9790900818999725 0.044546966665989014 1.2487446839135898
-0.0030077701442884947 -0.00024398552307879344 -0.002089921825494745 -0.00010730915837483846 0.0036582948677652107 -0.0002723973579733945 0.002100399293939683 -0.00016226555155869442
-0.0030054655528629387 0.03595590152869942 -0.9790900818999725 0.044546966665989014 1.2487446839135898 -0.0033095478404202264 -0.00025802549410827724 -0.0023024651818130543
-9.932193581643025e-05 0.004025866503735656 -0.0003080186113195318 0.0023132560612207894 -0.0001959634539806331 -0.003305462261143438 0.03565643431795425 -0.9771127114635989
0.04638466334020246 1.285682682909764 -0.0033095478404202264 -0.00025802549410827724 -0.0023024651818130543 -9.932193581643025e-05 0.004025866503735656 -0.0003080186113195318
0.0023132560612207894 -0.0001959634539806331 -0.003305462261143438 0.03565643431795425 -0.9771127114635989 0.04638466334020246 1.285682682909764 -0.003520592221360675
-0.0002657652086486525 -0.0024517862575305577 -8.977335515309195e-05 0.004282938309746065 -0.00033483891562426435 0.0024624723855352377 -0.00022336055117205535 -0.0035149385251561065
