ws_icra2022/src/my_pkg/ur5_eye2hand/keyboard_adaptive/0913_change/log_theta_k.npy (npy, 16088 bytes, 1 tensors)

array f8 [133, 15, 1]
0	0xc0a499e79b6a5431	-2636.9523575999997
1	0xc05389c11431e62c	-78.1524096
2	0xc04a049b70336ec3	-52.035993600000005
3	0x404ca56381af980a	57.29209920000001
4	0xc04c12c229db9b9d	-56.1465504
5	0xc0a2bcdae70c1334	-2398.427544
6	0x3fa587d89a1319c1	0.0420520485
7	0xbff0c7ee277f39b6	-1.048811106
8	0x3f9e3cb3ba821c79	0.029528434999999995
9	0x4042182a517c0d5b	36.188791452
10	0xc08b43ed84dc06f7	-872.4909760656
11	0x4032f2b0e326195e	18.948011586
12	0x4031dfe0c71c7506	17.8745235867
13	0xc080aeeb2c271957	-533.8648303084
14	0x4030d609c4d41ebf	16.836086561
15	0xc0a499e79b6a5431	-2636.9523575999997
16	0xc05389c11431e62c	-78.1524096
17	0xc04a049b70336ec3	-52.035993600000005
18	0x404ca56381af980a	57.29209920000001
19	0xc04c12c229db9b9d	-56.1465504
20	0xc0a2bcdae70c1334	-2398.427544
21	0x3fa587d89a1319c1	0.0420520485
22	0xbff0c7ee277f39b6	-1.048811106
23	0x3f9e3cb3ba821c79	0.029528434999999995
24	0x4042182a517c0d5b	36.188791452
25	0xc08b43ed84dc06f7	-872.4909760656
26	0x4032f2b0e326195e	18.948011586
27	0x4031dfe0c71c7506	17.8745235867
28	0xc080aeeb2c271957	-533.8648303084
29	0x4030d609c4d41ebf	16.836086561
30	0xc0a499e79b6a5431	-2636.9523575999997
31	0xc05389c11431e62c	-78.1524096
32	0xc04a049b70336ec3	-52.035993600000005
33	0x404ca56381af980a	57.29209920000001
34	0xc04c12c229db9b9d	-56.1465504
35	0xc0a2bcdae70c1334	-2398.427544
36	0x3fa587d89a1319c1	0.0420520485
37	0xbff0c7ee277f39b6	-1.048811106
38	0x3f9e3cb3ba821c79	0.029528434999999995
39	0x4042182a517c0d5b	36.188791452
40	0xc08b43ed84dc06f7	-872.4909760656
41	0x4032f2b0e326195e	18.948011586
42	0x4031dfe0c71c7506	17.8745235867
43	0xc080aeeb2c271957	-533.8648303084
44	0x4030d609c4d41ebf	16.836086561
45	0xc0a499d39c2047fd	-2636.9133005226017
46	0xc05389bf9d3b11f5	-78.15232020157403
47	0xc04a04cd05e2657d	-52.03750680498613
48	0x404ca2c1244e16e3	57.27151922047576
49	0xc04c12c3b502b3d8	-56.14659750587424
50	0xc0a2bcda7e89d218	-2398.4267466610872
51	0x3fa587d89a1319c1	0.0420520485
52	0xbff0c7ee277f39b6	-1.048811106
53	0x3f9e3cb3ba821c79	0.029528434999999995
54	0x404218371dd46716	36.18918202277398
55	0xc08b43ed7b7c41a9	-872.4909581859148
56	0x4032f29d0dace9e0	18.947708945002773
57	0x4031dfd34a5d1129	17.874317786904758
58	0xc080aeeb31179671	-533.8648397295748
59	0x4030d614384107ee	16.83624602878256
60	0xc0a4999d542990ed	-2636.8072827329074
61	0xc05389ce52efc93c	-78.15321801582917
62	0xc04a053d3c3b2380	-52.04093125236159
63	0x404c9b9a9fd594ba	57.215656260764675
64	0xc04c12b4348de95e	-56.14612442902829
65	0xc0a2bcd99207cd89	-2398.4249422491453
66	0x3fa587d89a1319c1	0.0420520485
67	0xbff0c7ee277f39b6	-1.048811106
68	0x3f9e3cb3ba821c79	0.029528434999999995
69	0x40421859db3f19af	36.190242200670916
70	0xc08b43edd9a0c63e	-872.4911377487658
71	0x4032f2702b230445	18.94702405552768
72	0x4031dfaeae1d3784	17.873759157307646
73	0xc080aeeaff7c871c	-533.8647451142056
74	0x4030d62bdedb1631	16.83660691117092
75	0xc0a49927462705e3	-2636.576707095593
76	0xc05389ecb1f95e3b	-78.15507172920563
77	0xc04a0611bb819d9d	-52.047416151322274
78	0x404c8c13c213e52c	57.09435296985097
79	0xc04c12943fd501bd	-56.14514921093676
80	0xc0a2bcd7d2dc604c	-2398.421530615573
81	0x3fa587d89a1319c1	0.0420520485
82	0xbff0c7ee277f39b6	-1.048811106
83	0x3f9e3cb3ba821c79	0.029528434999999995
84	0x404218a56955353a	36.192547957044056
85	0xc08b43ee9c010391	-872.4915084914411
86	0x4032f21b2b6d39d3	18.945727075735544
87	0x4031df5f2ecc8b0b	17.872546124398507
88	0xc080aeea993a376a	-533.8645500705873
89	0x4030d658966602a5	16.837289237885347
90	0xc0a4988b8223893d	-2636.272477255347
91	0xc0538a10622251cf	-78.15724995948334
92	0xc04a071133357057	-52.055212403386285
93	0x404c7792f17e1f56	56.934171854575354
94	0xc04c126eab35878e	-56.144002343308884
95	0xc0a2bcd5b8d512d6	-2398.417425783681
96	0x3fa587d89a1319c1	0.0420520485
97	0xbff0c7ee277f39b6	-1.048811106
98	0x3f9e3cb3ba821c79	0.029528434999999995
99	0x4042190919fb4790	36.19559025544652
100	0xc08b43ef8068700e	-872.4919441374966
101	0x4032f1b4fb8bb255	18.94416782532274
102	0x4031def634de0716	17.87094431324575
103	0xc080aeea20f83916	-533.8643206970617
104	0x4030d68e63edc198	16.838110204263643
105	0xc0a497e6327ffce8	-2635.9496040340637
106	0xc0538a334e7776b4	-78.15938150087715
107	0xc04a0842ee8dafab	-52.06454259794494
108	0x404c61d07a66d2e1	56.76417474766436
109	0xc04c1249e4cc32b3	-56.14288005800827
110	0xc0a2bcd334f1d26c	-2398.4125133103717
111	0x3fa587d89a1319c1	0.0420520485
112	0xbff0c7ee277f39b6	-1.048811106
113	0x3f9e3cb3ba821c79	0.029528434999999995
114	0x40421972e68ce90e	36.19881898765935
115	0xc08b43f05fea90fa	-872.4923704457754
116	0x4032f13ab09b9900	18.942301786411008
117	0x4031de86cc15e1b8	17.869244342176643
118	0xc080aee9ab4a1b3a	-533.8640962400016
119	0x4030d6cec7743291	16.83909269892553
120	0xc0a49747448bfff6	-2635.6391948461487
121	0xc0538a574811dedc	-78.16157724137469
122	0xc04a09590235868a	-52.07302882779648
123	0x404c4cd7a48eb273	56.60033089606886
124	0xc04c1223ea8dddd4	-56.141721076269874
125	0xc0a2bcd0e9d560c9	-2398.4080340080877
126	0x3fa587d89a1319c1	0.0420520485
127	0xbff0c7ee277f39b6	-1.048811106
128	0x3f9e3cb3ba821c79	0.029528434999999995
129	0x404219d89d8f7675	36.201923079538496
130	0xc08b43f1462806c8	-872.4928095938749
131	0x4032f0cb758ba974	18.940604540440702
132	0x4031de1b6ba60a08	17.86760590366069
133	0xc080aee931c2ed5e	-533.8638644436539
134	0x4030d7097d7f8faf	16.83998855938233
135	0xc0a496b502154596	-2635.3535315177387
136	0xc0538a7c318ec827	-78.16383017486133
137	0xc04a0a57a66cb4ac	-52.080799868659
138	0x404c39944cf0eb97	56.44983827365575
139	0xc04c11fd063b1d0a	-56.1405341900482
140	0xc0a2bcced13c0a82	-2398.4039400828196
141	0x3fa587d89a1319c1	0.0420520485
142	0xbff0c7ee277f39b6	-1.048811106
143	0x3f9e3cb3ba821c79	0.029528434999999995
144	0x40421a3638bcba89	36.20477971282259
145	0xc08b43f23264bfd0	-872.4932601805722
146	0x4032f0659a4263cd	18.9390503322682
147	0x4031ddb8cb2d1fa7	17.866100977436556
148	0xc080aee8b54eb15b	-533.8636270664095
149	0x4030d73f266e96bd	16.840807344435905
150	0xc0a49620ca93a4f1	-2635.0640455378384
151	0xc0538a94d1b3865b	-78.16533319980356
152	0xc04a0b55bda4b57f	-52.08855410139494
153	0x404c260ef7fe1662	56.29733180910695
154	0xc04c11e313f4e4ec	-56.13974236924864
155	0xc0a2bcccb9cbd29c	-2398.399855012378
156	0x3fa587d89a1319c1	0.0420520485
157	0xbff0c7ee277f39b6	-1.048811106
158	0x3f9e3cb3ba821c79	0.029528434999999995
159	0x40421a951494cf6e	36.2076745726216
160	0xc08b43f2cfff4491	-872.4935607855606
161	0x4032effff75f3045	18.93749948572101
162	0x4031dd54d8d658d4	17.864575912791068
163	0xc080aee862476a41	-533.8634687022496
164	0x4030d774b1a760fa	16.841624358524292
165	0xc0a49579a9a206da	-2634.7376223214496
166	0xc0538ab049f98c7b	-78.16700982446666
167	0xc04a0c71255a96a5	-52.097202939255375
168	0x404c100ecf23002a	56.12545193871513
169	0xc04c11c62631ebbc	-56.138859533667954
170	0xc0a2bcca64e1e033	-2398.395300921076
171	0x3fa587d89a1319c1	0.0420520485
172	0xbff0c7ee277f39b6	-1.048811106
173	0x3f9e3cb3ba821c79	0.029528434999999995
174	0x40421b000af20168	36.210938804785485
175	0xc08b43f37fcdd185	-872.4938961104932
176	0x4032ef8e9ab00969	18.935769718148922
177	0x4031dce4342e2010	17.86285711408715
178	0xc080aee805b4fa57	-533.8632921351335
179	0x4030d7b062a6050e	16.842535176784672
180	0xc0a495027f71acfa	-2634.504878570905
181	0xc0538ac15bad5174	-78.16805164266208
182	0xc04a0d3f6a102fb4	-52.10349775114392
183	0x404c005f02a784e1	56.002899486347594
184	0xc04c11b42c6a56b5	-56.138310958789056
185	0xc0a2bcc8b26f7aee	-2398.3919863545952
186	0x3fa587d89a1319c1	0.0420520485
187	0xbff0c7ee277f39b6	-1.048811106
188	0x3f9e3cb3ba821c79	0.029528434999999995
189	0x40421b4c4ee7fd7d	36.213266242290935
190	0xc08b43f3ed0be9a5	-872.4941044741323
191	0x4032ef3c18cdcc30	18.934510755771214
192	0x4031dc93e34a6028	17.861631589563473
193	0xc080aee7cc2f487a	-533.8631824201577
194	0x4030d7dbd47cf25b	16.8431980900808
195	0xc0a4949240ec3775	-2634.285651571054
196	0xc0538ad8572397b7	-78.16945436931461
197	0xc04a0e0142e81af7	-52.1094134934737
198	0x404bf1a26717ab46	55.88776863723483
199	0xc04c119c08cfd24a	-56.13757429263622
200	0xc0a2bcc71b3a1a30	-2398.3888796002357
201	0x3fa587d89a1319c1	0.0420520485
202	0xbff0c7ee277f39b6	-1.048811106
203	0x3f9e3cb3ba821c79	0.029528434999999995
204	0x40421b9424fff6c8	36.215458512289445
205	0xc08b43f4802211cd	-872.4943850194628
206	0x4032eeee8eddd47c	18.93332760730526
207	0x4031dc486f8a0f01	17.860480281072345
208	0xc080aee77ef08d39	-533.8630350869272
209	0x4030d8048d069efe	16.84381944095275
210	0xc0a494247167f2e5	-2634.071177719498
211	0xc0538aeed343b8f2	-78.17082673657913
212	0xc04a0ec570133fcc	-52.115400323294665
213	0x404be33797283629	55.775133986124565
214	0xc04c11846af4433e	-56.13685357024086
215	0xc0a2bcc57f200aeb	-2398.385735513051
216	0x3fa587d89a1319c1	0.0420520485
217	0xbff0c7ee277f39b6	-1.048811106
218	0x3f9e3cb3ba821c79	0.029528434999999995
219	0x40421bda6c5edafb	36.217603250805006
220	0xc08b43f5100945d5	-872.4946594929157
221	0x4032eea016662c27	18.932130241341067
222	0x4031dbfe9e94a124	17.85935393456124
223	0xc080aee7335dcea2	-533.8628909424481
224	0x4030d82dc2d4f2ab	16.8444482583897
225	0xc0a493c954b56d56	-2633.8932244010894
226	0xc0538afe0f1fea0e	-78.17175653568867
227	0xc04a0f6316beb219	-52.12021145163835
228	0x404bd755287caf9c	55.68228632057364
229	0xc04c1174856d6004	-56.13636844482974
230	0xc0a2bcc4361b0695	-2398.3832252927336
231	0x3fa587d89a1319c1	0.0420520485
232	0xbff0c7ee277f39b6	-1.048811106
233	0x3f9e3cb3ba821c79	0.029528434999999995
234	0x40421c14bc2d44f0	36.21938278398909
235	0xc08b43f5718860a9	-872.4948454527376
236	0x4032ee6106ee64d5	18.93116801567233
237	0x4031dbc1c553c24a	17.85842545790573
238	0xc080aee7007f5231	-533.8627939173658
239	0x4030d84ea9bbc812	16.844950302453135
240	0xc0a493855a73f9bb	-2633.7604557268473
241	0xc0538b01fb7bfc1e	-78.17199599368948
242	0xc04a0fd990f26c54	-52.1238270934779
243	0x404bce773d19cbb8	55.61301387557563
244	0xc04c11706d5f3f7a	-56.13624350691585
245	0xc0a2bcc33ed789d2	-2398.3813388210046
246	0x3fa587d89a1319c1	0.0420520485
247	0xbff0c7ee277f39b6	-1.048811106
248	0x3f9e3cb3ba821c79	0.029528434999999995
249	0x40421c403d9ed69b	36.22071047073151
250	0xc08b43f58aa44783	-872.4948933443378
251	0x4032ee31a2d9b3f1	18.93044488730442
252	0x4031db945f56e6b1	17.85773273345575
253	0xc080aee6f3658b62	-533.862768929783
254	0x4030d86763aea863	16.84532759679895
255	0xc0a49338540e8620	-2633.6100163019873
