ws_icra2022/src/my_pkg/ur5_eye2hand/hololens2_adaptive/0913-final-1/log_theta_z.npy (npy, 189408 bytes, 1 tensors)

array f8 [1820, 13, 1]
000000 00 00 00 00 00 00 00 00 00 00 00 00 00 00 00 00
       0.0 0.0
000010 00 00 00 00 00 00 00 00 00 00 00 00 00 00 00 00
       0.0 0.0
000020 00 00 00 00 00 00 00 00 00 00 00 00 00 00 00 00
       0.0 0.0
000030 00 00 00 00 00 00 00 00 00 00 00 00 00 00 00 00
       0.0 0.0
000040 00 00 00 00 00 00 00 00 93 db bc 92 60 81 a4 3f
       0.0 0.04004957
000050 42 c3 cd 6f b9 f6 ef bf 5f f7 0c 97 0b 4b 9a 3f
       -0.99886772 0.0256769
000060 93 79 fd ac a6 69 ef 3f 00 00 00 00 00 00 00 00
       0.98164686 0.0
000070 00 00 00 00 00 00 00 00 00 00 00 00 00 00 00 00
       0.0 0.0
000080 00 00 00 00 00 00 00 00 00 00 00 00 00 00 00 00
       0.0 0.0
000090 00 00 00 00 00 00 00 00 00 00 00 00 00 00 00 00
       0.0 0.0
0000a0 00 00 00 00 00 00 00 00 00 00 00 00 00 00 00 00
       0.0 0.0
0000b0 93 db bc 92 60 81 a4 3f 42 c3 cd 6f b9 f6 ef bf
       0.04004957 -0.99886772
0000c0 5f f7 0c 97 0b 4b 9a 3f 93 79 fd ac a6 69 ef 3f
       0.0256769 0.98164686
0000d0 7b 32 60 ed 96 dd f6 be 74 20 6f 62 22 84 df be
       -2.1806320397432175e-05 -7.514035622109659e-06
0000e0 8a 2b 38 72 d1 21 f3 be 26 4e f5 42 04 df d7 3e
       -1.8245794434472734e-05 5.6913277569240066e-06
0000f0 ff f1 99 4d 82 ca f8 3e 97 c2 1f 6e 85 57 f1 be
       2.364258839414497e-05 -1.6538505299426047e-05
000100 a5 90 36 3e c9 cf f3 3e d5 fa a5 34 b0 8f f0 be
       1.8893875574869105e-05 -1.579406970497295e-05
000110 21 2a f2 5f 81 db f0 be e3 49 89 bd 2a 7f a4 3f
       -1.6076510288823746e-05 0.040032706867936495
000120 6e 2a a0 6e e9 f4 ef bf c0 29 f4 40 f0 6a 9a 3f
       -0.9986464653641869 0.02579856296964933
000130 22 c0 03 ed e0 70 ef 3f c5 c7 84 01 bb c5 f5 3e
       0.9825291279976265 2.076376412780253e-05
000140 4e 9f 31 ae b7 fd dd 3e b2 a8 e9 7d 09 38 f2 3e
       7.150431630888037e-06 1.7374892076573493e-05
000150 62 33 0a fc 6c bb d6 be f9 e7 eb 69 ea 9b f7 be
       -5.419762545100277e-06 -2.251534044270945e-05
000160 af e0 a5 7f eb 81 f0 3e ff b8 73 76 2a dd f2 be
       1.574277846702669e-05 -1.7990044764931188e-05
000170 d2 78 eb 39 5f 88 ef 3e 81 a6 6e ac 05 0e f0 3e
       1.5035964506745709e-05 1.531102568789198e-05
000180 ed 8d f3 57 7b 83 a4 3f 60 fe 8d 40 73 f8 ef bf
       0.04006562660813615 -0.9990783940156227
000190 84 1e ed 1f ab 2c 9a 3f e4 51 72 e6 c4 62 ef 3f
       0.0255610216366038 0.9808067799481788
0001a0 c5 c7 84 01 bb c5 f5 3e 4e 9f 31 ae b7 fd dd 3e
       2.076376412780253e-05 7.150431630888037e-06
0001b0 b2 a8 e9 7d 09 38 f2 3e 62 33 0a fc 6c bb d6 be
       1.7374892076573493e-05 -5.419762545100277e-06
0001c0 f9 e7 eb 69 ea 9b f7 be af e0 a5 7f eb 81 f0 3e
       -2.251534044270945e-05 1.574277846702669e-05
0001d0 ff b8 73 76 2a dd f2 be d2 78 eb 39 5f 88 ef 3e
       -1.7990044764931188e-05 1.5035964506745709e-05
0001e0 81 a6 6e ac 05 0e f0 3e ed 8d f3 57 7b 83 a4 3f
       1.531102568789198e-05 0.04006562660813615
0001f0 60 fe 8d 40 73 f8 ef bf 84 1e ed 1f ab 2c 9a 3f
       -0.9990783940156227 0.0255610216366038
000200 e4 51 72 e6 c4 62 ef 3f c2 7e e5 07 8c bb 20 bf
       0.9808067799481788 -0.00012765964852245153
000210 a8 b9 c0 f8 c5 95 06 bf 7e d6 15 95 17 fd 1b bf
       -4.307756816533957e-05 -0.00010676819262819302
000220 68 5f 37 5f 2f 66 01 3f a8 05 cd e3 3a 34 22 3f
       3.318626468357019e-05 0.00013888567800716717
000230 82 53 0b 90 6b 17 19 bf 30 59 ab f1 56 e6 1c 3f
       -9.571641931967019e-05 0.00011024385132016724
000240 52 a3 91 eb 4d 09 18 bf dd 49 19 ba 5f db 18 bf
       -9.16913803778012e-05 -9.482166071820377e-05
000250 3f 9b 8e e8 95 74 a4 3f 58 77 17 9e 23 ec ef bf
       0.03995197738486533 -0.9975755775192097
000260 ae 4b c0 61 6e 07 9b 3f ad 7e ad 20 e6 93 ef 3f
       0.02639553519845677 0.9868040693508725
000270 c2 7e e5 07 8c bb 20 bf a8 b9 c0 f8 c5 95 06 bf
       -0.00012765964852245153 -4.307756816533957e-05
000280 7e d6 15 95 17 fd 1b bf 68 5f 37 5f 2f 66 01 3f
       -0.00010676819262819302 3.318626468357019e-05
000290 a8 05 cd e3 3a 34 22 3f 82 53 0b 90 6b 17 19 bf
       0.00013888567800716717 -9.571641931967019e-05
0002a0 30 59 ab f1 56 e6 1c 3f 52 a3 91 eb 4d 09 18 bf
       0.00011024385132016724 -9.16913803778012e-05
0002b0 dd 49 19 ba 5f db 18 bf 3f 9b 8e e8 95 74 a4 3f
       -9.482166071820377e-05 0.03995197738486533
0002c0 58 77 17 9e 23 ec ef bf ae 4b c0 61 6e 07 9b 3f
       -0.9975755775192097 0.02639553519845677
0002d0 ad 7e ad 20 e6 93 ef 3f c1 a8 c7 19 80 80 50 bf
       0.9868040693508725 -0.0010071993812013488
0002e0 e4 10 05 5c 49 75 35 bf 6b ea 85 a5 fd 91 4b bf
       -0.00032742539407971797 -0.000841378069750332
0002f0 9d 41 4b f0 47 11 31 3f 8d a4 2f 26 68 0c 52 3f
       0.0002604294425454736 0.001101590831917218
000300 ad e4 da 05 2c 43 48 bf d5 9d 1c bc bf 53 4c 3f
       -0.0007404293971468211 0.0008644758420119312
000310 1c 67 5f eb e2 5f 47 bf 73 19 0a d8 21 d0 48 bf
       -0.0007133348469736431 -0.0007572331670225155
000320 f4 e9 e9 4b e3 1e a4 3f 5b 67 86 f0 92 a3 ef bf
       0.03929815580064036 -0.9887175271753493
000330 df 0b c0 20 78 18 a0 3f 08 4d 4c 3f 09 5b f0 3f
       0.0314366855600594 1.0222256157474607
000340 c1 a8 c7 19 80 80 50 bf e4 10 05 5c 49 75 35 bf
       -0.0010071993812013488 -0.00032742539407971797
000350 6b ea 85 a5 fd 91 4b bf 9d 41 4b f0 47 11 31 3f
       -0.000841378069750332 0.0002604294425454736
000360 8d a4 2f 26 68 0c 52 3f ad e4 da 05 2c 43 48 bf
       0.001101590831917218 -0.0007404293971468211
000370 d5 9d 1c bc bf 53 4c 3f 1c 67 5f eb e2 5f 47 bf
       0.0008644758420119312 -0.0007133348469736431
000380 73 19 0a d8 21 d0 48 bf f4 e9 e9 4b e3 1e a4 3f
       -0.0007572331670225155 0.03929815580064036
000390 5b 67 86 f0 92 a3 ef bf df 0b c0 20 78 18 a0 3f
       -0.9887175271753493 0.0314366855600594
0003a0 08 4d 4c 3f 09 5b f0 3f 08 74 36 3c 34 fb 5f bf
       1.0222256157474607 -0.0019519815549309278
0003b0 7d 96 dc 80 45 38 44 bf d6 56 50 bf 00 b1 5a bf
       -0.0006170596477416825 -0.0016291148469966175
0003c0 9c 95 28 e3 a4 78 40 3f c4 86 e4 51 73 8e 61 3f
       0.0005026631463961764 0.002143120989004684
0003d0 c6 42 92 1b 58 2a 57 bf a4 13 ce d1 54 54 5b 3f
       -0.001413904230762751 0.001668055373756896
0003e0 82 5c 23 0a 13 69 56 bf a0 b1 65 bb 23 41 58 bf
       -0.001367825120316885 -0.0014803742356789065
0003f0 08 e7 43 7b ad c5 a3 3f 8e 4f 0e 06 15 56 ef bf
       0.03861753587439237 -0.9792580717353176
000400 a9 47 b9 2c 4e ed a2 3f 74 2b dd f7 52 f6 f0 3f
       0.036966746291582205 1.0601377184090923
000410 3b 22 8a 38 7b e2 65 bf 1e 0e cc 8b c7 3b 4b bf
       -0.0026714712769868843 -0.0008311008783440964
000420 6b cc 47 83 45 41 62 bf 2c 55 43 20 64 7e 46 3f
       -0.002228389517989584 0.0006864537140482178
000430 dc 7b 37 8b 06 14 68 3f 94 e1 de 8a 7d 70 5f bf
       0.0029392364319700114 -0.0019189096451396092
000440 a8 a8 2d de d1 a7 62 3f 46 1c 55 d0 a3 7c 5e bf
       0.002277288339816403 -0.00186077115479734
000450 70 f2 7a 0d 4a ad 60 bf c1 93 cd d4 f6 82 a3 3f
       -0.0020357557621919972 0.03810855243390377
000460 2f 5a 89 ad 3f 1b ef bf f8 8d fd 19 9e 1b a5 3f
       -0.972076262415447 0.04122633044496732
000470 1d ac e5 7c 5a 6c f1 3f 3b 22 8a 38 7b e2 65 bf
       1.0889534834666457 -0.0026714712769868843
000480 1e 0e cc 8b c7 3b 4b bf 6b cc 47 83 45 41 62 bf
       -0.0008311008783440964 -0.002228389517989584
000490 2c 55 43 20 64 7e 46 3f dc 7b 37 8b 06 14 68 3f
       0.0006864537140482178 0.0029392364319700114
0004a0 94 e1 de 8a 7d 70 5f bf a8 a8 2d de d1 a7 62 3f
       -0.0019189096451396092 0.002277288339816403
0004b0 46 1c 55 d0 a3 7c 5e bf 70 f2 7a 0d 4a ad 60 bf
       -0.00186077115479734 -0.0020357557621919972
0004c0 c1 93 cd d4 f6 82 a3 3f 2f 5a 89 ad 3f 1b ef bf
       0.03810855243390377 -0.972076262415447
0004d0 f8 8d fd 19 9e 1b a5 3f 1d ac e5 7c 5a 6c f1 3f
       0.04122633044496732 1.0889534834666457
0004e0 f0 a8 8c 6a 02 c5 6a bf 3f 68 03 fd 52 5b 50 bf
       -0.0032677695457056163 -0.0009983358796064182
0004f0 1f f0 1d 1f 85 50 66 bf ba 16 27 1a 99 76 4b 3f
       -0.002723941805866672 0.0008381125992904172
000500 6d 41 3d de 6b 84 6d 3f 97 a7 1c fd d9 0c 63 bf
       0.0036031824874173586 -0.002325464019027511
000510 df ad d5 a5 86 c1 66 3f 41 a5 d0 76 04 86 62 bf
       0.002777827247589334 -0.0022611701192728766
000520 9a 33 9a da 06 81 64 bf ce b8 17 4a cf 4d a3 3f
       -0.0025029310098205306 0.037703016085161786
000530 34 1c 83 cd bf ea ee bf c2 2d e8 bd af f3 a6 3f
       -0.9661559118184244 0.04482793038559009
000540 fa 40 cf 4f d1 cd f1 3f f0 a8 8c 6a 02 c5 6a bf
       1.1127484433710024 -0.0032677695457056163
000550 3f 68 03 fd 52 5b 50 bf 1f f0 1d 1f 85 50 66 bf
       -0.0009983358796064182 -0.002723941805866672
000560 ba 16 27 1a 99 76 4b 3f 6d 41 3d de 6b 84 6d 3f
       0.0008381125992904172 0.0036031824874173586
000570 97 a7 1c fd d9 0c 63 bf df ad d5 a5 86 c1 66 3f
       -0.002325464019027511 0.002777827247589334
000580 41 a5 d0 76 04 86 62 bf 9a 33 9a da 06 81 64 bf
       -0.0022611701192728766 -0.0025029310098205306
000590 ce b8 17 4a cf 4d a3 3f 34 1c 83 cd bf ea ee bf
       0.037703016085161786 -0.9661559118184244
0005a0 c2 2d e8 bd af f3 a6 3f fa 40 cf 4f d1 cd f1 3f
       0.04482793038559009 1.1127484433710024
0005b0 f0 a8 8c 6a 02 c5 6a bf 3f 68 03 fd 52 5b 50 bf
       -0.0032677695457056163 -0.0009983358796064182
0005c0 1f f0 1d 1f 85 50 66 bf ba 16 27 1a 99 76 4b 3f
       -0.002723941805866672 0.0008381125992904172
0005d0 6d 41 3d de 6b 84 6d 3f 97 a7 1c fd d9 0c 63 bf
       0.0036031824874173586 -0.002325464019027511
0005e0 df ad d5 a5 86 c1 66 3f 41 a5 d0 76 04 86 62 bf
       0.002777827247589334 -0.0022611701192728766
0005f0 9a 33 9a da 06 81 64 bf ce b8 17 4a cf 4d a3 3f
       -0.0025029310098205306 0.037703016085161786
000600 34 1c 83 cd bf ea ee bf c2 2d e8 bd af f3 a6 3f
       -0.9661559118184244 0.04482793038559009
000610 fa 40 cf 4f d1 cd f1 3f 50 25 57 9f bc f8 6d bf
       1.1127484433710024 -0.0036586460143765223
000620 b5 c9 6d 05 0e fd 51 bf fb 55 6a b9 0f f7 68 bf
       -0.0010979306150288141 -0.003047495566827816
000630 a4 7f 1f 04 f4 b4 4e 3f 96 28 f3 28 87 8e 70 3f
       0.0009370986447230123 0.004042175263018552
000640 da ae 42 e3 04 23 65 bf 7f f0 24 81 75 68 69 3f
       -0.00258017496715533 0.0031015677460839992
000650 34 ea a5 ea af 9b 64 bf 41 ba 92 a4 f4 10 67 bf
       -0.0025156436797122653 -0.002815702264874959
000660 10 06 c5 fa 35 2d a3 3f 1f 48 a2 d8 32 cb ee bf
       0.03745430647041925 -0.9623045188075173
000670 71 56 d2 1d 86 32 a8 3f 6b ab a4 d0 5b 0d f2 3f
       0.04726046670945728 1.1282613897444331
000680 50 25 57 9f bc f8 6d bf b5 c9 6d 05 0e fd 51 bf
       -0.0036586460143765223 -0.0010979306150288141
000690 fb 55 6a b9 0f f7 68 bf a4 7f 1f 04 f4 b4 4e 3f
       -0.003047495566827816 0.0009370986447230123
0006a0 96 28 f3 28 87 8e 70 3f da ae 42 e3 04 23 65 bf
       0.004042175263018552 -0.00258017496715533
0006b0 7f f0 24 81 75 68 69 3f 34 ea a5 ea af 9b 64 bf
       0.0031015677460839992 -0.0025156436797122653
0006c0 41 ba 92 a4 f4 10 67 bf 10 06 c5 fa 35 2d a3 3f
       -0.002815702264874959 0.03745430647041925
0006d0 1f 48 a2 d8 32 cb ee bf 71 56 d2 1d 86 32 a8 3f
       -0.9623045188075173 0.04726046670945728
0006e0 6b ab a4 d0 5b 0d f2 3f 82 bc ca 09 c8 7f 6f bf
       1.1282613897444331 -0.0038451106068673755
0006f0 f1 23 1c 5d f9 b7 52 bf ff e0 c7 16 ea 39 6a bf
       -0.0011424956505285933 -0.0032014438677344654
000700 3b 0f 34 ce 78 20 50 3f 13 88 ea 37 2e 6b 71 3f
       0.000984304403403648 0.00425260595389611
000710 79 b5 21 04 ad 1a 66 bf f4 73 34 38 a8 a9 6a 3f
       -0.0026982669087859926 0.0032547269380658276
000720 03 b9 28 8a 7c 95 65 bf 6f 4e e2 0b af 4d 68 bf
       -0.00263475727231033 -0.002966730010550304
000730 2c 38 d5 ab 5e 1e a3 3f 83 30 c6 69 37 bc ee bf
       0.03734107825822294 -0.9604756418134602
000740 f4 2b 73 63 53 cd a8 3f 5b 81 53 6a 92 2b f2 3f
       0.04844151104915531 1.135637679421129
000750 82 bc ca 09 c8 7f 6f bf f1 23 1c 5d f9 b7 52 bf
       -0.0038451106068673755 -0.0011424956505285933
000760 ff e0 c7 16 ea 39 6a bf 3b 0f 34 ce 78 20 50 3f
       -0.0032014438677344654 0.000984304403403648
000770 13 88 ea 37 2e 6b 71 3f 79 b5 21 04 ad 1a 66 bf
       0.00425260595389611 -0.0026982669087859926
000780 f4 73 34 38 a8 a9 6a 3f 03 b9 28 8a 7c 95 65 bf
       0.0032547269380658276 -0.00263475727231033
000790 6f 4e e2 0b af 4d 68 bf 2c 38 d5 ab 5e 1e a3 3f
       -0.002966730010550304 0.03734107825822294
0007a0 83 30 c6 69 37 bc ee bf f4 2b 73 63 53 cd a8 3f
       -0.9604756418134602 0.04844151104915531
0007b0 5b 81 53 6a 92 2b f2 3f bd 9d 5c 3c cf d7 6f bf
       1.135637679421129 -0.0038870856832493293
0007c0 55 7f 96 cf ab e0 52 bf 8e 11 c6 9f 7c 82 6a bf
       -0.0011521985855793189 -0.003236049086071619
0007d0 84 50 32 c0 04 4d 50 3f d0 be 78 11 f8 9c 71 3f
       0.000994925155088062 0.004300087944599532
0007e0 49 99 ce ef 9c 51 66 bf d1 a5 9f 7d a9 f1 6a 3f
       -0.002724463002283493 0.003289061581189336
0007f0 57 0f bd 52 2a cd 65 bf 7b 3c 17 6f 69 95 68 bf
       -0.002661307013029839 -0.003000932622604644
