ws_icra2022/src/my_pkg/ur5_eye2hand/hololens2_adaptive/0914_1/log_theta_k.npy (npy, 203528 bytes, 1 tensors)

array f8 [1695, 15, 1]
00000000: 1712 ee9d 0e16 a4c0 370d 17da b50c 53c0
00000010: ca58 658d 175e 49c0 3989 18e1 b39e 5240
00000020: 7d6e 9149 807d 48c0 ecc5 ab07 ef44 a2c0
00000030: c119 139a d887 a53f b639 7f27 eec7 f0bf
00000040: 791c 82ba b33c 9e3f 5b0d 7c51 2a18 4240
00000050: f706 dc84 ed43 8bc0 5e19 26e3 b0f2 3240
00000060: 62ee 0442 c5f6 3440 7824 7081 6af5 7ec0
00000070: bf1e d4c4 09d6 3040 b160 ab9d 0e16 a4c0
00000080: 37a5 28ff b50c 53c0 4c79 5b8f 165e 49c0
00000090: 6fb4 6813 b49e 5240 7c98 0009 827d 48c0
000000a0: 9714 b7ef ee44 a2c0 c119 139a d887 a53f
000000b0: b639 7f27 eec7 f0bf 791c 82ba b33c 9e3f
000000c0: 55bc a651 2a18 4240 a3e3 e784 ed43 8bc0
000000d0: ccc6 3ae8 b0f2 3240 5023 0844 c5f6 3440
000000e0: 4852 ff81 6af5 7ec0 7ef7 7de3 09d6 3040
000000f0: f3d2 689d 0e16 a4c0 936b 2624 b60c 53c0
00000100: 615b e191 155e 49c0 de69 da45 b49e 5240
00000110: a507 9ac9 837d 48c0 7c2b b3d7 ee44 a2c0
00000120: c119 139a d887 a53f b639 7f27 eec7 f0bf
00000130: 791c 82ba b33c 9e3f 7d54 d151 2a18 4240
00000140: f7b9 f384 ed43 8bc0 3294 4ced b0f2 3240
00000150: b1af 0c46 c5f6 3440 8adf 8e82 6af5 7ec0
00000160: d44a 3b02 0ad6 3040 7449 284d 0e16 a4c0
00000170: c415 21bd e20c 53c0 efd5 ec3e 7f57 49c0
00000180: e839 8719 f19e 5240 d8fd 15a1 a07f 48c0
00000190: 4441 1213 4f44 a2c0 c119 139a d887 a53f
000001a0: b639 7f27 eec7 f0bf 791c 82ba b33c 9e3f
000001b0: 72d5 2d85 2a18 4240 e628 3993 ed43 8bc0
000001c0: b43a 47a7 d2f2 3240 88a3 eab4 c7f6 3440
000001d0: cfa0 a02f 6bf5 7ec0 6d43 0983 d6d6 3040
000001e0: c98f cfa3 e015 a4c0 d1f8 d69b 8712 53c0
000001f0: d7e0 52c9 3d0f 49c0 b550 e900 12c1 5240
00000200: 200d 3a87 1fc3 48c0 f1c9 8ae4 8e3d a2c0
00000210: c119 139a d887 a53f b639 7f27 eec7 f0bf
00000220: 791c 82ba b33c 9e3f c160 5cbe 4718 4240
00000230: 39e8 9461 ef43 8bc0 3f30 459a 44f4 3240
00000240: a5d7 cf2e 25f8 3440 8208 e0c8 80f5 7ec0
00000250: 142e a295 7adf 3040 5e23 57aa a915 a4c0
00000260: 42d3 7765 5c1a 53c0 9052 b4f2 88b5 48c0
00000270: 8c94 23dc 28ea 5240 03a3 a25d c620 49c0
00000280: 8b72 1a55 2d35 a2c0 c119 139a d887 a53f
00000290: b639 7f27 eec7 f0bf 791c 82ba b33c 9e3f
000002a0: dcc4 61ed 6a18 4240 b21b 1de3 f143 8bc0
000002b0: 9d1e 3ee6 0ff6 3240 28a7 e6ef c9f9 3440
000002c0: 56b9 d2c0 9ef5 7ec0 26d1 d5e6 34ea 3040
000002d0: fcc5 ac10 6215 a4c0 013b 20d9 dc25 53c0
000002e0: 23e4 0b3f d639 48c0 28a4 93e6 ac1f 5340
000002f0: 1629 9673 52aa 49c0 9c89 1ec6 9e29 a2c0
00000300: c119 139a d887 a53f b639 7f27 eec7 f0bf
00000310: 791c 82ba b33c 9e3f 9529 5ec0 9818 4240
00000320: 4499 5691 f543 8bc0 fb7c c13b 89f8 3240
00000330: 1089 51f0 edfb 3440 d3c9 b0c4 caf5 7ec0
00000340: 2f76 4bdb fff8 3040 5887 ce42 1415 a4c0
00000350: 1779 e812 4f32 53c0 52ad 2ecc 74b6 47c0
00000360: 0055 4f01 0357 5340 7ebb 2e79 f437 4ac0
00000370: e6ce b9a6 f01d a2c0 c119 139a d887 a53f
00000380: b639 7f27 eec7 f0bf 791c 82ba b33c 9e3f
00000390: d5ad cd8b ca18 4240 8135 ee8c f943 8bc0
000003a0: 3d5a 03e7 29fb 3240 b252 3a95 24fe 3440
000003b0: 68f0 4117 f8f5 7ec0 dbac ad36 f307 3140
000003c0: 4279 9d10 ce14 a4c0 6601 762e 0c3d 53c0
000003d0: 9a80 0463 7646 47c0 9c9a 19df ef88 5340
000003e0: 2018 7e42 28b2 4ac0 abc4 40c2 fb13 a2c0
000003f0: c119 139a d887 a53f b639 7f27 eec7 f0bf
00000400: 791c 82ba b33c 9e3f cfdf b978 f718 4240
00000410: 1d1b a5fc fc43 8bc0 2c32 844f 67fd 3240
00000420: 66a7 4cd1 2300 3540 e2b7 1132 1ff6 7ec0
00000430: 837c c3cb b114 3140 4d3d d286 9314 a4c0
00000440: 2bcc 064d c542 53c0 f260 7cdd 36fb 46c0
00000450: 2564 8e4e 7daf 5340 cc72 99c6 76ee 4ac0
00000460: 0309 42ec c90d a2c0 c119 139a d887 a53f
00000470: b639 7f27 eec7 f0bf 791c 82ba b33c 9e3f
00000480: 1a58 a2ef 1c19 4240 d9af 7bd1 fe43 8bc0
00000490: 0c3d bf94 e8fe 3240 4d53 5198 ae01 3540
000004a0: d6f3 647e 32f6 7ec0 452f 7aaa 9f1c 3140
000004b0: e287 168c 5c14 a4c0 5f02 0f8e 3548 53c0
000004c0: 4177 1e05 e6b5 46c0 246c f9ba b2d3 5340
000004d0: 402b 627b c527 4bc0 d608 ff1b 1508 a2c0
000004e0: c119 139a d887 a53f b639 7f27 eec7 f0bf
000004f0: 791c 82ba b33c 9e3f 40a3 761f 4019 4240
00000500: 1e23 018f 0044 8bc0 7bb7 5a7a 4b00 3340
00000510: fbe2 365f 2103 3540 1134 05d5 44f6 7ec0
00000520: 7e2f da81 ed23 3140 264d d4f9 4014 a4c0
00000530: 066b fd78 8d4a 53c0 282f a6d9 e48c 46c0
00000540: 6d45 7e8e 46e5 5340 8003 59e5 ac3f 4bc0
00000550: 6a78 dd94 d004 a2c0 c119 139a d887 a53f
00000560: b639 7f27 eec7 f0bf 791c 82ba b33c 9e3f
00000570: 9abe bfc4 5119 4240 2b65 fa4e 0144 8bc0
00000580: 531f dd6b 1d01 3340 8d66 6f5d d503 3540
00000590: 8997 3b7b 4cf6 7ec0 e0d3 4c43 1c28 3140
000005a0: b1ec b802 1f14 a4c0 5928 0fe2 954c 53c0
000005b0: 20fe 2642 0567 46c0 7179 b4ea edfa 5340
000005c0: 14b4 524d 6954 4bc0 544b 9aee cb01 a2c0
000005d0: c119 139a d887 a53f b639 7f27 eec7 f0bf
000005e0: 791c 82ba b33c 9e3f d110 9e81 6719 4240
000005f0: d86a 82f5 0144 8bc0 aa2f 4b55 df01 3340
00000600: 9791 7119 b304 3540 5b39 ec1d 53f6 7ec0
00000610: fc73 1341 f92b 3140 6e56 c941 0e14 a4c0
00000620: 8a8d 8ea6 9a4d 53c0 7c9f 34a8 e250 46c0
00000630: fd80 d168 2b05 5440 4e9e 207e 5f5e 4bc0
00000640: 74f9 edfc 1a00 a2c0 c119 139a d887 a53f
00000650: b639 7f27 eec7 f0bf 791c 82ba b33c 9e3f
00000660: 4352 893a 7219 4240 217f f448 0244 8bc0
00000670: e0e9 4aaa 5002 3340 bb35 87f5 1b05 3540
00000680: 69d7 fb4d 56f6 7ec0 6276 2d6c 232e 3140
00000690: ec93 d1a2 0114 a4c0 f04e 7f32 184e 53c0
000006a0: ec1a 59a3 bd3d 46c0 e216 a13f e20c 5440
000006b0: 83eb 6c48 2b63 4bc0 7c99 5d89 a4fe a1c0
000006c0: c119 139a d887 a53f b639 7f27 eec7 f0bf
000006d0: 791c 82ba b33c 9e3f 6d16 5b4e 7a19 4240
000006e0: 0d47 2171 0244 8bc0 0281 82af b202 3340
000006f0: ed6e e1f3 6a05 3540 b56a e0d6 57f6 7ec0
00000700: dd61 6bb8 0230 3140 a0d2 455d ff13 a4c0
00000710: 01bb 0722 554e 53c0 4894 af11 6d36 46c0
00000720: ead1 7f60 180e 5440 7e98 cf37 3365 4bc0
00000730: 1bfe e2b5 27fe a1c0 c119 139a d887 a53f
00000740: b639 7f27 eec7 f0bf 791c 82ba b33c 9e3f
00000750: 2392 8bc2 7b19 4240 c920 a184 0244 8bc0
00000760: 6c22 1023 d802 3340 2b6c 985b 7705 3540
00000770: 0b80 417d 58f6 7ec0 1cb8 6e7f a230 3140
00000780: 0e22 bc99 fa13 a4c0 eb67 e57f 844e 53c0
00000790: 2ac6 14f2 e92e 46c0 be4c 45bc a210 5440
000007a0: dadd 0c60 c766 4bc0 7885 b183 a7fd a1c0
000007b0: c119 139a d887 a53f b639 7f27 eec7 f0bf
000007c0: 791c 82ba b33c 9e3f fca6 0ccf 7e19 4240
000007d0: b967 c993 0244 8bc0 b482 7499 fe02 3340
000007e0: 6729 445f 9105 3540 880e 96fe 58f6 7ec0
000007f0: 4948 b896 4631 3140 d21e 1d27 fa13 a4c0
-2571.02854866 -76.19859935999999 -50.73509376 74.47972896 -48.98047752 -2338.4668554 0.0420520485 -1.048811106
0.029528434999999995 36.188791452 -872.4909760656 18.948011586 20.963947416499998 -495.338502348 16.836086561 -2571.028546672395
-76.19860819787287 -50.73506347624297 74.47974095559196 -48.98053085831722 -2338.466672631515 0.0420520485 -1.048811106 0.029528434999999995
36.18879147187605 -872.4909761539787 18.94801188883757 20.96394753645592 -495.3385028813832 16.83608838868485 -2571.0285446889407 -76.19861701728796
-50.73503325942762 74.47975298242042 -48.98058433552732 -2338.466489409502 0.0420520485 -1.048811106 0.029528434999999995 36.188791491710596
-872.4909762421729 18.948012191005724 20.963947656724205 -495.3385034161553 16.83609022090498 -2571.027932414023 -76.20133903723678 -50.683570733683034
74.48346555905994 -48.997089515436244 -2338.154442377536 0.0420520485 -1.048811106 0.029528434999999995 36.18879761445977 -872.4910034623724
18.94852681626317 20.9639847824906 -495.3386684679544 16.83921069122464 -2570.938749777128 -76.28952690118173 -50.11907307192603 75.01672385010427
-49.52439966520819 -2334.7790873881827 0.0420520485 -1.048811106 0.029528434999999995 36.18968944082872 -872.4918853410119 18.95417179288074
20.969317365401043 -495.3439415694521 16.87296424111817 -2570.8313777189896 -76.41188942624743 -49.41824182324228 75.6587438914741 -50.25605364266632
-2330.58853991173 0.0420520485 -1.048811106 0.029528434999999995 36.1907631614101 -872.4931089662625 18.96118010536758 20.97573756581474
-495.3512581092267 16.914869715882695 -2570.6915334693604 -76.59160450122364 -48.451850777441244 76.49492802064981 -51.330641220398476 -2324.8101052802067
0.0420520485 -1.048811106 0.029528434999999995 36.19216160390639 -872.4949061170123 18.970844015825588 20.9840994071065 -495.36200398500404
16.97265406219793 -2570.5395721950736 -76.78607628538553 -47.425439379493255 77.35955841777104 -52.437148235148 -2318.970022017008 0.0420520485
-1.048811106 0.029528434999999995 36.19368121664926 -872.496850834854 18.98110812980507 20.99274571107771 -495.3730690551515 17.031054894829918
-2570.4024705133934 -76.95386849903079 -46.550487878034986 78.13964059353242 -53.391853629655316 -2313.991716407783 0.0420520485 -1.048811106
0.029528434999999995 36.195052233466065 -872.4985287569904 18.98985764481965 21.000546532835322 -495.3826161090966 17.08083795092217 -2570.2881379794912
-77.04329229034254 -45.96261185239008 78.74202312379255 -53.86299974911307 -2310.8943806301118 0.0420520485 -1.048811106 0.029528434999999995
36.19619555880509 -872.4994229949035 18.9957364050761 21.006570358137925 -495.3873275702912 17.11181130869888 -2570.1807562867043 -77.12826873269795
-45.42108215320196 79.30778383596095 -54.31071417134672 -2308.041229219273 0.0420520485 -1.048811106 0.029528434999999995 36.19726937573296
-872.5002727593271 19.001151702067983 21.01222796525961 -495.3918047145135 17.140342822807263 -2570.126906046312 -77.1648848032747 -45.10073395361388
79.58243143397495 -54.49746386381503 -2306.407385750722 0.0420520485 -1.048811106 0.029528434999999995 36.197807878136885 -872.5006389200329
19.004355184063865 21.014974441239747 -495.3936722114382 17.156681257492778 -2570.060567644971 -77.19664813499675 -44.804847973861115 79.92077129005862
-54.659463563330206 -2304.8983047692254 0.0420520485 -1.048811106 0.029528434999999995 36.1984712621503 -872.5009565533501 19.007314043861392
21.018357839800583 -495.3952922084333 17.171772067307742 -2570.027845660973 -77.21256412430935 -44.63191702432138 80.08077450236665 -54.737289205481474
-2304.0527109496124 0.0420520485 -1.048811106 0.029528434999999995 36.19879848199027 -872.5011157132432 19.009043353356788 21.019957871923662
-495.39607046485486 17.18022800550387 -2570.00319533282 -77.2202268832441 -44.48234979487265 80.20130911570917 -54.774758389648035 -2303.3213605165347
0.0420520485 -1.048811106 0.029528434999999995 36.199044985271804 -872.5011923408325 19.010539025651276 21.021163218057087 -495.39644515669653
17.18754150983465 -2569.9987584895716 -77.22394610171251 -44.425203524333995 80.22023785097522 -54.79062554966457 -2303.077559560317 0.0420520485
-1.048811106 0.029528434999999995 36.19908935370429 -872.5012295330172 19.011110488356664 21.021352505409748 -495.3966038282967 17.18997951939683
-2569.9894541541644 -77.22683713343547 -44.36651445402488 80.25993258254582 -54.80295944813015 -2302.8271766162325 0.0420520485 -1.048811106
0.029528434999999995 36.199182397058365 -872.5012584433345 19.011697379059754 21.021749452725455 -495.39672716728137 17.192483348837673 -2569.988579664242
