ws_icra2022/src/my_pkg/ur5_eye2hand/keyboard_adaptive/before0913/0912_step_4e-5/log_theta_k.npy (npy, 11888 bytes, 1 tensors)

array f8 [98, 15, 1]
00000000: 4eb1 ff11 f3c3 9ac0 289d dd95 1009 99c0
00000010: ecdb e1d9 28ce 25c0 515c ace5 c496 f8bf
00000020: e97a 4682 f75b 3840 9f6d aead c54e a1c0
00000030: d30b e970 d843 e73f 0aab cc03 8ef1 e3bf
00000040: 1e47 b484 5478 7bbf 3992 f0ef 698a 7b40
00000050: 816e ff02 5f38 81c0 9dff 196f b23a 15c0
00000060: c2fe d5bc 7f19 7540 918a 5da9 9609 76c0
00000070: 597d 97cb b5e4 10c0 6aaf ff11 f3c3 9ac0
00000080: 2ea1 dd95 1009 99c0 9b3a ccd9 28ce 25c0
00000090: 5a18 b0e5 c496 f8bf 17fa 4682 f75b 3840
000000a0: 4f78 aead c54e a1c0 e754 e937 d843 e73f
000000b0: ed6f 7a8a 8df1 e3bf 3227 66ed e07a 7bbf
000000c0: c899 f0ef 698a 7b40 8c76 ff02 5f38 81c0
000000d0: fabc ee6e b23a 15c0 06fb d5bc 7f19 7540
000000e0: 9e82 5da9 9609 76c0 badc accb b5e4 10c0
000000f0: 86ad ff11 f3c3 9ac0 34a5 dd95 1009 99c0
00000100: 2599 b6d9 28ce 25c0 1cd4 b3e5 c496 f8bf
00000110: 3b79 4782 f75b 3840 fe82 aead c54e a1c0
00000120: 53a1 e9fe d743 e73f 3232 2911 8df1 e3bf
00000130: a1c5 6761 6d7d 7bbf 57a1 f0ef 698a 7b40
00000140: 977e ff02 5f38 81c0 0d7a c36e b23a 15c0
00000150: 4af7 d5bc 7f19 7540 ac7a 5da9 9609 76c0
00000160: e63a c2cb b5e4 10c0 84c9 1511 f3c3 9ac0
00000170: def6 0595 1009 99c0 f51c 843b 29ce 25c0
00000180: 9eaa ccb3 c696 f8bf a58c a567 f75b 3840
00000190: 5c34 7ead c54e a1c0 e8eb 4f16 4928 e73f
000001a0: 1225 72b6 f60a e4bf 677c 55ce bfee 6fbf
000001b0: 6031 98f3 698a 7b40 eb21 5001 5f38 81c0
000001c0: ad81 5e32 b33a 15c0 73de 07bb 7f19 7540
000001d0: 7599 07ab 9609 76c0 1df6 246b b5e4 10c0
000001e0: a0a5 3c07 f3c3 9ac0 e439 858b 1009 99c0
000001f0: c4ee e821 2fce 25c0 9fa4 2a29 da96 f8bf
00000200: be5d 3a3b f65b 3840 7b21 94aa c54e a1c0
00000210: 6a1e 8df3 67ff e53f 68e4 02ec 6e29 e5bf
00000220: 3db6 f978 883c a43f f0c0 fc1a 6a8a 7b40
00000230: f8a7 4eee 5e38 81c0 4b25 28ff be3a 15c0
00000240: 7980 92a7 7f19 7540 634c cebd 9609 76c0
00000250: 3a33 ff96 afe4 10c0 ff1a eff9 f2c3 9ac0
00000260: 9f0a 917f 1009 99c0 c4b7 a834 36ce 25c0
00000270: b2e0 f771 f496 f8bf aa73 53c1 f45b 3840
00000280: 8fb1 15a7 c54e a1c0 0ff4 290f 626e e43f
00000290: 49c2 35d8 c991 e6bf 56d4 d173 e471 b73f
000002a0: 72eb 3250 6a8a 7b40 6d49 66d6 5e38 81c0
000002b0: 4cb7 a724 cd3a 15c0 3db3 498d 7f19 7540
000002c0: 04bb 6cd5 9609 76c0 e05a 1f9a a8e4 10c0
000002d0: 2ad1 07e8 f2c3 9ac0 f13d c96d 1009 99c0
000002e0: 3eb3 367c 40ce 25c0 95e5 ced1 1797 f8bf
000002f0: fb7b 398f f25b 3840 c1cf 01a2 c54e a1c0
00000300: 54ca 8559 ac52 e23f f04d 0e4e caa9 e8bf
00000310: 400e 1f55 ff67 c53f c512 d097 6a8a 7b40
00000320: 12b0 d6b2 5e38 81c0 40ae c3b3 e13a 15c0
00000330: 38dc e969 7f19 7540 7f5a 8ef8 9609 76c0
00000340: 52be 5b72 9ee4 10c0 ae52 c8d2 f2c3 9ac0
00000350: 7e11 dc57 1009 99c0 0241 8860 4cce 25c0
00000360: c4ef de36 3e97 f8bf 8d1c 4b15 f05b 3840
00000370: 188e a29c c54e a1c0 4679 0f12 6ebc df3f
00000380: 900c 7795 5032 ebbf 27ba 7e09 ea32 d03f
00000390: b60c ceec 6a8a 7b40 2c57 fc86 5e38 81c0
000003a0: c9c9 667c f93a 15c0 2ecc 8443 7f19 7540
000003b0: 7640 2d20 9709 76c0 da6c d8b3 93e4 10c0
000003c0: 66b4 7cbf f2c3 9ac0 8f01 9d43 1009 99c0
000003d0: 25d3 a9cb 53ce 25c0 11f2 7138 5d97 f8bf
000003e0: 4acd be0c ee5b 3840 e99d a799 c54e a1c0
000003f0: 7a84 314a 2f65 db3f 9c0c 4018 5279 edbf
00000400: 01e1 69b3 6489 d33f d685 fc39 6b8a 7b40
00000410: 4e37 7e5e 5e38 81c0 0fee a952 083b 15c0
00000420: 2c39 8324 7f19 7540 6a05 b640 9709 76c0
00000430: ef0d f8bd 8de4 10c0 971d 79ab f2c3 9ac0
00000440: 5294 8b2f 1009 99c0 32d5 5168 58ce 25c0
00000450: 1e56 a561 7d97 f8bf a8d0 c708 ec5b 3840
00000460: c64f cd97 c54e a1c0 4eac 7066 8de4 d63f
00000470: 1593 8580 31bb efbf f6de 44a3 9b9c d53f
00000480: 14e1 0a8a 6b8a 7b40 d55c 5b36 5e38 81c0
00000490: 29f2 f98b 113b 15c0 c805 5a04 7f19 7540
000004a0: 3475 f560 9709 76c0 77c8 5b09 8ae4 10c0
000004b0: 5d6e 3a99 f2c3 9ac0 2503 691d 1009 99c0
000004c0: 48a4 58db 5ece 25c0 dc12 4c57 9797 f8bf
000004d0: 0980 ed6b ea5b 3840 0e06 8295 c54e a1c0
000004e0: e090 f703 42e6 d23f d57a baba a1db f0bf
000004f0: 2f26 79fe 576f d83f fb9d 05d3 6b8a 7b40
00000500: 7c3a 1612 5e38 81c0 5590 0772 1e3b 15c0
00000510: 0b5f 64ea 7e19 7540 3e1a c37a 9709 76c0
00000520: 9958 c872 85e4 10c0 e264 9f86 f2c3 9ac0
00000530: 8dd6 ef0a 1009 99c0 0ca1 a0eb 60ce 25c0
00000540: dd07 5ad0 b197 f8bf 2288 5fc7 e85b 3840
00000550: bc1b c694 c54e a1c0 4d83 7ae1 7fa7 cd3f
00000560: 1299 fce5 67de f1bf 1b80 cc34 9956 d93f
00000570: e7c3 711d 6c8a 7b40 4be1 23ed 5d38 81c0
00000580: dd89 9792 223b 15c0 1651 ebcf 7e19 7540
00000590: bcf9 0b95 9709 76c0 dfb3 f3fa 83e4 10c0
000005a0: 03d8 1a76 f2c3 9ac0 1d8e 73f8 0f09 99c0
000005b0: 54d2 9bdc 63ce 25c0 eacd 7a87 c797 f8bf
000005c0: 58a5 8942 e75b 3840 f8a0 ce93 c54e a1c0
000005d0: 7cb0 0d26 48a7 c63f 033d 85e3 1ed9 f2bf
000005e0: a53e 4674 bd95 da3f 63f7 835f 6c8a 7b40
000005f0: 6a50 2bc8 5d38 81c0 6dec 8d74 283b 15c0
00000600: 5030 34ba 7e19 7540 e957 59ad 9709 76c0
00000610: 552b fe0b 82e4 10c0 6108 a266 f2c3 9ac0
00000620: da73 aae9 0f09 99c0 c96a 8b8c 65ce 25c0
00000630: 5b41 6a33 db97 f8bf 4820 c115 e65b 3840
00000640: 6655 4593 c54e a1c0 edd9 a863 ef5c c03f
00000650: 7ec6 77f9 7b99 f3bf 74e8 da2a 5a45 db3f
00000660: eb35 679d 6c8a 7b40 e41b 99aa 5d38 81c0
00000670: 581d 6dd4 2b3b 15c0 dd40 88a6 7e19 7540
00000680: 3ae0 25c0 9709 76c0 0907 67f9 80e4 10c0
00000690: 7576 ac56 f2c3 9ac0 4b16 38dc 0f09 99c0
000006a0: 12bc 30b1 66ce 25c0 1757 f97d ef97 f8bf
000006b0: 70ec 3404 e55b 3840 2c50 e892 c54e a1c0
000006c0: 90ae 56f6 babf b33f bfff fff7 6d48 f4bf
000006d0: a058 f24b 55bc db3f 9d7d 3ddd 6c8a 7b40
000006e0: c560 b48f 5d38 81c0 eabf b71d 2e3b 15c0
000006f0: c7b1 3d92 7e19 7540 78a3 3ed1 9709 76c0
00000700: f192 5c3f 80e4 10c0 c9d7 6c49 f2c3 9ac0
00000710: f066 adce 0f09 99c0 67a5 7061 69ce 25c0
00000720: 99e5 8fa1 0098 f8bf 3bc7 e9eb e35b 3840
00000730: 42b9 0992 c54e a1c0 86de 0c1b 8d0f a33f
00000740: 20b3 a09b 8bef f4bf 81b7 29aa c1c5 dc3f
00000750: 4ef8 3b12 6d8a 7b40 0f02 9f74 5d38 81c0
00000760: 9392 377e 333b 15c0 381b 1a81 7e19 7540
00000770: cb55 c3e2 9709 76c0 6cbe 2e82 7ee4 10c0
00000780: bb8e 103e f2c3 9ac0 fd5e 6fc4 0f09 99c0
00000790: adb4 731d 6bce 25c0 7165 30ca 0f98 f8bf
000007a0: fa17 3f11 e35b 3840 c69b 7591 c54e a1c0
000007b0: 886e e0a2 ceee 743f e497 3c6b 2666 f5bf
000007c0: b4a8 8c83 6e66 dd3f 881c ad3f 6d8a 7b40
000007d0: 29f2 2260 5d38 81c0 1fb1 3df6 363b 15c0
000007e0: b87a f171 7e19 7540 bf00 6ef0 9709 76c0
000007f0: b1c6 f359 7de4 10c0 705f 7f32 f2c3 9ac0
-1712.98737334747 -1602.266196692197 -10.902655419178664 -1.536808869515671 24.35924543591219 -2215.3860907086196 0.7270319180755628 -0.6232366632660569
-0.0067065526484542375 440.6508635899841 -551.0463924365614 -5.307321296655485 337.59368594734053 -352.5992826131779 -4.223349743958658 -1712.98737334736
-1602.266196692431 -10.902655416660584 -1.5368088695700153 24.35924543602786 -2215.3860907098638 0.7270318119068663 -0.6232364372876852 -0.006708983061239059
440.6508635900941 -551.0463924367955 -5.307321294137404 337.5936859472862 -352.5992826130622 -4.223349745202706 -1712.98737334725 -1602.2661966926653
-10.902655414142439 -1.5368088696243438 24.359245436143492 -2215.3860907111075 0.7270317057382648 -0.6232362113165151 -0.006711413638627845 440.6508635902041
-551.0463924370296 -5.307321291619258 337.59368594723185 -352.5992826129466 -4.223349746446479 -1712.9873698620077 -1602.266193478768 -10.902658328892793
-1.536810591069901 24.35924384872182 -2215.386089271442 0.7236676631722476 -0.6263383448978479 -0.003898024197652772 440.6508670754465 -551.0463892231322
-5.3073242063696116 337.59368422578626 -352.59928420036823 -4.223348306780761 -1712.9873322940912 -1602.266157228144 -10.90270334213654 -1.5368291481084169
24.359225942372852 -2215.3860670367117 0.6874274975643406 -0.6613077745052012 0.039524330871114156 440.650904643363 -551.0463529725084 -5.307369219613359
337.59366566874775 -352.5993021067172 -4.223326072050265 -1712.987281547568 -1602.2661116278393 -10.902757306666793 -1.5368542148481024 24.35920341765783
-2215.386040380406 0.638474492661432 -0.7052964423037987 0.09158160998943407 440.650955389886 -551.0463073722036 -5.307423184143612 337.59364060200807
-352.5993246314322 -4.223299415744549 -1712.9872132512487 -1602.2660438007408 -10.902835733105913 -1.5368879504806945 24.359169913801434 -2215.386001640902
0.5725919483650821 -0.7707263493088572 0.1672362485534098 440.6510236862053 -551.0462395451052 -5.307501610582733 337.59360686637547 -352.5993581352886
-4.223260676240516 -1712.9871321964706 -1602.2659601579358 -10.90292646086937 -1.5369245665924476 24.359132128560805 -2215.385960655065 0.4958758522388006
-0.8498919409979795 0.25310755660294365 440.65110474098344 -551.0461559023001 -5.307592338346191 337.5935702502637 -352.5993959205292 -4.223219690403505
-1712.9870585904223 -1602.2658829242898 -10.902983059387745 -1.5369541363608088 24.359101101477144 -2215.3859379177343 0.42805082555248186 -0.9210596536289759
0.3052608253560863 440.65117834703176 -551.0460786686542 -5.307648936864566 337.5935406804954 -352.59942694761287 -4.223196953072587 -1712.9869822429953
-1602.2658063706663 -10.90301824568687 -1.536984807423671 24.359070347578978 -2215.385923782337 0.35769972804945815 -0.9916007528487137 0.33768359131089143
440.6512546944589 -551.0460021150308 -5.30768412316369 337.5935100094325 -352.599457701511 -4.223182817675585 -1712.986912644373 -1602.2657371910257
-10.903067450113795 -1.537009564404051 24.359045739634926 -2215.385906279792 0.295303825258328 -1.0536210340575753 0.38179588175680385 440.65132429308113
-551.0459329353903 -5.307733327590616 337.5934852524521 -352.5994823094551 -4.223165315130381 -1712.9868416695904 -1602.2656667208387 -10.903083194120448
-1.5370348108995053 24.359020672629534 -2215.385900679479 0.23167418012328725 -1.1167983039718519 0.3959105506528446 440.65139526786373 -551.0458624652032
-5.307749071597269 337.5934600059567 -352.59950737646045 -4.223159714817455 -1712.986778659281 -1602.2655962043275 -10.90310563470954 -1.5370555202651937
24.35899749622817 -2215.3858933040137 0.17698003633575243 -1.1780079734342628 0.4153894076816676 440.65145827817304 -551.0457919486919 -5.307771512186361
337.593439296591 -352.59953055286184 -4.223152339351903 -1712.986719638597 -1602.2655398019037 -10.90311850740308 -1.5370742805863162 24.35897956814759
-2215.385889212298 0.12783615461530876 -1.2249717469061632 0.4261079233653 440.6515172988572 -551.0457355462681 -5.307784384879902 337.5934205362699
-352.5995484809424 -4.223148247636126 -1712.9866587588597 -1602.265488506661 -10.90312722892671 -1.5370936318262858 24.358963263436124 -2215.3858864400736
0.07714432253004078 -1.2676829993724679 0.43336994568506704 440.65157817859455 -551.0456842510254 -5.3077931064035315 337.5934011850299 -352.5995647856539
-4.223145475411671 -1712.9866082197861 -1602.2654368490294 -10.903147740364785 -1.537109976865713 24.35894655663945 -2215.3858798063893 0.037228021194491354
-1.3084827498634652 0.44957009904361916 440.65162871766813 -551.0456325933936 -5.307813617841606 337.59338483999045 -352.59958149245057 -4.223138841727273
-1712.986564882957 -1602.265397777722 -10.903160972952117 -1.5371244333276446 24.358933523086286 -2215.385875392213 0.005110556767273906 -1.3374389828618343
0.4593769344961729 440.65167205449734 -551.0455935220863 -5.307826850428937 337.5933703835285 -352.5995945260037 -4.223134427551188 -1712.986520757866
