ws_icra2022/src/my_pkg/ur5_eye2hand/keyboard_adaptive/0913_fitted/log_theta_k.npy (npy, 17168 bytes, 1 tensors)

array f8 [142, 15, 1]
0	0xc0a499e79b6a5431	-2636.9523575999997
1	0xc05389c11431e62c	-78.1524096
2	0xc04a049b70336ec3	-52.035993600000005
3	0x405318ed011fbab1	76.38946560000001
4	0xc0491e41ef8e98b5	-50.2363872
5	0xc0a2bcdae70c1334	-2398.427544
6	0x3fa587d89a1319c1	0.0420520485
7	0xbff0c7ee277f39b6	-1.048811106
8	0x3f9e3cb3ba821c79	0.029528434999999995
9	0x4042182a517c0d5b	36.188791452
10	0xc08b43ed84dc06f7	-872.4909760656
11	0x4032f2b0e326195e	18.948011586
12	0x4034f6c54204ee62	20.963947416499998
13	0xc07ef56a81702478	-495.338502348
14	0x4030d609c4d41ebf	16.836086561
15	0xc0a499e789a2ccb2	-2636.9522219538567
16	0xc05389c13dfbcdf3	-78.15241956320078
17	0xc04a049d5fb2dca1	-52.03605266793716
18	0x405318fa66d7fe6c	76.3902833089175
19	0xc0491e43e761e6c3	-50.23644726066916
20	0xc0a2bcdb15b80378	-2398.4279000763163
21	0x3fa587d89a1319c1	0.0420520485
22	0xbff0c7ee277f39b6	-1.048811106
23	0x3f9e3cb3ba821c79	0.029528434999999995
24	0x4042182a5cdd07ea	36.18879280846143
25	0xc08b43ed84e9664b	-872.4909761652319
26	0x4032f2b0d93d2688	18.94801099532063
27	0x4034f6c5cb354303	20.963955593589173
28	0xc07ef56a82115dd9	-495.33850294860673
29	0x4030d6098916c23f	16.836083000236837
30	0xc0a499e77791d267	-2636.95208411878
31	0xc05389c16874b8ba	-78.15242968939393
32	0xc04a049f5739d5e5	-52.03611269306183
33	0x40531908147a21b9	76.39111816336562
34	0xc0491e45e9e26dfb	-50.236508594094595
35	0xc0a2bcdb455f498b	-2398.428263643005
36	0x3fa587d89a1319c1	0.0420520485
37	0xbff0c7ee277f39b6	-1.048811106
38	0x3f9e3cb3ba821c79	0.029528434999999995
39	0x4042182a686d0443	36.188794186812196
40	0xc08b43ed84f6fda0	-872.4909762664938
41	0x4032f2b0cf2b174e	18.94801039506938
42	0x4034f6c65745fcbe	20.963963942133653
43	0xc07ef56a82b601db	-495.33850356194097
44	0x4030d6094c17b03b	16.83607936456995
45	0xc0a499e6a2e1597c	-2636.950461427854
46	0xc0538a2e2b722683	-78.15906797549728
47	0xc049f5c12be435e7	-51.9199576248464
48	0x405319a91c276de6	76.40094665384785
49	0xc049236b6ec52e6d	-50.27671608570095
50	0xc0a2bb730ee558be	-2397.724723021586
51	0x3fa587d89a1319c1	0.0420520485
52	0xbff0c7ee277f39b6	-1.048811106
53	0x3f9e3cb3ba821c79	0.029528434999999995
54	0x4042182af08c09f8	36.188810413721455
55	0xc08b43eda7c4bf5d	-872.4910426493549
56	0x4032f2fceec14896	18.949171945751537
57	0x4034f6ccc838706e	20.964062227038475
58	0xc07ef56c28512bb2	-495.338905636857
59	0x4030d7d65e9f4adb	16.843114770784137
60	0xc0a499cfb6c8d492	-2636.9056914100156
61	0xc0538b862e8c1a29	-78.18006480867247
62	0xc049e3cd3239b9aa	-51.77969959086052
63	0x40532b03ecc5488a	76.67211455598786
64	0xc04933b2bb85accf	-50.403891983290684
65	0xc0a2b9c0194a0be8	-2396.875192941621
66	0x3fa587d89a1319c1	0.0420520485
67	0xbff0c7ee277f39b6	-1.048811106
68	0x3f9e3cb3ba821c79	0.029528434999999995
69	0x404218399c20d9ea	36.18925811389984
70	0xc08b43ee15da384f	-872.4912526176867
71	0x4032f358da25f927	18.950574526091398
72	0x4034f77e7ea52741	20.966773906059874
73	0xc07ef5715dda5f0e	-495.34017739583294
74	0x4030da031e1e6586	16.851610071583785
75	0xc0a499ba83ad6682	-2636.864285868419
76	0xc0538e574b4c4816	-78.22407801102995
77	0xc049b9d6970fd1fc	-51.45186126968835
78	0x40533b1e438ea21d	76.92372216156987
79	0xc04955eea5fa76b2	-50.67134546975775
80	0xc0a2b5c41c6a36d8	-2394.8830292884777
81	0x3fa587d89a1319c1	0.0420520485
82	0xbff0c7ee277f39b6	-1.048811106
83	0x3f9e3cb3ba821c79	0.029528434999999995
84	0x404218472d7a161d	36.189672169315806
85	0xc08b43eefc9bbd7c	-872.4916927497102
86	0x4032f42fb44aa6bf	18.95385290930312
87	0x4034f823636586ff	20.969289982115694
88	0xc07ef57c524e5b78	-495.34285193069763
89	0x4030df1cb3b7c82a	16.87153170811522
90	0xc0a4998ea3d52cc7	-2636.778593694416
91	0xc0539098e93edfe4	-78.25933295383544
92	0xc04987530069712f	-51.05722050808469
93	0x40535c71c896614e	77.44444479642445
94	0xc049715a9e4005cf	-50.88557794691189
95	0xc0a2b0f848b0bb25	-2392.4849295834015
96	0x3fa587d89a1319c1	0.0420520485
97	0xbff0c7ee277f39b6	-1.048811106
98	0x3f9e3cb3ba821c79	0.029528434999999995
99	0x4042186341db82be	36.190529091055836
100	0xc08b43efb5721f98	-872.4920452991382
101	0x4032f53256064c86	18.957799316919157
102	0x4034f978a62865af	20.97449720846424
103	0xc07ef58518b248c5	-495.3449942554692
104	0x4030e5405215d723	16.89551270516598
105	0xc0a499668023767c	-2636.7001963693747
106	0xc0539378712ca3a6	-78.30422620162298
107	0xc0494717a5a677d2	-50.55540915134738
108	0x40537a3c05ecf1e8	77.90991352214007
109	0xc0499378c277d375	-51.152122791775504
110	0xc0a2ab02d3eef0a6	-2389.505523173214
111	0x3fa587d89a1319c1	0.0420520485
112	0xbff0c7ee277f39b6	-1.048811106
113	0x3f9e3cb3ba821c79	0.029528434999999995
114	0x4042187cf24d3f17	36.19131306430625
115	0xc08b43f0a0d0d214	-872.4924942316161
116	0x4032f67b33fff55a	18.96281743048653
117	0x4034faa9b2d9f096	20.979151895721394
118	0xc07ef590039f276d	-495.3476597039178
119	0x4030ece0e788c5da	16.925306769267856
120	0xc0a49953c223a13b	-2636.66359053939
121	0xc05396a21ba17d1a	-78.35364428301219
122	0xc04918e1830f9682	-50.19438207875375
123	0x40538824eba87100	78.12725345086437
124	0xc049b9073940063e	-51.445532947790056
125	0xc0a2a6b95783ca80	-2387.3619958100026
126	0x3fa587d89a1319c1	0.0420520485
127	0xbff0c7ee277f39b6	-1.048811106
128	0x3f9e3cb3ba821c79	0.029528434999999995
129	0x40421888f10575a7	36.1916791226061
130	0xc08b43f1a3e8a58d	-872.49298841243
131	0x4032f767ce4aa7f0	18.966427701212467
132	0x4034fb382270ccb6	20.981325295008638
133	0xc07ef59c08400b54	-495.35059380547796
134	0x4030f25dafc000ec	16.94674204289997
135	0xc0a4990af2412c5e	-2636.5213795057925
136	0xc0539e383e8218d0	-78.4721828718641
137	0xc048c28a2aa5916c	-49.519841509670044
138	0x4053bd9df133382e	78.96276502611065
139	0xc04a122beb2916f1	-52.14196528917626
140	0xc0a29ecc455ff26f	-2383.3989667876663
141	0x3fa587d89a1319c1	0.0420520485
142	0xbff0c7ee277f39b6	-1.048811106
143	0x3f9e3cb3ba821c79	0.029528434999999995
144	0x404218b78a8c26d8	36.19310123294207
145	0xc08b43f41164728c	-872.4941737983186
146	0x4032f921df6b7f14	18.973173106903303
147	0x4034fd5bb205b5f5	20.9896804107611
148	0xc07ef5b88edf6026	-495.3575581288918
149	0x4030fc82e5b071a5	16.98637233312333
150	0xc0a498f91a75d915	-2636.486530001401
151	0xc053a1b361527712	-78.52657349637255
152	0xc048905599b764f6	-49.12761231856159
153	0x4053cab048804c06	79.16700947312356
154	0xc04a3af9614cc25c	-52.46073547599801
155	0xc0a29a334e59da63	-2381.1002071456037
156	0x3fa587d89a1319c1	0.0420520485
157	0xbff0c7ee277f39b6	-1.048811106
158	0x3f9e3cb3ba821c79	0.029528434999999995
159	0x404218c2f5ef8f58	36.19344972798598
160	0xc08b43f52e8e4ed3	-872.4947177045636
161	0x4032fa22ec8efad9	18.977095398814388
162	0x4034fde18c8de9f3	20.991722855231227
163	0xc07ef5c59d6b9486	-495.36074583076004
164	0x40310265698f48bf	17.009359929543958
165	0xc0a498e5b9dd9cd9	-2636.448683667561
166	0xc053a459014c9222	-78.56793243863697
167	0xc04866847f6c882d	-48.800918510431394
168	0x4053d8e2633e4522	79.38881760674533
169	0xc04a5a002b35bf5d	-52.70313015102759
170	0xc0a2965efe5d7a2d	-2379.18553440205
171	0x3fa587d89a1319c1	0.0420520485
172	0xbff0c7ee277f39b6	-1.048811106
173	0x3f9e3cb3ba821c79	0.029528434999999995
174	0x404218cf5cb763f9	36.19382819132438
175	0xc08b43f60765572e	-872.4951312939863
176	0x4032faf906af3277	18.98036233689569
177	0x4034fe72e9c8b679	20.993940936567444
178	0xc07ef5cf8b1cd4d7	-495.36316977751034
179	0x4031074c365771fa	17.028506656979495
180	0xc0a498d075ff62b8	-2636.4071502502447
181	0xc053a948d10e8386	-78.64506937425003
182	0xc04825827f39a768	-48.29304495158323
183	0x4053e87697b95d31	79.63223832227665
184	0xc04a93de29dc23db	-53.155217392435326
185	0xc0a2906afdf2571d	-2376.2089687091197
186	0x3fa587d89a1319c1	0.0420520485
187	0xbff0c7ee277f39b6	-1.048811106
188	0x3f9e3cb3ba821c79	0.029528434999999995
189	0x404218dcf8cabc60	36.19424352549754
190	0xc08b43f79bd0c871	-872.4959026633425
191	0x4032fc45ddba7466	18.98544107248417
192	0x4034ff127100d628	20.99637514372276
193	0xc07ef5e20f974787	-495.36769064992444
194	0x40310eeaef328023	17.058272313908798
195	0xc0a498bed584e308	-2636.3727227713716
196	0xc053ab8d1351eaf0	-78.68048556327608
197	0xc047fa6acb809f1d	-47.9563841226611
198	0x4053f56074ff2c32	79.83401226920321
199	0xc04aae6fc5a33fc3	-53.36278601142069
200	0xc0a28c78c1c83aa9	-2374.235853440438
201	0x3fa587d89a1319c1	0.0420520485
202	0xbff0c7ee277f39b6	-1.048811106
203	0x3f9e3cb3ba821c79	0.029528434999999995
204	0x404218e840c7370e	36.19458780028627
205	0xc08b43f8557f9655	-872.4962568252328
206	0x4032fd22800af490	18.98880768077339
207	0x4034ff96ad0dde70	20.998392883192025
208	0xc07ef5ea901b0c5d	-495.3697663361143
209	0x403113f8090200b8	17.078003466595618
210	0xc0a498980824e38c	-2636.29693713453
211	0xc053aff35db0d48a	-78.74922888058259
212	0xc047be7bfcc1f594	-47.488158793169674
213	0x4054105aaf83ad0c	80.25553500994664
214	0xc04adf60b7ba21e6	-53.74513908947465
215	0xc0a287435c8bd05f	-2371.6315654460773
216	0x3fa587d89a1319c1	0.0420520485
217	0xbff0c7ee277f39b6	-1.048811106
218	0x3f9e3cb3ba821c79	0.029528434999999995
219	0x4042190116235fb0	36.195345656654695
220	0xc08b43f9bde94e4e	-872.4969442584058
221	0x4032fe555b37ba83	18.993489934068304
222	0x403500aaecd5baa2	21.00260811059946
223	0xc07ef5fa395e46e3	-495.37358986689486
224	0x40311aa2c807a77e	17.104046346539228
225	0xc0a49886e02be13e	-2636.2634290420965
226	0xc053b1be3cf2e9ba	-78.7772362110326
227	0xc0479990cd108789	-47.199731476851476
228	0x40541c845a28576c	80.44557813586806
229	0xc04af3b5c216b60e	-53.9039843188185
230	0xc0a283fdd0b33f54	-2369.9957328810506
231	0x3fa587d89a1319c1	0.0420520485
232	0xbff0c7ee277f39b6	-1.048811106
233	0x3f9e3cb3ba821c79	0.029528434999999995
234	0x4042190c11002df6	36.195680737579025
235	0xc08b43fa50c01bc5	-872.4972243317103
236	0x4032ff12614aa31d	18.996374207231487
237	0x4035012778c7d5ee	21.004508541858677
238	0xc07ef600bafb3150	-495.3751783191883
239	0x40311ed2d73156e8	17.120404672189494
240	0xc0a49870510c66af	-2636.219368350539
241	0xc053b3d5c92dc116	-78.80992345302761
242	0xc0477571c2ed92d2	-46.91753422355909
243	0x40542c829897a8ef	80.69547095118081
244	0xc04b0b708a322554	-54.08937194298292
245	0xc0a280ca5c2cb3fc	-2368.395234486552
246	0x3fa587d89a1319c1	0.0420520485
247	0xbff0c7ee277f39b6	-1.048811106
248	0x3f9e3cb3ba821c79	0.029528434999999995
249	0x4042191a81145370	36.1961213444946
250	0xc08b43fafc202e99	-872.4975512041302
251	0x4032ffcb52226054	18.99919617976441
252	0x403501cb3dd68745	21.007007470011803
253	0xc07ef60852e94e92	-495.37703219542993
254	0x403122ebbe43f4c9	17.13640965613448
255	0xc0a4985ba35b65a3	-2636.178980690152
