ws_icra2022/src/my_pkg/ur5_eye2hand/keyboard_adaptive/0913_fitted/log_theta_k.npy (npy, 52088 bytes, 1 tensors)

array f8 [433, 15, 1]
0	0xc0a499e79b6a5431	-2636.9523575999997
1	0xc05389c11431e62c	-78.1524096
2	0xc04a049b70336ec3	-52.035993600000005
3	0x405318ed011fbab1	76.38946560000001
4	0xc0491e41ef8e98b5	-50.2363872
5	0xc0a2bcdae70c1334	-2398.427544
6	0x3fa587d89a1319c1	0.0420520485
7	0xbff0c7ee277f39b6	-1.048811106
8	0x3f9e3cb3ba821c79	0.029528434999999995
9	0x4042182a517c0d5b	36.188791452
10	0xc08b43ed84dc06f7	-872.4909760656
11	0x4032f2b0e326195e	18.948011586
12	0x4034f6c54204ee62	20.963947416499998
13	0xc07ef56a81702478	-495.338502348
14	0x4030d609c4d41ebf	16.836086561
15	0xc0a499e79b6a5431	-2636.9523575999997
16	0xc05389c11431e62c	-78.1524096
17	0xc04a049b70336ec3	-52.035993600000005
18	0x405318ed011fbab1	76.38946560000001
19	0xc0491e41ef8e98b5	-50.2363872
20	0xc0a2bcdae70c1334	-2398.427544
21	0x3fa587d89a1319c1	0.0420520485
22	0xbff0c7ee277f39b6	-1.048811106
23	0x3f9e3cb3ba821c79	0.029528434999999995
24	0x4042182a517c0d5b	36.188791452
25	0xc08b43ed84dc06f7	-872.4909760656
26	0x4032f2b0e326195e	18.948011586
27	0x4034f6c54204ee62	20.963947416499998
28	0xc07ef56a81702478	-495.338502348
29	0x4030d609c4d41ebf	16.836086561
30	0xc0a499e79b6a5431	-2636.9523575999997
31	0xc05389c11431e62c	-78.1524096
32	0xc04a049b70336ec3	-52.035993600000005
33	0x405318ed011fbab1	76.38946560000001
34	0xc0491e41ef8e98b5	-50.2363872
35	0xc0a2bcdae70c1334	-2398.427544
36	0x3fa587d89a1319c1	0.0420520485
37	0xbff0c7ee277f39b6	-1.048811106
38	0x3f9e3cb3ba821c79	0.029528434999999995
39	0x4042182a517c0d5b	36.188791452
40	0xc08b43ed84dc06f7	-872.4909760656
41	0x4032f2b0e326195e	18.948011586
42	0x4034f6c54204ee62	20.963947416499998
43	0xc07ef56a81702478	-495.338502348
44	0x4030d609c4d41ebf	16.836086561
45	0xc0a49947678aa156	-2636.639461834139
46	0xc05384023419433e	-78.0626344916063
47	0xc04a3235c979af0e	-52.39226644937126
48	0x40530e34f49140a3	76.22198213753522
49	0xc04924689076501b	-50.28444104935644
50	0xc0a2bc79435eda61	-2398.2368421212745
51	0x3fa587d89a1319c1	0.0420520485
52	0xbff0c7ee277f39b6	-1.048811106
53	0x3f9e3cb3ba821c79	0.029528434999999995
54	0x40421890d9157595	36.1919204096586
55	0xc08b43ebae2dea9a	-872.490078314516
56	0x4032f1c7667bbbec	18.944448857506288
57	0x4034f6577ef4fdfb	20.96227258187535
58	0xc07ef56c7951b64c	-495.33898288649357
59	0x4030d686bf4b71b9	16.837993579787256
60	0xc0a4972e82ae0576	-2635.590840757529
61	0xc0538e52cc001bf2	-78.2238035203043
62	0xc04a855a395c8948	-53.041815920051306
63	0x4052ea4a04c6b262	75.66076774028764
64	0xc049195e1c887286	-50.19818455374211
65	0xc0a2bbc74643d43b	-2397.8892079540797
66	0x3fa587d89a1319c1	0.0420520485
67	0xbff0c7ee277f39b6	-1.048811106
68	0x3f9e3cb3ba821c79	0.029528434999999995
69	0x404219e875cb9be7	36.2024066204247
70	0xc08b43eefb2b5331	-872.491690004803
71	0x4032f01db62a65a3	18.937953362799487
72	0x4034f4e7b2ce2b7e	20.956660437902876
73	0xc07ef568f0dab1dc	-495.3381203215374
74	0x4030d76a92a13c26	16.8414699214592
75	0xc0a492d8eff5a3c7	-2633.423705745928
76	0xc053a114e7ad7114	-78.51690093934695
77	0xc04b2099305a25c7	-54.254674953477256
78	0x4052a042ce0b8fe0	74.50407744530776
79	0xc0490557f0de7ae4	-50.04174624312671
80	0xc0a2ba7bd45b55d3	-2397.241854528643
81	0x3fa587d89a1319c1	0.0420520485
82	0xbff0c7ee277f39b6	-1.048811106
83	0x3f9e3cb3ba821c79	0.029528434999999995
84	0x40421cae96419cfb	36.22407797054071
85	0xc08b43f4fbd8058a	-872.4946209789935
86	0x4032ed02da2f9096	18.925824772465226
87	0x4034f1f1a66048d5	20.945093534953077
88	0xc07ef562887acd64	-495.3365559384313
89	0x4030d912d28325a0	16.847943455713562
90	0xc0a48d257f2d25d5	-2630.573235903614
91	0xc053b97cbe914fa8	-78.89823879423659
92	0xc04bdb22fb982afa	-55.71200509004662
93	0x40523ee3f2c9bd53	72.98266286564949
94	0xc048eb4a79e8c959	-49.838210333504954
95	0xc0a2b8ed939848d1	-2396.464016684426
96	0x3fa587d89a1319c1	0.0420520485
97	0xbff0c7ee277f39b6	-1.048811106
98	0x3f9e3cb3ba821c79	0.029528434999999995
99	0x40422054a0ff5e39	36.252582668963846
100	0xc08b43fccb2706c7	-872.4984343575424
101	0x4032e947c6c2cdec	18.911251471099533
102	0x4034ee0c935da6cf	20.929879389156493
103	0xc07ef55a32404154	-495.33452057933505
104	0x4030db10960c2c0a	16.855721834155737
105	0xc0a48679ab91b735	-2627.2376370941297
106	0xc053d6d5a44e7329	-79.35678966199033
107	0xc04ccc7b52d77c4d	-57.5975135376144
108	0x4051cc6f81c128e5	71.19430583823448
109	0xc048cbd28172a4da	-49.59236162278985
110	0xc0a2b6e7feb23130	-2395.4531150517505
111	0x3fa587d89a1319c1	0.0420520485
112	0xbff0c7ee277f39b6	-1.048811106
113	0x3f9e3cb3ba821c79	0.029528434999999995
114	0x40422499a34e5d58	36.28593865705869
115	0xc08b44062f479539	-872.5030198662199
116	0x4032e47416ef9e37	18.892396386623854
117	0x4034e9788ed8303b	20.911995818882342
118	0xc07ef550205725c3	-495.3320620922279
119	0x4030dda71732b0af	16.865830850482492
120	0xc0a480344a649617	-2624.1021300729003
121	0xc053f351ca462bab	-79.80186707356067
122	0xc04da478714e689e	-59.2849256165366
123	0x405160d8b43e2104	69.51322656695635
124	0xc048ad473dbc6d3a	-49.35373660755654
125	0xc0a2b518caaebec9	-2394.5484213455097
126	0x3fa587d89a1319c1	0.0420520485
127	0xbff0c7ee277f39b6	-1.048811106
128	0x3f9e3cb3ba821c79	0.029528434999999995
129	0x4042289d14b2ed6b	36.317293727270986
130	0xc08b440f4cc45f60	-872.5074706403357
131	0x4032e0223a2aadf8	18.875522265834633
132	0x4034e52ad88b4465	20.89518502616956
133	0xc07ef5465a2cffef	-495.3296758420756
134	0x4030dff7fd9d808f	16.8748777875449
135	0xc0a4792af3993b5a	-2620.583889759536
136	0xc0540c2f75eadab6	-80.19039676604265
137	0xc04e8ee750089c93	-61.116434101300136
138	0x4050e85ae37073b1	67.63054738980897
139	0xc04892aa73a24d06	-49.14582677292678
140	0xc0a2b322fe294f0c	-2393.5683453473084
141	0x3fa587d89a1319c1	0.0420520485
142	0xbff0c7ee277f39b6	-1.048811106
143	0x3f9e3cb3ba821c79	0.029528434999999995
144	0x40422d1df0165ab0	36.352476130404625
145	0xc08b441741c81932	-872.5113559372605
146	0x4032db71ee083c4a	18.857207180986997
147	0x4034e059036451f1	20.876358234398086
148	0xc07ef53dd615497e	-495.32759674372926
149	0x4030e27a4b1519d3	16.884678547526914
150	0xc0a4742ea4897c1e	-2618.0910990680704
151	0xc054196693d4dd7b	-80.39688583171475
152	0xc04f3fbae937edc0	-62.49789157133955
153	0x405092cac1d7eb76	66.29362531743922
154	0xc048847d9dc36ed2	-49.03508350412962
155	0xc0a2b1a7a751791e	-2392.8274484119747
156	0x3fa587d89a1319c1	0.0420520485
157	0xbff0c7ee277f39b6	-1.048811106
158	0x3f9e3cb3ba821c79	0.029528434999999995
159	0x4042304ec686d514	36.37740403731928
160	0xc08b441b7c6107eb	-872.5134208279172
161	0x4032d7e893edb06d	18.843392606286603
162	0x4034dcecd91689ef	20.86298901367439
163	0xc07ef5394cdb16a8	-495.3264893110413
164	0x4030e45fd8f62ba8	16.892087516880252
165	0xc0a46fa2361a8ead	-2615.8168190287747
166	0xc0542bfcfa818990	-80.68731558466084
167	0xc04fe44f26ce541d	-63.783665514704104
168	0x405044baad61356e	65.07389387600935
169	0xc048708d9bcbd02c	-48.87932155086341
170	0xc0a2b04696a3554b	-2392.1378680268876
171	0x3fa587d89a1319c1	0.0420520485
172	0xbff0c7ee277f39b6	-1.048811106
173	0x3f9e3cb3ba821c79	0.029528434999999995
174	0x4042333802f6c933	36.400146837712235
175	0xc08b44216f113f2c	-872.5163251254467
176	0x4032d49deedb5238	18.830534866852958
177	0x4034d9cd7c1c07c6	20.850791699260093
178	0xc07ef532eb92c76b	-495.32493169150865
179	0x4030e623c55a308d	16.898983320731123
180	0xc0a46ac067e5fd2b	-2613.375792681841
181	0xc0543d85ceb18e56	-80.96129195537046
182	0xc0504616b39e9092	-65.09513559803807
183	0x404fe1e2cc3c7ec6	63.764733819521595
184	0xc0485dbec09aca70	-48.732383800107414
185	0xc0a2aede779fa60a	-2391.434506405848
186	0x3fa587d89a1319c1	0.0420520485
187	0xbff0c7ee277f39b6	-1.048811106
188	0x3f9e3cb3ba821c79	0.029528434999999995
189	0x40423657e3186e01	36.42455710118157
190	0xc08b44270b7e1b56	-872.5190648891537
191	0x4032d14272b02529	18.81742016601962
192	0x4034d673837fc07e	20.837700098695215
193	0xc07ef52ce6d1c1f9	-495.3234623140011
194	0x4030e7f0b9d9c932	16.90601693694152
195	0xc0a465d6efa3cb4b	-2610.919797056738
196	0xc054506ba6cb9647	-81.25657052880807
197	0xc0509cf6bdf6f423	-66.45255993954247
198	0x404f3979b6557185	62.44902686283152
199	0xc048497f5e185538	-48.574199449425976
200	0xc0a2ad6a25869fc9	-2390.7073175497103
201	0x3fa587d89a1319c1	0.0420520485
202	0xbff0c7ee277f39b6	-1.048811106
203	0x3f9e3cb3ba821c79	0.029528434999999995
204	0x4042397caaf0dfd8	36.4491170574326
205	0xc08b442d179a4ca0	-872.522017674888
206	0x4032cdc8d8ac9c0f	18.803845922604577
207	0x4034d3154080403a	20.824543029128314
208	0xc07ef5266c22dfe8	-495.3218804704943
209	0x4030e9cd4be55652	16.913288825502896
210	0xc0a461220b7ecea3	-2608.566493952488
211	0xc05461901574a96d	-81.52441917793995
212	0xc050ee9c5c6b2ac8	-67.72829351869143
213	0x404e981b504f0401	61.188333548147064
214	0xc04837217e607908	-48.43070964537225
215	0xc0a2ac0c3b7f91e5	-2390.0238914361566
216	0x3fa587d89a1319c1	0.0420520485
217	0xbff0c7ee277f39b6	-1.048811106
218	0x3f9e3cb3ba821c79	0.029528434999999995
219	0x40423c7fcc5039dd	36.4726500884751
220	0xc08b443293e6abb0	-872.5246961613793
221	0x4032ca84c81899df	18.791088586813085
222	0x4034cfdb0b42aead	20.81193609598147
223	0xc07ef5208b895d64	-495.32044557245376
224	0x4030eb8d2fc5681a	16.920123086638434
225	0xc0a45cc935c7726e	-2606.3929884268937
226	0xc0546bc7de5e9d63	-81.6840740131352
227	0xc0513a2b7bfc31bc	-68.9089040720782
228	0x404e02817cf5edcd	60.0195766640496
229	0xc0482c2453bdbf9c	-48.34485861554205
230	0xc0a2aac730a2ea5e	-2389.3890429411977
231	0x3fa587d89a1319c1	0.0420520485
232	0xbff0c7ee277f39b6	-1.048811106
233	0x3f9e3cb3ba821c79	0.029528434999999995
234	0x40423f48032bf9ff	36.494385143731044
235	0xc08b4435d8f3c35a	-872.5262927097313
236	0x4032c77f0e8370a2	18.779282481279218
237	0x4034ccdd1664bd97	20.800248527140493
238	0xc07ef51d0752c2eb	-495.31958706215545
239	0x4030ed2d3daca4f0	16.926471571588024
240	0xc0a459f23960c809	-2604.9730940097984
241	0xc0546dda1cbf2ea8	-81.71643751783506
242	0xc0516cc257c1b8ac	-69.69936174314597
243	0x404da0c684bc90e7	59.25605830390287
244	0xc04829ea12863651	-48.327455821545875
245	0xc0a2a9ed9038e2fd	-2388.9639909531675
246	0x3fa587d89a1319c1	0.0420520485
247	0xbff0c7ee277f39b6	-1.048811106
248	0x3f9e3cb3ba821c79	0.029528434999999995
249	0x40424119488c670d	36.508584087902
250	0xc08b443682a152e5	-872.5266163447783
251	0x4032c57905b8fa98	18.77137790456854
252	0x4034cae8b544df92	20.792613343539024
253	0xc07ef51c50d77df2	-495.3194130342155
254	0x4030ee43cd90856c	16.930722091468326
255	0xc0a4569555b39c13	-2603.2916694763203
