ws_icra2022/src/my_pkg/ur5_eye2hand/keyboard_adaptive/before0913/0912offset_0_step_1e-5/log_theta_z.npy (npy, 7928 bytes, 1 tensors)

array f8 [75, 13, 1]
0	0x0000000000000000	0.0
1	0x0000000000000000	0.0
2	0x0000000000000000	0.0
3	0x0000000000000000	0.0
4	0x0000000000000000	0.0
5	0x0000000000000000	0.0
6	0x0000000000000000	0.0
7	0x0000000000000000	0.0
8	0x0000000000000000	0.0
9	0x3fe5b5ebbe6e540a	0.678457138
10	0xbfe781e20fd50a33	-0.734604865
11	0xbf7d6c86175c1434	-0.00718357448
12	0x3ff977be223a119f	1.59173406
13	0x0000000000000000	0.0
14	0x0000000000000000	0.0
15	0x0000000000000000	0.0
16	0x0000000000000000	0.0
17	0x0000000000000000	0.0
18	0x0000000000000000	0.0
19	0x0000000000000000	0.0
20	0x0000000000000000	0.0
21	0x0000000000000000	0.0
22	0x3fe5b5ebbe6e540a	0.678457138
23	0xbfe781e20fd50a33	-0.734604865
24	0xbf7d6c86175c1434	-0.00718357448
25	0x3ff977be223a119f	1.59173406
26	0x3e71cd093f76543e	6.631360337788171e-08
27	0x3e3e4ef62b8b090c	7.056734468201359e-09
28	0x3e6886dc60ad58e6	4.568472541123666e-08
29	0x3e3695b388d9beab	5.258426705880914e-09
30	0xbe759d5e29964353	-8.052109947408787e-08
31	0x3e34a30cb480d2a1	4.804905647015827e-09
32	0xbe68a815fc6460b0	-4.5926469337775925e-08
33	0x3e10a99474f16a6d	9.6988058189914e-10
34	0x3e71dadada4f58a1	6.65146929334939e-08
35	0x3fe5b5ebc43e78f3	0.6784571488276739
36	0xbfe781e22758d34f	-0.7346049087997047
37	0xbf7d6c9182c3185f	-0.00718361702110401
38	0x3ff977be0c8717a4	1.5917339791644531
39	0x3e71cd093f76543e	6.631360337788171e-08
40	0x3e3e4ef62b8b090c	7.056734468201359e-09
41	0x3e6886dc60ad58e6	4.568472541123666e-08
42	0x3e3695b388d9beab	5.258426705880914e-09
43	0xbe759d5e29964353	-8.052109947408787e-08
44	0x3e34a30cb480d2a1	4.804905647015827e-09
45	0xbe68a815fc6460b0	-4.5926469337775925e-08
46	0x3e10a99474f16a6d	9.6988058189914e-10
47	0x3e71dadada4f58a1	6.65146929334939e-08
48	0x3fe5b5ebc43e78f3	0.6784571488276739
49	0xbfe781e22758d34f	-0.7346049087997047
50	0xbf7d6c9182c3185f	-0.00718361702110401
51	0x3ff977be0c8717a4	1.5917339791644531
52	0xbe70fbe06a794658	-6.326993206545275e-08
53	0xbe3bdcbbaccffccc	-6.487182968756987e-09
54	0xbe677deaad71dffe	-4.3757003070335376e-08
55	0xbe32f50275c1bcb1	-4.41378652733506e-09
56	0x3e74a5527797e2df	7.691155969731368e-08
57	0xbe359141371637e9	-5.02155193936025e-09
58	0x3e67a18f407a59b6	4.401633907113249e-08
59	0xbe1bb7c1b55a53ab	-1.6133882748987887e-09
60	0xbe7105107c53f2d5	-6.340363175104093e-08
61	0x3fe5b5ebb90175e0	0.6784571278946565
62	0xbfe781e1f93b6fb7	-0.7346048229041945
63	0xbf7d6c7b3e5a6402	-0.007183534069235444
64	0x3ff977be36f331e1	1.591734137199744
65	0xbe70fbe06a794658	-6.326993206545275e-08
66	0xbe3bdcbbaccffccc	-6.487182968756987e-09
67	0xbe677deaad71dffe	-4.3757003070335376e-08
68	0xbe32f50275c1bcb1	-4.41378652733506e-09
69	0x3e74a5527797e2df	7.691155969731368e-08
70	0xbe359141371637e9	-5.02155193936025e-09
71	0x3e67a18f407a59b6	4.401633907113249e-08
72	0xbe1bb7c1b55a53ab	-1.6133882748987887e-09
73	0xbe7105107c53f2d5	-6.340363175104093e-08
74	0x3fe5b5ebb90175e0	0.6784571278946565
75	0xbfe781e1f93b6fb7	-0.7346048229041945
76	0xbf7d6c7b3e5a6402	-0.007183534069235444
77	0x3ff977be36f331e1	1.591734137199744
78	0xbf081ed638da3ce1	-4.6006119288505424e-05
79	0xbed2db2d4c9e0ac8	-4.495658865513292e-06
80	0xbf00d5dfbb74716d	-3.211106325748639e-05
81	0xbec427059678f319	-2.402356745338774e-06
82	0x3f0d6438a421491d	5.605981688518362e-05
83	0xbed27b9c37b861d0	-4.406655417032006e-06
84	0x3f00f3f1e241f409	3.233510895570702e-05
85	0xbec2b7d8d7db9d4e	-2.2313776629649526e-06
86	0xbf081ffdd1df02c6	-4.601472231469598e-05
87	0x3fe5b5dcf0c30559	0.6784500791911042
88	0xbfe781a0e292b903	-0.7345737862831644
89	0xbf7d4dfca6dcef50	-0.007154452248695112
90	0x3ff977f926dca55d	1.5917903440516377
91	0xbf2482fe962ed14f	-0.00015649183032241185
92	0xbeeef2803d840e27	-1.4756807943167614e-05
93	0xbf1cc6d273156532	-0.00010977420312964918
94	0xbedb1ee3b4930b20	-6.466069700286262e-06
95	0x3f2905a17fb762ac	0.00019090267583867415
96	0xbef13d784eb9a55a	-1.6441456791948173e-05
97	0x3f1cfc12e2fcee40	0.00011056771540734426
98	0xbee461a7101cfa60	-9.71863528642403e-06
99	0xbf247d45f9d3e32d	-0.00015632132718914599
100	0x3fe5b5babb67c1da	0.6784337673435019
101	0xbfe781026584a41e	-0.7344982130790674
102	0xbf7d0531b9426fbe	-0.0070850317316874505
103	0x3ff978872bb6b4f9	1.5919257838789334
104	0xbf2482fe962ed14f	-0.00015649183032241185
105	0xbeeef2803d840e27	-1.4756807943167614e-05
106	0xbf1cc6d273156532	-0.00010977420312964918
107	0xbedb1ee3b4930b20	-6.466069700286262e-06
108	0x3f2905a17fb762ac	0.00019090267583867415
109	0xbef13d784eb9a55a	-1.6441456791948173e-05
110	0x3f1cfc12e2fcee40	0.00011056771540734426
111	0xbee461a7101cfa60	-9.71863528642403e-06
112	0xbf247d45f9d3e32d	-0.00015632132718914599
113	0x3fe5b5babb67c1da	0.6784337673435019
114	0xbfe781026584a41e	-0.7344982130790674
115	0xbf7d0531b9426fbe	-0.0070850317316874505
116	0x3ff978872bb6b4f9	1.5919257838789334
117	0xbf31b2888ed3c618	-0.0002700408357006758
118	0xbef92e5ed267e052	-2.4014601104100086e-05
119	0xbf28fafd595ed338	-0.00019058554306430344
120	0xbedd788b96f253ae	-7.026405327033407e-06
121	0x3f359c692c023473	0.0003297573821406448
122	0xbf008c19549584b6	-3.156139662042463e-05
123	0x3f29274949d8e748	0.000191905685754718
124	0xbef6bd5053881d47	-2.1686083728792297e-05
125	0xbf31a51607adb9bb	-0.00026923930970825975
126	0x3fe5b59a8834d3ab	0.6784184131889693
127	0xbfe7805b6a424378	-0.7344185901039131
128	0xbf7cbb639c0b073f	-0.007014645671633179
129	0x3ff97919a1de6a4c	1.5920654604912157
130	0xbf31b2888ed3c618	-0.0002700408357006758
131	0xbef92e5ed267e052	-2.4014601104100086e-05
132	0xbf28fafd595ed338	-0.00019058554306430344
133	0xbedd788b96f253ae	-7.026405327033407e-06
134	0x3f359c692c023473	0.0003297573821406448
135	0xbf008c19549584b6	-3.156139662042463e-05
136	0x3f29274949d8e748	0.000191905685754718
137	0xbef6bd5053881d47	-2.1686083728792297e-05
138	0xbf31a51607adb9bb	-0.00026923930970825975
139	0x3fe5b59a8834d3ab	0.6784184131889693
140	0xbfe7805b6a424378	-0.7344185901039131
141	0xbf7cbb639c0b073f	-0.007014645671633179
142	0x3ff97919a1de6a4c	1.5920654604912157
143	0xbf3894c350783b9b	-0.0003750779000889993
144	0xbf00604798b82fb5	-3.123491759646162e-05
145	0xbf3170ccab0a98b7	-0.0002661227872898896
146	0xbed17d5d993cec8c	-4.16987167622529e-06
147	0x3f3e08ae2f94fac8	0.0004582810648407318
148	0xbf09121a3c72d946	-4.7818589842862347e-05
149	0x3f318bd25f6b0ed4	0.0002677334409037894
150	0xbf0326e39815fdd8	-3.652936994579984e-05
151	0xbf38764a0c4ffbe0	-0.00037326152624922275
152	0x3fe5b57fa7775a62	0.6784055968117395
153	0xbfe77fbd3193b8de	-0.7343431442548327
154	0xbf7c77ebb8bac941	-0.006950302875042448
155	0x3ff979a1818b9d4c	1.5921950397840474
156	0xbf3894c350783b9b	-0.0003750779000889993
157	0xbf00604798b82fb5	-3.123491759646162e-05
158	0xbf3170ccab0a98b7	-0.0002661227872898896
159	0xbed17d5d993cec8c	-4.16987167622529e-06
160	0x3f3e08ae2f94fac8	0.0004582810648407318
161	0xbf09121a3c72d946	-4.7818589842862347e-05
162	0x3f318bd25f6b0ed4	0.0002677334409037894
163	0xbf0326e39815fdd8	-3.652936994579984e-05
164	0xbf38764a0c4ffbe0	-0.00037326152624922275
165	0x3fe5b57fa7775a62	0.6784055968117395
166	0xbfe77fbd3193b8de	-0.7343431442548327
167	0xbf7c77ebb8bac941	-0.006950302875042448
168	0x3ff979a1818b9d4c	1.5921950397840474
169	0xbf3ee5d8269776c6	-0.00047146346204650043
170	0xbf0306122feba8b0	-3.628485682390223e-05
171	0xbf3606e926542161	-0.00033610527164331354
172	0x3ec08aca80baff06	1.971978241005373e-06
173	0x3f42e0e83c4d6b7b	0.0005761274302174957
174	0xbf10fb68b9782c2b	-6.478144347725537e-05
175	0x3f3620779fa82aa0	0.00033762856006151233
176	0xbf0c3b72e3f2c4a5	-5.384868972536345e-05
177	0xbf3eb06265460578	-0.00046827699886627756
178	0x3fe5b56a3d72e4aa	0.6783953857585818
179	0xbfe77f284951cb8f	-0.7342721397420621
180	0xbf7c3ab8ed67eb07	-0.006891939518477447
181	0x3ff97a1e843738fb	1.5923142590214059
182	0xbf3ee5d8269776c6	-0.00047146346204650043
183	0xbf0306122feba8b0	-3.628485682390223e-05
184	0xbf3606e926542161	-0.00033610527164331354
185	0x3ec08aca80baff06	1.971978241005373e-06
186	0x3f42e0e83c4d6b7b	0.0005761274302174957
187	0xbf10fb68b9782c2b	-6.478144347725537e-05
188	0x3f3620779fa82aa0	0.00033762856006151233
189	0xbf0c3b72e3f2c4a5	-5.384868972536345e-05
190	0xbf3eb06265460578	-0.00046827699886627756
191	0x3fe5b56a3d72e4aa	0.6783953857585818
192	0xbfe77f284951cb8f	-0.7342721397420621
193	0xbf7c3ab8ed67eb07	-0.006891939518477447
194	0x3ff97a1e843738fb	1.5923142590214059
195	0xbf42dcd990fc0a8e	-0.0005756437621758524
196	0xbf05079f8c93fc9d	-4.0111118844160197e-05
197	0xbf3b04d801149547	-0.0004122760156682514
198	0x3ee8fcb5b9909312	1.1914800596876606e-05
199	0x3f470bac6bb7256b	0.0007032958887346735
200	0xbf1638b715e2407e	-8.476846184835189e-05
201	0x3f3b151765e144ef	0.00041324444999186934
202	0xbf13e1a98bc1c65a	-7.584187818723259e-05
203	0xbf42b27c80f812b0	-0.0005705936363829735
204	0x3fe5b55657ec69a9	0.6783858983283625
205	0xbfe77e83fc2c95dd	-0.7341937947537037
206	0xbf7bf917ac73f1b3	-0.006829349970982101
207	0x3ff97aa5e6b68ba2	1.5924433719853615
208	0xbf44ee6eb7f59fb2	-0.0006387749307750128
209	0xbf05fedf01653ec6	-4.1953259073521746e-05
210	0xbf3e0d78e05c1e70	-0.0004585666759884038
211	0x3ef3c9329730a03e	1.886933155162439e-05
212	0x3f49916e0e032259	0.0007802760483395884
213	0xbf1982cc58e7c412	-9.731647717338445e-05
214	0x3f3e1586e5a51358	0.00045904677758228573
215	0xbf179c75ead69b70	-9.006948194799163e-05
216	0xbf44b9bb93d41b26	-0.0006324926286261675
217	0x3fe5b54b3ab0ed3d	0.6783805986700951
218	0xbfe77e1f7ae57202	-0.7341458702390471
219	0xbf7bd17412aab7d0	-0.006791547212442198
220	0x3ff97af802b4b905	1.5925216775609112
221	0xbf44ee6eb7f59fb2	-0.0006387749307750128
222	0xbf05fedf01653ec6	-4.1953259073521746e-05
223	0xbf3e0d78e05c1e70	-0.0004585666759884038
224	0x3ef3c9329730a03e	1.886933155162439e-05
225	0x3f49916e0e032259	0.0007802760483395884
226	0xbf1982cc58e7c412	-9.731647717338445e-05
227	0x3f3e1586e5a51358	0.00045904677758228573
228	0xbf179c75ead69b70	-9.006948194799163e-05
229	0xbf44b9bb93d41b26	-0.0006324926286261675
230	0x3fe5b54b3ab0ed3d	0.6783805986700951
231	0xbfe77e1f7ae57202	-0.7341458702390471
232	0xbf7bd17412aab7d0	-0.006791547212442198
233	0x3ff97af802b4b905	1.5925216775609112
234	0xbf4677bbb4f0d38f	-0.0006856600319965367
235	0xbf066aadf841ce2b	-4.275649465137714e-05
236	0xbf40287892e758bc	-0.0004931057681527777
237	0x3efa5bac7597d822	2.513704325753802e-05
238	0x3f4b701489379372	0.0008373356126268729
239	0xbf1c16d1a736492e	-0.00010715155240451489
240	0x3f4027c47f5afc7f	0.0004930219135629437
241	0xbf1aa941a2f0edea	-0.0001017042456944933
242	0xbf463a57848930ea	-0.0006783416111573435
243	0x3fe5b5441d74da51	0.6783772063561831
244	0xbfe77dd3a26df43b	-0.7341097042514159
245	0xbf7bb427ea0b41a4	-0.006763606944062781
246	0x3ff97b35142d792e	1.5925799167813
247	0xbf47401e4b5bad1a	-0.0007095477983204729
248	0xbf0694883840ba7f	-4.306832036636998e-05
249	0xbf40bc696880117e	-0.0005107416809555924
250	0x3efdedfd009fa06c	2.8543130646513736e-05
251	0x3f4c63c3529132e0	0.0008663848613053825
252	0xbf1d6ee5914c05f7	-0.00011227871102550262
253	0x3f40b8f2502055c7	0.000510328595057779
254	0xbf1c45cf27ba8bda	-0.00010785176157894431
255	0xbf46fe130747a59d	-0.0007016747391023651
